node {
  name: "global_step/Initializer/zeros"
  op: "Const"
  attr {
    key: "_class"
    value {
      list {
        s: "loc:@global_step"
      }
    }
  }
  attr {
    key: "_output_shapes"
    value {
      list {
        shape {
        }
      }
    }
  }
  attr {
    key: "dtype"
    value {
      type: DT_INT64
    }
  }
  attr {
    key: "value"
    value {
      tensor {
        dtype: DT_INT64
        tensor_shape {
        }
        int64_val: 0
      }
    }
  }
}
node {
  name: "global_step"
  op: "VarHandleOp"
  attr {
    key: "_class"
    value {
      list {
        s: "loc:@global_step"
      }
    }
  }
  attr {
    key: "_output_shapes"
    value {
      list {
        shape {
        }
      }
    }
  }
  attr {
    key: "container"
    value {
      s: ""
    }
  }
  attr {
    key: "dtype"
    value {
      type: DT_INT64
    }
  }
  attr {
    key: "shape"
    value {
      shape {
      }
    }
  }
  attr {
    key: "shared_name"
    value {
      s: "global_step"
    }
  }
}
node {
  name: "global_step/IsInitialized/VarIsInitializedOp"
  op: "VarIsInitializedOp"
  input: "global_step"
  attr {
    key: "_output_shapes"
    value {
      list {
        shape {
        }
      }
    }
  }
}
node {
  name: "global_step/Assign"
  op: "AssignVariableOp"
  input: "global_step"
  input: "global_step/Initializer/zeros"
  attr {
    key: "_class"
    value {
      list {
        s: "loc:@global_step"
      }
    }
  }
  attr {
    key: "dtype"
    value {
      type: DT_INT64
    }
  }
}
node {
  name: "global_step/Read/ReadVariableOp"
  op: "ReadVariableOp"
  input: "global_step"
  attr {
    key: "_class"
    value {
      list {
        s: "loc:@global_step"
      }
    }
  }
  attr {
    key: "_output_shapes"
    value {
      list {
        shape {
        }
      }
    }
  }
  attr {
    key: "dtype"
    value {
      type: DT_INT64
    }
  }
}
node {
  name: "global_step/VarIsInitializedOp"
  op: "VarIsInitializedOp"
  input: "global_step"
  attr {
    key: "_output_shapes"
    value {
      list {
        shape {
        }
      }
    }
  }
}
node {
  name: "global_step/cond/Switch"
  op: "Switch"
  input: "global_step/VarIsInitializedOp"
  input: "global_step/VarIsInitializedOp"
  attr {
    key: "T"
    value {
      type: DT_BOOL
    }
  }
  attr {
    key: "_output_shapes"
    value {
      list {
        shape {
        }
        shape {
        }
      }
    }
  }
}
node {
  name: "global_step/cond/switch_t"
  op: "Identity"
  input: "global_step/cond/Switch:1"
  attr {
    key: "T"
    value {
      type: DT_BOOL
    }
  }
  attr {
    key: "_output_shapes"
    value {
      list {
        shape {
        }
      }
    }
  }
}
node {
  name: "global_step/cond/switch_f"
  op: "Identity"
  input: "global_step/cond/Switch"
  attr {
    key: "T"
    value {
      type: DT_BOOL
    }
  }
  attr {
    key: "_output_shapes"
    value {
      list {
        shape {
        }
      }
    }
  }
}
node {
  name: "global_step/cond/pred_id"
  op: "Identity"
  input: "global_step/VarIsInitializedOp"
  attr {
    key: "T"
    value {
      type: DT_BOOL
    }
  }
  attr {
    key: "_output_shapes"
    value {
      list {
        shape {
        }
      }
    }
  }
}
node {
  name: "global_step/cond/Read/ReadVariableOp"
  op: "ReadVariableOp"
  input: "global_step/cond/Read/ReadVariableOp/Switch:1"
  attr {
    key: "_output_shapes"
    value {
      list {
        shape {
        }
      }
    }
  }
  attr {
    key: "dtype"
    value {
      type: DT_INT64
    }
  }
}
node {
  name: "global_step/cond/Read/ReadVariableOp/Switch"
  op: "Switch"
  input: "global_step"
  input: "global_step/cond/pred_id"
  attr {
    key: "T"
    value {
      type: DT_RESOURCE
    }
  }
  attr {
    key: "_class"
    value {
      list {
        s: "loc:@global_step"
      }
    }
  }
  attr {
    key: "_output_shapes"
    value {
      list {
        shape {
        }
        shape {
        }
      }
    }
  }
}
node {
  name: "global_step/cond/Identity"
  op: "Identity"
  input: "global_step/cond/Read/ReadVariableOp"
  attr {
    key: "T"
    value {
      type: DT_INT64
    }
  }
  attr {
    key: "_output_shapes"
    value {
      list {
        shape {
        }
      }
    }
  }
}
node {
  name: "global_step/cond/Switch_1"
  op: "Switch"
  input: "global_step/Initializer/zeros"
  input: "global_step/cond/pred_id"
  attr {
    key: "T"
    value {
      type: DT_INT64
    }
  }
  attr {
    key: "_class"
    value {
      list {
        s: "loc:@global_step"
      }
    }
  }
  attr {
    key: "_output_shapes"
    value {
      list {
        shape {
        }
        shape {
        }
      }
    }
  }
}
node {
  name: "global_step/cond/Merge"
  op: "Merge"
  input: "global_step/cond/Switch_1"
  input: "global_step/cond/Identity"
  attr {
    key: "N"
    value {
      i: 2
    }
  }
  attr {
    key: "T"
    value {
      type: DT_INT64
    }
  }
  attr {
    key: "_output_shapes"
    value {
      list {
        shape {
        }
        shape {
        }
      }
    }
  }
}
node {
  name: "global_step/add/y"
  op: "Const"
  attr {
    key: "_output_shapes"
    value {
      list {
        shape {
        }
      }
    }
  }
  attr {
    key: "dtype"
    value {
      type: DT_INT64
    }
  }
  attr {
    key: "value"
    value {
      tensor {
        dtype: DT_INT64
        tensor_shape {
        }
        int64_val: 0
      }
    }
  }
}
node {
  name: "global_step/add"
  op: "Add"
  input: "global_step/cond/Merge"
  input: "global_step/add/y"
  attr {
    key: "T"
    value {
      type: DT_INT64
    }
  }
  attr {
    key: "_output_shapes"
    value {
      list {
        shape {
        }
      }
    }
  }
}
node {
  name: "tensors/component_0"
  op: "Const"
  device: "/device:CPU:0"
  attr {
    key: "_output_shapes"
    value {
      list {
        shape {
          dim {
            size: 627
          }
        }
      }
    }
  }
  attr {
    key: "dtype"
    value {
      type: DT_DOUBLE
    }
  }
  attr {
    key: "value"
    value {
      tensor {
        dtype: DT_DOUBLE
        tensor_shape {
          dim {
            size: 627
          }
        }
        tensor_content: "…"
      }
    }
  }
}
node {
  name: "tensors/component_1"
  op: "Const"
  device: "/device:CPU:0"
  attr {
    key: "_output_shapes"
    value {
      list {
        shape {
          dim {
            size: 627
          }
        }
      }
    }
  }
  attr {
    key: "dtype"
    value {
      type: DT_STRING
    }
  }
  attr {
    key: "value"
    value {
      tensor {
        dtype: DT_STRING
        tensor_shape {
          dim {
            size: 627
          }
        }
        string_val: "n"
        string_val: "n"
        string_val: "y"
        string_val: "n"
        string_val: "y"
        string_val: "n"
        string_val: "n"
        string_val: "n"
        string_val: "n"
        string_val: "y"
        string_val: "n"
        string_val: "y"
        string_val: "n"
        string_val: "y"
        string_val: "n"
        string_val: "y"
        string_val: "y"
        string_val: "y"
        string_val: "n"
        string_val: "y"
        string_val: "n"
        string_val: "y"
        string_val: "y"
        string_val: "y"
        string_val: "n"
        string_val: "y"
        string_val: "y"
        string_val: "n"
        string_val: "n"
        string_val: "y"
        string_val: "n"
        string_val: "n"
        string_val: "n"
        string_val: "y"
        string_val: "n"
        string_val: "y"
        string_val: "n"
        string_val: "n"
        string_val: "n"
        string_val: "n"
        string_val: "n"
        string_val: "n"
        string_val: "n"
        string_val: "y"
        string_val: "y"
        string_val: "y"
        string_val: "n"
        string_val: "y"
        string_val: "y"
        string_val: "n"
        string_val: "n"
        string_val: "n"
        string_val: "y"
        string_val: "n"
        string_val: "n"
        string_val: "y"
        string_val: "y"
        string_val: "y"
        string_val: "y"
        string_val: "y"
        string_val: "y"
        string_val: "n"
        string_val: "y"
        string_val: "y"
        string_val: "y"
        string_val: "y"
        string_val: "y"
        string_val: "n"
        string_val: "y"
        string_val: "n"
        string_val: "y"
        string_val: "n"
        string_val: "y"
        string_val: "y"
        string_val: "y"
        string_val: "n"
        string_val: "n"
        string_val: "n"
        string_val: "y"
        string_val: "y"
        string_val: "n"
        string_val: "y"
        string_val: "n"
        string_val: "y"
        string_val: "y"
        string_val: "n"
        string_val: "y"
        string_val: "n"
        string_val: "y"
        string_val: "y"
        string_val: "y"
        string_val: "y"
        string_val: "n"
        string_val: "n"
        string_val: "y"
        string_val: "n"
        string_val: "y"
        string_val: "y"
        string_val: "y"
        string_val: "y"
        string_val: "y"
        string_val: "n"
        string_val: "y"
        string_val: "n"
        string_val: "n"
        string_val: "y"
        string_val: "y"
        string_val: "n"
        string_val: "y"
        string_val: "y"
        string_val: "y"
        string_val: "n"
        string_val: "y"
        string_val: "y"
        string_val: "n"
        string_val: "y"
        string_val: "n"
        string_val: "y"
        string_val: "y"
        string_val: "n"
        string_val: "n"
        string_val: "y"
        string_val: "y"
        string_val: "n"
        string_val: "n"
        string_val: "y"
        string_val: "n"
        string_val: "n"
        string_val: "n"
        string_val: "y"
        string_val: "y"
        string_val: "y"
        string_val: "n"
        string_val: "y"
        string_val: "n"
        string_val: "n"
        string_val: "n"
        string_val: "y"
        string_val: "y"
        string_val: "y"
        string_val: "n"
        string_val: "n"
        string_val: "y"
        string_val: "y"
        string_val: "y"
        string_val: "y"
        string_val: "y"
        string_val: "y"
        string_val: "n"
        string_val: "y"
        string_val: "n"
        string_val: "n"
        string_val: "y"
        string_val: "y"
        string_val: "y"
        string_val: "y"
        string_val: "y"
        string_val: "n"
        string_val: "n"
        string_val: "y"
        string_val: "n"
        string_val: "y"
        string_val: "y"
        string_val: "y"
        string_val: "y"
        string_val: "y"
        string_val: "y"
        string_val: "y"
        string_val: "n"
        string_val: "n"
        string_val: "y"
        string_val: "y"
        string_val: "y"
        string_val: "n"
        string_val: "y"
        string_val: "y"
        string_val: "n"
        string_val: "n"
        string_val: "y"
        string_val: "y"
        string_val: "n"
        string_val: "n"
        string_val: "y"
        string_val: "n"
        string_val: "n"
        string_val: "n"
        string_val: "y"
        string_val: "y"
        string_val: "n"
        string_val: "y"
        string_val: "n"
        string_val: "y"
        string_val: "y"
        string_val: "y"
        string_val: "n"
        string_val: "n"
        string_val: "n"
        string_val: "y"
        string_val: "y"
        string_val: "y"
        string_val: "n"
        string_val: "n"
        string_val: "y"
        string_val: "n"
        string_val: "y"
        string_val: "y"
        string_val: "n"
        string_val: "n"
        string_val: "y"
        string_val: "y"
        string_val: "y"
        string_val: "y"
        string_val: "y"
        string_val: "y"
        string_val: "y"
        string_val: "n"
        string_val: "y"
        string_val: "y"
        string_val: "y"
        string_val: "y"
        string_val: "y"
        string_val: "n"
        string_val: "n"
        string_val: "y"
        string_val: "y"
        string_val: "n"
        string_val: "n"
        string_val: "y"
        string_val: "n"
        string_val: "n"
        string_val: "n"
        string_val: "n"
        string_val: "y"
        string_val: "y"
        string_val: "n"
        string_val: "n"
        string_val: "y"
        string_val: "y"
        string_val: "n"
        string_val: "n"
        string_val: "n"
        string_val: "n"
        string_val: "y"
        string_val: "n"
        string_val: "y"
        string_val: "y"
        string_val: "y"
        string_val: "y"
        string_val: "y"
        string_val: "y"
        string_val: "y"
        string_val: "n"
        string_val: "n"
        string_val: "n"
        string_val: "y"
        string_val: "y"
        string_val: "n"
        string_val: "y"
        string_val: "y"
        string_val: "y"
        string_val: "n"
        string_val: "n"
        string_val: "n"
        string_val: "y"
        string_val: "n"
        string_val: "n"
        string_val: "y"
        string_val: "y"
        string_val: "y"
        string_val: "n"
        string_val: "y"
        string_val: "n"
        string_val: "n"
        string_val: "y"
        string_val: "y"
        string_val: "y"
        string_val: "y"
        string_val: "y"
        string_val: "n"
        string_val: "y"
        string_val: "y"
        string_val: "n"
        string_val: "y"
        string_val: "n"
        string_val: "n"
        string_val: "y"
        string_val: "y"
        string_val: "y"
        string_val: "y"
        string_val: "y"
        string_val: "y"
        string_val: "n"
        string_val: "n"
        string_val: "n"
        string_val: "y"
        string_val: "n"
        string_val: "y"
        string_val: "y"
        string_val: "y"
        string_val: "y"
        string_val: "y"
        string_val: "n"
        string_val: "n"
        string_val: "y"
        string_val: "y"
        string_val: "y"
        string_val: "n"
        string_val: "y"
        string_val: "y"
        string_val: "y"
        string_val: "y"
        string_val: "n"
        string_val: "n"
        string_val: "y"
        string_val: "n"
        string_val: "n"
        string_val: "n"
        string_val: "n"
        string_val: "y"
        string_val: "n"
        string_val: "y"
        string_val: "y"
        string_val: "y"
        string_val: "y"
        string_val: "n"
        string_val: "y"
        string_val: "n"
        string_val: "y"
        string_val: "n"
        string_val: "y"
        string_val: "y"
        string_val: "n"
        string_val: "y"
        string_val: "y"
        string_val: "y"
        string_val: "y"
        string_val: "y"
        string_val: "y"
        string_val: "y"
        string_val: "n"
        string_val: "y"
        string_val: "n"
        string_val: "y"
        string_val: "y"
        string_val: "n"
        string_val: "n"
        string_val: "n"
        string_val: "n"
        string_val: "y"
        string_val: "y"
        string_val: "n"
        string_val: "n"
        string_val: "n"
        string_val: "y"
        string_val: "n"
        string_val: "n"
        string_val: "y"
        string_val: "y"
        string_val: "n"
        string_val: "y"
        string_val: "y"
        string_val: "y"
        string_val: "n"
        string_val: "n"
        string_val: "y"
        string_val: "y"
        string_val: "n"
        string_val: "y"
        string_val: "y"
        string_val: "y"
        string_val: "n"
        string_val: "y"
        string_val: "y"
        string_val: "y"
        string_val: "n"
        string_val: "y"
        string_val: "y"
        string_val: "y"
        string_val: "y"
        string_val: "n"
        string_val: "n"
        string_val: "n"
        string_val: "n"
        string_val: "y"
        string_val: "n"
        string_val: "y"
        string_val: "y"
        string_val: "n"
        string_val: "n"
        string_val: "n"
        string_val: "n"
        string_val: "n"
        string_val: "n"
        string_val: "y"
        string_val: "n"
        string_val: "n"
        string_val: "y"
        string_val: "y"
        string_val: "y"
        string_val: "n"
        string_val: "y"
        string_val: "n"
        string_val: "n"
        string_val: "y"
        string_val: "y"
        string_val: "y"
        string_val: "n"
        string_val: "y"
        string_val: "n"
        string_val: "y"
        string_val: "y"
        string_val: "n"
        string_val: "y"
        string_val: "y"
        string_val: "y"
        string_val: "n"
        string_val: "y"
        string_val: "y"
        string_val: "n"
        string_val: "y"
        string_val: "y"
        string_val: "n"
        string_val: "y"
        string_val: "n"
        string_val: "n"
        string_val: "n"
        string_val: "y"
        string_val: "y"
        string_val: "y"
        string_val: "n"
        string_val: "y"
        string_val: "n"
        string_val: "y"
        string_val: "y"
        string_val: "n"
        string_val: "y"
        string_val: "n"
        string_val: "y"
        string_val: "n"
        string_val: "y"
        string_val: "n"
        string_val: "n"
        string_val: "y"
        string_val: "n"
        string_val: "y"
        string_val: "y"
        string_val: "y"
        string_val: "y"
        string_val: "y"
        string_val: "y"
        string_val: "y"
        string_val: "y"
        string_val: "n"
        string_val: "y"
        string_val: "y"
        string_val: "n"
        string_val: "n"
        string_val: "y"
        string_val: "y"
        string_val: "n"
        string_val: "n"
        string_val: "y"
        string_val: "y"
        string_val: "y"
        string_val: "n"
        string_val: "y"
        string_val: "n"
        string_val: "y"
        string_val: "n"
        string_val: "n"
        string_val: "y"
        string_val: "y"
        string_val: "n"
        string_val: "y"
        string_val: "y"
        string_val: "y"
        string_val: "n"
        string_val: "n"
        string_val: "y"
        string_val: "y"
        string_val: "y"
        string_val: "y"
        string_val: "n"
        string_val: "y"
        string_val: "y"
        string_val: "n"
        string_val: "n"
        string_val: "y"
        string_val: "y"
        string_val: "n"
        string_val: "n"
        string_val: "n"
        string_val: "y"
        string_val: "y"
        string_val: "y"
        string_val: "n"
        string_val: "y"
        string_val: "y"
        string_val: "y"
        string_val: "y"
        string_val: "n"
        string_val: "y"
        string_val: "y"
        string_val: "n"
        string_val: "y"
        string_val: "y"
        string_val: "y"
        string_val: "y"
        string_val: "y"
        string_val: "y"
        string_val: "n"
        string_val: "y"
        string_val: "n"
        string_val: "n"
        string_val: "n"
        string_val: "n"
        string_val: "y"
        string_val: "y"
        string_val: "y"
        string_val: "y"
        string_val: "y"
        string_val: "y"
        string_val: "y"
        string_val: "y"
        string_val: "n"
        string_val: "n"
        string_val: "n"
        string_val: "n"
        string_val: "n"
        string_val: "n"
        string_val: "y"
        string_val: "y"
        string_val: "n"
        string_val: "y"
        string_val: "y"
        string_val: "y"
        string_val: "y"
        string_val: "y"
        string_val: "n"
        string_val: "y"
        string_val: "n"
        string_val: "y"
        string_val: "y"
        string_val: "y"
        string_val: "y"
        string_val: "y"
        string_val: "y"
        string_val: "n"
        string_val: "y"
        string_val: "n"
        string_val: "y"
        string_val: "n"
        string_val: "y"
        string_val: "y"
        string_val: "y"
        string_val: "n"
        string_val: "y"
        string_val: "y"
        string_val: "y"
        string_val: "y"
        string_val: "y"
        string_val: "y"
        string_val: "n"
        string_val: "y"
        string_val: "n"
        string_val: "n"
        string_val: "y"
        string_val: "y"
        string_val: "y"
        string_val: "n"
        string_val: "y"
        string_val: "y"
        string_val: "y"
        string_val: "y"
        string_val: "y"
        string_val: "y"
        string_val: "n"
        string_val: "n"
        string_val: "n"
        string_val: "y"
        string_val: "n"
        string_val: "y"
        string_val: "y"
        string_val: "y"
        string_val: "n"
        string_val: "y"
        string_val: "y"
        string_val: "y"
        string_val: "n"
        string_val: "y"
        string_val: "y"
        string_val: "y"
        string_val: "y"
        string_val: "y"
        string_val: "y"
        string_val: "y"
        string_val: "n"
        string_val: "y"
        string_val: "n"
        string_val: "n"
        string_val: "n"
        string_val: "n"
        string_val: "n"
        string_val: "n"
        string_val: "y"
        string_val: "n"
        string_val: "n"
        string_val: "y"
        string_val: "y"
        string_val: "n"
        string_val: "y"
        string_val: "n"
        string_val: "y"
        string_val: "n"
        string_val: "y"
        string_val: "y"
        string_val: "n"
        string_val: "y"
        string_val: "y"
        string_val: "y"
        string_val: "y"
        string_val: "y"
        string_val: "y"
        string_val: "y"
        string_val: "y"
        string_val: "n"
        string_val: "y"
      }
    }
  }
}
node {
  name: "tensors/component_2"
  op: "Const"
  device: "/device:CPU:0"
  attr {
    key: "_output_shapes"
    value {
      list {
        shape {
          dim {
            size: 627
          }
        }
      }
    }
  }
  attr {
    key: "dtype"
    value {
      type: DT_STRING
    }
  }
  attr {
    key: "value"
    value {
      tensor {
        dtype: DT_STRING
        tensor_shape {
          dim {
            size: 627
          }
        }
        string_val: "Third"
        string_val: "First"
        string_val: "Third"
        string_val: "First"
        string_val: "Third"
        string_val: "Third"
        string_val: "Third"
        string_val: "Second"
        string_val: "Third"
        string_val: "Third"
        string_val: "Third"
        string_val: "Third"
        string_val: "Third"
        string_val: "Second"
        string_val: "Third"
        string_val: "Third"
        string_val: "Second"
        string_val: "First"
        string_val: "Third"
        string_val: "Third"
        string_val: "First"
        string_val: "Third"
        string_val: "Third"
        string_val: "First"
        string_val: "First"
        string_val: "Third"
        string_val: "Second"
        string_val: "First"
        string_val: "First"
        string_val: "Third"
        string_val: "Third"
        string_val: "Third"
        string_val: "Second"
        string_val: "Third"
        string_val: "Second"
        string_val: "Third"
        string_val: "Third"
        string_val: "Third"
        string_val: "Third"
        string_val: "Third"
        string_val: "First"
        string_val: "Second"
        string_val: "First"
        string_val: "First"
        string_val: "Second"
        string_val: "Third"
        string_val: "Third"
        string_val: "Third"
        string_val: "First"
        string_val: "First"
        string_val: "Third"
        string_val: "Third"
        string_val: "Third"
        string_val: "Third"
        string_val: "Third"
        string_val: "Second"
        string_val: "Second"
        string_val: "Third"
        string_val: "Third"
        string_val: "Third"
        string_val: "Third"
        string_val: "Second"
        string_val: "Third"
        string_val: "Third"
        string_val: "Third"
        string_val: "Third"
        string_val: "First"
        string_val: "Third"
        string_val: "Third"
        string_val: "First"
        string_val: "Third"
        string_val: "First"
        string_val: "Third"
        string_val: "Third"
        string_val: "First"
        string_val: "First"
        string_val: "Second"
        string_val: "Second"
        string_val: "Third"
        string_val: "Third"
        string_val: "First"
        string_val: "Third"
        string_val: "Third"
        string_val: "Third"
        string_val: "Third"
        string_val: "Third"
        string_val: "First"
        string_val: "Third"
        string_val: "Third"
        string_val: "Third"
        string_val: "Third"
        string_val: "Third"
        string_val: "Second"
        string_val: "First"
        string_val: "Third"
        string_val: "Second"
        string_val: "Second"
        string_val: "Third"
        string_val: "Third"
        string_val: "Third"
        string_val: "Third"
        string_val: "Third"
        string_val: "Second"
        string_val: "First"
        string_val: "First"
        string_val: "Third"
        string_val: "First"
        string_val: "Third"
        string_val: "Third"
        string_val: "Third"
        string_val: "Second"
        string_val: "Third"
        string_val: "Second"
        string_val: "Third"
        string_val: "Third"
        string_val: "Third"
        string_val: "First"
        string_val: "Third"
        string_val: "Third"
        string_val: "Third"
        string_val: "Third"
        string_val: "Third"
        string_val: "Third"
        string_val: "Third"
        string_val: "First"
        string_val: "Third"
        string_val: "Third"
        string_val: "Third"
        string_val: "Third"
        string_val: "First"
        string_val: "Second"
        string_val: "Third"
        string_val: "Third"
        string_val: "Second"
        string_val: "Third"
        string_val: "Third"
        string_val: "Third"
        string_val: "First"
        string_val: "Third"
        string_val: "Second"
        string_val: "Third"
        string_val: "Second"
        string_val: "First"
        string_val: "First"
        string_val: "Third"
        string_val: "Third"
        string_val: "Second"
        string_val: "Third"
        string_val: "Third"
        string_val: "Third"
        string_val: "Third"
        string_val: "Third"
        string_val: "Third"
        string_val: "Third"
        string_val: "First"
        string_val: "Second"
        string_val: "Third"
        string_val: "Third"
        string_val: "First"
        string_val: "Third"
        string_val: "Second"
        string_val: "Second"
        string_val: "Third"
        string_val: "Third"
        string_val: "Third"
        string_val: "Second"
        string_val: "Third"
        string_val: "Second"
        string_val: "Third"
        string_val: "First"
        string_val: "Third"
        string_val: "Second"
        string_val: "Third"
        string_val: "Second"
        string_val: "Second"
        string_val: "Second"
        string_val: "Third"
        string_val: "Third"
        string_val: "Third"
        string_val: "Third"
        string_val: "First"
        string_val: "Second"
        string_val: "Third"
        string_val: "Third"
        string_val: "Third"
        string_val: "Third"
        string_val: "First"
        string_val: "First"
        string_val: "Second"
        string_val: "Third"
        string_val: "Third"
        string_val: "First"
        string_val: "Third"
        string_val: "Second"
        string_val: "Third"
        string_val: "Third"
        string_val: "First"
        string_val: "First"
        string_val: "First"
        string_val: "Third"
        string_val: "Second"
        string_val: "First"
        string_val: "Third"
        string_val: "First"
        string_val: "Third"
        string_val: "Second"
        string_val: "Third"
        string_val: "Third"
        string_val: "Third"
        string_val: "Third"
        string_val: "First"
        string_val: "First"
        string_val: "Second"
        string_val: "Third"
        string_val: "First"
        string_val: "First"
        string_val: "Third"
        string_val: "Third"
        string_val: "Second"
        string_val: "Third"
        string_val: "First"
        string_val: "First"
        string_val: "Second"
        string_val: "First"
        string_val: "First"
        string_val: "First"
        string_val: "Second"
        string_val: "Third"
        string_val: "Second"
        string_val: "Second"
        string_val: "First"
        string_val: "First"
        string_val: "Third"
        string_val: "Third"
        string_val: "Second"
        string_val: "Third"
        string_val: "First"
        string_val: "Third"
        string_val: "Third"
        string_val: "Third"
        string_val: "First"
        string_val: "First"
        string_val: "Third"
        string_val: "First"
        string_val: "Third"
        string_val: "First"
        string_val: "Second"
        string_val: "Second"
        string_val: "Second"
        string_val: "Second"
        string_val: "Second"
        string_val: "Third"
        string_val: "Third"
        string_val: "Third"
        string_val: "Third"
        string_val: "Third"
        string_val: "First"
        string_val: "Second"
        string_val: "Third"
        string_val: "Third"
        string_val: "Third"
        string_val: "Second"
        string_val: "Third"
        string_val: "Third"
        string_val: "Third"
        string_val: "First"
        string_val: "Third"
        string_val: "Third"
        string_val: "First"
        string_val: "Third"
        string_val: "Third"
        string_val: "First"
        string_val: "First"
        string_val: "Third"
        string_val: "First"
        string_val: "Third"
        string_val: "Third"
        string_val: "Second"
        string_val: "Third"
        string_val: "Third"
        string_val: "Second"
        string_val: "First"
        string_val: "Third"
        string_val: "First"
        string_val: "Third"
        string_val: "Third"
        string_val: "Third"
        string_val: "Second"
        string_val: "Second"
        string_val: "Third"
        string_val: "Third"
        string_val: "Third"
        string_val: "Second"
        string_val: "Second"
        string_val: "Third"
        string_val: "Third"
        string_val: "Third"
        string_val: "Third"
        string_val: "Second"
        string_val: "Third"
        string_val: "Third"
        string_val: "Second"
        string_val: "Second"
        string_val: "Second"
        string_val: "Third"
        string_val: "Third"
        string_val: "Third"
        string_val: "Second"
        string_val: "Third"
        string_val: "Third"
        string_val: "First"
        string_val: "Third"
        string_val: "Second"
        string_val: "Third"
        string_val: "First"
        string_val: "First"
        string_val: "Second"
        string_val: "First"
        string_val: "Second"
        string_val: "Second"
        string_val: "Third"
        string_val: "Second"
        string_val: "Third"
        string_val: "First"
        string_val: "Third"
        string_val: "First"
        string_val: "Second"
        string_val: "First"
        string_val: "First"
        string_val: "Third"
        string_val: "First"
        string_val: "First"
        string_val: "First"
        string_val: "Third"
        string_val: "First"
        string_val: "Third"
        string_val: "Third"
        string_val: "First"
        string_val: "Third"
        string_val: "Third"
        string_val: "Third"
        string_val: "Second"
        string_val: "Second"
        string_val: "First"
        string_val: "Second"
        string_val: "Third"
        string_val: "Third"
        string_val: "Third"
        string_val: "Second"
        string_val: "Third"
        string_val: "First"
        string_val: "Third"
        string_val: "First"
        string_val: "First"
        string_val: "Third"
        string_val: "Third"
        string_val: "First"
        string_val: "Third"
        string_val: "First"
        string_val: "Third"
        string_val: "Third"
        string_val: "Third"
        string_val: "First"
        string_val: "Second"
        string_val: "First"
        string_val: "Third"
        string_val: "First"
        string_val: "Third"
        string_val: "First"
        string_val: "Second"
        string_val: "Second"
        string_val: "Third"
        string_val: "First"
        string_val: "Third"
        string_val: "First"
        string_val: "Third"
        string_val: "Third"
        string_val: "Second"
        string_val: "First"
        string_val: "Second"
        string_val: "Second"
        string_val: "Third"
        string_val: "Third"
        string_val: "Third"
        string_val: "Second"
        string_val: "First"
        string_val: "First"
        string_val: "First"
        string_val: "First"
        string_val: "Third"
        string_val: "Third"
        string_val: "First"
        string_val: "Second"
        string_val: "Second"
        string_val: "Third"
        string_val: "First"
        string_val: "Second"
        string_val: "Third"
        string_val: "Third"
        string_val: "First"
        string_val: "First"
        string_val: "First"
        string_val: "Third"
        string_val: "Third"
        string_val: "Third"
        string_val: "Third"
        string_val: "Third"
        string_val: "Third"
        string_val: "Third"
        string_val: "Third"
        string_val: "Second"
        string_val: "First"
        string_val: "First"
        string_val: "Third"
        string_val: "Second"
        string_val: "Second"
        string_val: "First"
        string_val: "Second"
        string_val: "First"
        string_val: "Third"
        string_val: "Third"
        string_val: "First"
        string_val: "Third"
        string_val: "Third"
        string_val: "Second"
        string_val: "Third"
        string_val: "Second"
        string_val: "Third"
        string_val: "Third"
        string_val: "First"
        string_val: "First"
        string_val: "Third"
        string_val: "Third"
        string_val: "First"
        string_val: "Second"
        string_val: "First"
        string_val: "Third"
        string_val: "Third"
        string_val: "Third"
        string_val: "Third"
        string_val: "Second"
        string_val: "Third"
        string_val: "Second"
        string_val: "Third"
        string_val: "First"
        string_val: "Second"
        string_val: "First"
        string_val: "Third"
        string_val: "Third"
        string_val: "First"
        string_val: "Third"
        string_val: "First"
        string_val: "Third"
        string_val: "Second"
        string_val: "Third"
        string_val: "Third"
        string_val: "Third"
        string_val: "Third"
        string_val: "Third"
        string_val: "Third"
        string_val: "First"
        string_val: "Third"
        string_val: "Third"
        string_val: "Third"
        string_val: "Second"
        string_val: "Third"
        string_val: "Second"
        string_val: "Third"
        string_val: "Third"
        string_val: "First"
        string_val: "First"
        string_val: "Third"
        string_val: "Third"
        string_val: "Second"
        string_val: "Third"
        string_val: "Third"
        string_val: "Second"
        string_val: "First"
        string_val: "Second"
        string_val: "Second"
        string_val: "Third"
        string_val: "Third"
        string_val: "First"
        string_val: "First"
        string_val: "Third"
        string_val: "Third"
        string_val: "Second"
        string_val: "Third"
        string_val: "Third"
        string_val: "First"
        string_val: "First"
        string_val: "Third"
        string_val: "Third"
        string_val: "First"
        string_val: "Third"
        string_val: "First"
        string_val: "First"
        string_val: "Third"
        string_val: "Second"
        string_val: "First"
        string_val: "Third"
        string_val: "First"
        string_val: "First"
        string_val: "First"
        string_val: "Third"
        string_val: "Third"
        string_val: "First"
        string_val: "Second"
        string_val: "Third"
        string_val: "Third"
        string_val: "Second"
        string_val: "Second"
        string_val: "First"
        string_val: "Second"
        string_val: "Second"
        string_val: "Third"
        string_val: "First"
        string_val: "Third"
        string_val: "Second"
        string_val: "Second"
        string_val: "Second"
        string_val: "First"
        string_val: "Third"
        string_val: "Third"
        string_val: "First"
        string_val: "First"
        string_val: "Third"
        string_val: "First"
        string_val: "Second"
        string_val: "Third"
        string_val: "Third"
        string_val: "Third"
        string_val: "Second"
        string_val: "Third"
        string_val: "Third"
        string_val: "Third"
        string_val: "Third"
        string_val: "Third"
        string_val: "First"
        string_val: "First"
        string_val: "Third"
        string_val: "Third"
        string_val: "Third"
        string_val: "Second"
        string_val: "Third"
        string_val: "Third"
        string_val: "Third"
        string_val: "First"
        string_val: "First"
        string_val: "Third"
        string_val: "Third"
        string_val: "Third"
        string_val: "First"
        string_val: "Third"
        string_val: "Second"
        string_val: "Third"
        string_val: "First"
        string_val: "Third"
        string_val: "Second"
        string_val: "First"
        string_val: "Third"
        string_val: "Third"
        string_val: "Third"
        string_val: "Second"
        string_val: "Second"
        string_val: "First"
        string_val: "Third"
        string_val: "First"
        string_val: "Second"
        string_val: "First"
        string_val: "Third"
        string_val: "Third"
        string_val: "Second"
        string_val: "Third"
        string_val: "First"
        string_val: "Third"
        string_val: "Second"
        string_val: "Third"
        string_val: "First"
        string_val: "Third"
        string_val: "Third"
        string_val: "Third"
        string_val: "Third"
        string_val: "Third"
        string_val: "Third"
        string_val: "Third"
        string_val: "Third"
        string_val: "Third"
        string_val: "First"
        string_val: "Third"
        string_val: "Third"
        string_val: "First"
        string_val: "Second"
        string_val: "First"
        string_val: "Third"
        string_val: "Third"
        string_val: "Third"
        string_val: "Third"
        string_val: "Second"
        string_val: "First"
        string_val: "Third"
        string_val: "First"
        string_val: "Third"
        string_val: "First"
        string_val: "First"
        string_val: "Third"
        string_val: "Third"
        string_val: "Second"
        string_val: "Second"
        string_val: "Second"
        string_val: "First"
        string_val: "Third"
        string_val: "Third"
        string_val: "First"
        string_val: "First"
        string_val: "Third"
        string_val: "Second"
        string_val: "Third"
        string_val: "Third"
        string_val: "Third"
        string_val: "Third"
        string_val: "Third"
        string_val: "Second"
        string_val: "Third"
        string_val: "First"
        string_val: "Third"
        string_val: "Third"
      }
    }
  }
}
node {
  name: "tensors/component_3"
  op: "Const"
  device: "/device:CPU:0"
  attr {
    key: "_output_shapes"
    value {
      list {
        shape {
          dim {
            size: 627
          }
        }
      }
    }
  }
  attr {
    key: "dtype"
    value {
      type: DT_STRING
    }
  }
  attr {
    key: "value"
    value {
      tensor {
        dtype: DT_STRING
        tensor_shape {
          dim {
            size: 627
          }
        }
        string_val: "unknown"
        string_val: "C"
        string_val: "unknown"
        string_val: "C"
        string_val: "unknown"
        string_val: "unknown"
        string_val: "unknown"
        string_val: "unknown"
        string_val: "G"
        string_val: "unknown"
        string_val: "unknown"
        string_val: "unknown"
        string_val: "unknown"
        string_val: "unknown"
        string_val: "unknown"
        string_val: "unknown"
        string_val: "unknown"
        string_val: "A"
        string_val: "unknown"
        string_val: "unknown"
        string_val: "C"
        string_val: "unknown"
        string_val: "unknown"
        string_val: "unknown"
        string_val: "B"
        string_val: "unknown"
        string_val: "unknown"
        string_val: "unknown"
        string_val: "unknown"
        string_val: "unknown"
        string_val: "unknown"
        string_val: "unknown"
        string_val: "unknown"
        string_val: "unknown"
        string_val: "unknown"
        string_val: "unknown"
        string_val: "unknown"
        string_val: "unknown"
        string_val: "unknown"
        string_val: "unknown"
        string_val: "D"
        string_val: "unknown"
        string_val: "B"
        string_val: "C"
        string_val: "unknown"
        string_val: "unknown"
        string_val: "unknown"
        string_val: "unknown"
        string_val: "B"
        string_val: "C"
        string_val: "unknown"
        string_val: "unknown"
        string_val: "unknown"
        string_val: "unknown"
        string_val: "unknown"
        string_val: "unknown"
        string_val: "unknown"
        string_val: "unknown"
        string_val: "F"
        string_val: "unknown"
        string_val: "unknown"
        string_val: "unknown"
        string_val: "unknown"
        string_val: "unknown"
        string_val: "unknown"
        string_val: "unknown"
        string_val: "unknown"
        string_val: "unknown"
        string_val: "unknown"
        string_val: "C"
        string_val: "unknown"
        string_val: "E"
        string_val: "unknown"
        string_val: "unknown"
        string_val: "A"
        string_val: "D"
        string_val: "unknown"
        string_val: "unknown"
        string_val: "unknown"
        string_val: "unknown"
        string_val: "D"
        string_val: "unknown"
        string_val: "unknown"
        string_val: "unknown"
        string_val: "unknown"
        string_val: "unknown"
        string_val: "C"
        string_val: "unknown"
        string_val: "unknown"
        string_val: "unknown"
        string_val: "unknown"
        string_val: "unknown"
        string_val: "unknown"
        string_val: "B"
        string_val: "unknown"
        string_val: "unknown"
        string_val: "E"
        string_val: "unknown"
        string_val: "unknown"
        string_val: "unknown"
        string_val: "unknown"
        string_val: "unknown"
        string_val: "unknown"
        string_val: "D"
        string_val: "C"
        string_val: "unknown"
        string_val: "B"
        string_val: "unknown"
        string_val: "unknown"
        string_val: "unknown"
        string_val: "unknown"
        string_val: "unknown"
        string_val: "unknown"
        string_val: "unknown"
        string_val: "unknown"
        string_val: "unknown"
        string_val: "unknown"
        string_val: "unknown"
        string_val: "unknown"
        string_val: "unknown"
        string_val: "unknown"
        string_val: "unknown"
        string_val: "unknown"
        string_val: "unknown"
        string_val: "E"
        string_val: "unknown"
        string_val: "unknown"
        string_val: "unknown"
        string_val: "unknown"
        string_val: "C"
        string_val: "unknown"
        string_val: "unknown"
        string_val: "unknown"
        string_val: "unknown"
        string_val: "unknown"
        string_val: "unknown"
        string_val: "unknown"
        string_val: "unknown"
        string_val: "unknown"
        string_val: "unknown"
        string_val: "unknown"
        string_val: "F"
        string_val: "B"
        string_val: "B"
        string_val: "unknown"
        string_val: "unknown"
        string_val: "unknown"
        string_val: "unknown"
        string_val: "unknown"
        string_val: "unknown"
        string_val: "G"
        string_val: "unknown"
        string_val: "unknown"
        string_val: "unknown"
        string_val: "A"
        string_val: "unknown"
        string_val: "unknown"
        string_val: "unknown"
        string_val: "D"
        string_val: "unknown"
        string_val: "unknown"
        string_val: "unknown"
        string_val: "unknown"
        string_val: "unknown"
        string_val: "unknown"
        string_val: "unknown"
        string_val: "unknown"
        string_val: "unknown"
        string_val: "unknown"
        string_val: "C"
        string_val: "unknown"
        string_val: "unknown"
        string_val: "unknown"
        string_val: "unknown"
        string_val: "unknown"
        string_val: "unknown"
        string_val: "unknown"
        string_val: "unknown"
        string_val: "unknown"
        string_val: "unknown"
        string_val: "C"
        string_val: "unknown"
        string_val: "unknown"
        string_val: "G"
        string_val: "unknown"
        string_val: "unknown"
        string_val: "unknown"
        string_val: "unknown"
        string_val: "unknown"
        string_val: "unknown"
        string_val: "unknown"
        string_val: "B"
        string_val: "unknown"
        string_val: "unknown"
        string_val: "unknown"
        string_val: "unknown"
        string_val: "C"
        string_val: "C"
        string_val: "unknown"
        string_val: "unknown"
        string_val: "unknown"
        string_val: "C"
        string_val: "unknown"
        string_val: "D"
        string_val: "unknown"
        string_val: "unknown"
        string_val: "unknown"
        string_val: "unknown"
        string_val: "unknown"
        string_val: "unknown"
        string_val: "A"
        string_val: "unknown"
        string_val: "D"
        string_val: "unknown"
        string_val: "C"
        string_val: "B"
        string_val: "unknown"
        string_val: "unknown"
        string_val: "E"
        string_val: "unknown"
        string_val: "unknown"
        string_val: "C"
        string_val: "unknown"
        string_val: "E"
        string_val: "C"
        string_val: "B"
        string_val: "unknown"
        string_val: "unknown"
        string_val: "unknown"
        string_val: "unknown"
        string_val: "C"
        string_val: "E"
        string_val: "unknown"
        string_val: "unknown"
        string_val: "unknown"
        string_val: "unknown"
        string_val: "C"
        string_val: "unknown"
        string_val: "unknown"
        string_val: "unknown"
        string_val: "C"
        string_val: "unknown"
        string_val: "unknown"
        string_val: "C"
        string_val: "unknown"
        string_val: "unknown"
        string_val: "unknown"
        string_val: "unknown"
        string_val: "unknown"
        string_val: "F"
        string_val: "unknown"
        string_val: "unknown"
        string_val: "unknown"
        string_val: "unknown"
        string_val: "unknown"
        string_val: "unknown"
        string_val: "E"
        string_val: "unknown"
        string_val: "unknown"
        string_val: "unknown"
        string_val: "unknown"
        string_val: "unknown"
        string_val: "unknown"
        string_val: "unknown"
        string_val: "unknown"
        string_val: "D"
        string_val: "unknown"
        string_val: "unknown"
        string_val: "B"
        string_val: "unknown"
        string_val: "unknown"
        string_val: "unknown"
        string_val: "C"
        string_val: "unknown"
        string_val: "unknown"
        string_val: "unknown"
        string_val: "unknown"
        string_val: "unknown"
        string_val: "unknown"
        string_val: "unknown"
        string_val: "unknown"
        string_val: "B"
        string_val: "unknown"
        string_val: "D"
        string_val: "G"
        string_val: "unknown"
        string_val: "unknown"
        string_val: "unknown"
        string_val: "unknown"
        string_val: "unknown"
        string_val: "unknown"
        string_val: "unknown"
        string_val: "unknown"
        string_val: "unknown"
        string_val: "unknown"
        string_val: "unknown"
        string_val: "unknown"
        string_val: "unknown"
        string_val: "unknown"
        string_val: "unknown"
        string_val: "unknown"
        string_val: "unknown"
        string_val: "unknown"
        string_val: "unknown"
        string_val: "unknown"
        string_val: "unknown"
        string_val: "unknown"
        string_val: "unknown"
        string_val: "unknown"
        string_val: "E"
        string_val: "C"
        string_val: "unknown"
        string_val: "unknown"
        string_val: "unknown"
        string_val: "E"
        string_val: "B"
        string_val: "unknown"
        string_val: "C"
        string_val: "unknown"
        string_val: "unknown"
        string_val: "unknown"
        string_val: "unknown"
        string_val: "unknown"
        string_val: "unknown"
        string_val: "unknown"
        string_val: "C"
        string_val: "unknown"
        string_val: "C"
        string_val: "C"
        string_val: "unknown"
        string_val: "E"
        string_val: "D"
        string_val: "E"
        string_val: "unknown"
        string_val: "E"
        string_val: "unknown"
        string_val: "unknown"
        string_val: "unknown"
        string_val: "unknown"
        string_val: "unknown"
        string_val: "unknown"
        string_val: "unknown"
        string_val: "D"
        string_val: "A"
        string_val: "unknown"
        string_val: "unknown"
        string_val: "unknown"
        string_val: "unknown"
        string_val: "unknown"
        string_val: "unknown"
        string_val: "B"
        string_val: "unknown"
        string_val: "C"
        string_val: "B"
        string_val: "unknown"
        string_val: "unknown"
        string_val: "unknown"
        string_val: "unknown"
        string_val: "C"
        string_val: "unknown"
        string_val: "unknown"
        string_val: "unknown"
        string_val: "C"
        string_val: "unknown"
        string_val: "unknown"
        string_val: "unknown"
        string_val: "unknown"
        string_val: "unknown"
        string_val: "D"
        string_val: "F"
        string_val: "unknown"
        string_val: "unknown"
        string_val: "B"
        string_val: "unknown"
        string_val: "B"
        string_val: "unknown"
        string_val: "unknown"
        string_val: "unknown"
        string_val: "C"
        string_val: "unknown"
        string_val: "unknown"
        string_val: "unknown"
        string_val: "unknown"
        string_val: "unknown"
        string_val: "unknown"
        string_val: "B"
        string_val: "unknown"
        string_val: "B"
        string_val: "B"
        string_val: "unknown"
        string_val: "unknown"
        string_val: "C"
        string_val: "unknown"
        string_val: "unknown"
        string_val: "unknown"
        string_val: "C"
        string_val: "unknown"
        string_val: "unknown"
        string_val: "unknown"
        string_val: "A"
        string_val: "unknown"
        string_val: "E"
        string_val: "unknown"
        string_val: "unknown"
        string_val: "unknown"
        string_val: "unknown"
        string_val: "unknown"
        string_val: "unknown"
        string_val: "unknown"
        string_val: "unknown"
        string_val: "unknown"
        string_val: "C"
        string_val: "E"
        string_val: "unknown"
        string_val: "unknown"
        string_val: "unknown"
        string_val: "A"
        string_val: "unknown"
        string_val: "B"
        string_val: "unknown"
        string_val: "unknown"
        string_val: "D"
        string_val: "unknown"
        string_val: "unknown"
        string_val: "unknown"
        string_val: "unknown"
        string_val: "unknown"
        string_val: "unknown"
        string_val: "unknown"
        string_val: "A"
        string_val: "unknown"
        string_val: "unknown"
        string_val: "unknown"
        string_val: "unknown"
        string_val: "unknown"
        string_val: "C"
        string_val: "unknown"
        string_val: "unknown"
        string_val: "unknown"
        string_val: "unknown"
        string_val: "unknown"
        string_val: "unknown"
        string_val: "unknown"
        string_val: "unknown"
        string_val: "D"
        string_val: "unknown"
        string_val: "D"
        string_val: "unknown"
        string_val: "unknown"
        string_val: "A"
        string_val: "unknown"
        string_val: "B"
        string_val: "unknown"
        string_val: "unknown"
        string_val: "unknown"
        string_val: "unknown"
        string_val: "unknown"
        string_val: "unknown"
        string_val: "unknown"
        string_val: "unknown"
        string_val: "D"
        string_val: "unknown"
        string_val: "unknown"
        string_val: "unknown"
        string_val: "unknown"
        string_val: "unknown"
        string_val: "unknown"
        string_val: "unknown"
        string_val: "unknown"
        string_val: "unknown"
        string_val: "E"
        string_val: "unknown"
        string_val: "unknown"
        string_val: "unknown"
        string_val: "unknown"
        string_val: "unknown"
        string_val: "unknown"
        string_val: "B"
        string_val: "unknown"
        string_val: "unknown"
        string_val: "unknown"
        string_val: "unknown"
        string_val: "B"
        string_val: "D"
        string_val: "unknown"
        string_val: "unknown"
        string_val: "unknown"
        string_val: "unknown"
        string_val: "unknown"
        string_val: "B"
        string_val: "B"
        string_val: "unknown"
        string_val: "unknown"
        string_val: "unknown"
        string_val: "unknown"
        string_val: "C"
        string_val: "E"
        string_val: "unknown"
        string_val: "unknown"
        string_val: "unknown"
        string_val: "unknown"
        string_val: "C"
        string_val: "C"
        string_val: "C"
        string_val: "unknown"
        string_val: "F"
        string_val: "C"
        string_val: "E"
        string_val: "unknown"
        string_val: "unknown"
        string_val: "unknown"
        string_val: "unknown"
        string_val: "E"
        string_val: "unknown"
        string_val: "unknown"
        string_val: "unknown"
        string_val: "B"
        string_val: "unknown"
        string_val: "unknown"
        string_val: "unknown"
        string_val: "unknown"
        string_val: "B"
        string_val: "unknown"
        string_val: "unknown"
        string_val: "C"
        string_val: "B"
        string_val: "unknown"
        string_val: "B"
        string_val: "unknown"
        string_val: "E"
        string_val: "unknown"
        string_val: "unknown"
        string_val: "unknown"
        string_val: "unknown"
        string_val: "unknown"
        string_val: "unknown"
        string_val: "unknown"
        string_val: "unknown"
        string_val: "D"
        string_val: "unknown"
        string_val: "unknown"
        string_val: "unknown"
        string_val: "unknown"
        string_val: "E"
        string_val: "unknown"
        string_val: "F"
        string_val: "unknown"
        string_val: "B"
        string_val: "D"
        string_val: "unknown"
        string_val: "unknown"
        string_val: "unknown"
        string_val: "B"
        string_val: "unknown"
        string_val: "unknown"
        string_val: "unknown"
        string_val: "unknown"
        string_val: "unknown"
        string_val: "unknown"
        string_val: "D"
        string_val: "unknown"
        string_val: "unknown"
        string_val: "unknown"
        string_val: "unknown"
        string_val: "unknown"
        string_val: "B"
        string_val: "unknown"
        string_val: "A"
        string_val: "unknown"
        string_val: "E"
        string_val: "unknown"
        string_val: "unknown"
        string_val: "unknown"
        string_val: "unknown"
        string_val: "B"
        string_val: "unknown"
        string_val: "unknown"
        string_val: "unknown"
        string_val: "B"
        string_val: "unknown"
        string_val: "unknown"
        string_val: "unknown"
        string_val: "unknown"
        string_val: "unknown"
        string_val: "unknown"
        string_val: "unknown"
        string_val: "unknown"
        string_val: "unknown"
        string_val: "E"
        string_val: "unknown"
        string_val: "unknown"
        string_val: "C"
        string_val: "unknown"
        string_val: "unknown"
        string_val: "unknown"
        string_val: "unknown"
        string_val: "unknown"
        string_val: "unknown"
        string_val: "unknown"
        string_val: "C"
        string_val: "unknown"
        string_val: "D"
        string_val: "unknown"
        string_val: "unknown"
        string_val: "E"
        string_val: "unknown"
        string_val: "unknown"
        string_val: "unknown"
        string_val: "unknown"
        string_val: "unknown"
        string_val: "A"
        string_val: "unknown"
        string_val: "unknown"
        string_val: "D"
        string_val: "B"
        string_val: "unknown"
        string_val: "unknown"
        string_val: "unknown"
        string_val: "unknown"
        string_val: "unknown"
        string_val: "unknown"
        string_val: "unknown"
        string_val: "unknown"
        string_val: "unknown"
        string_val: "B"
        string_val: "unknown"
        string_val: "unknown"
      }
    }
  }
}
node {
  name: "tensors/component_4"
  op: "Const"
  device: "/device:CPU:0"
  attr {
    key: "_output_shapes"
    value {
      list {
        shape {
          dim {
            size: 627
          }
        }
      }
    }
  }
  attr {
    key: "dtype"
    value {
      type: DT_STRING
    }
  }
  attr {
    key: "value"
    value {
      tensor {
        dtype: DT_STRING
        tensor_shape {
          dim {
            size: 627
          }
        }
        string_val: "Southampton"
        string_val: "Cherbourg"
        string_val: "Southampton"
        string_val: "Southampton"
        string_val: "Queenstown"
        string_val: "Southampton"
        string_val: "Southampton"
        string_val: "Cherbourg"
        string_val: "Southampton"
        string_val: "Southampton"
        string_val: "Southampton"
        string_val: "Southampton"
        string_val: "Queenstown"
        string_val: "Southampton"
        string_val: "Southampton"
        string_val: "Cherbourg"
        string_val: "Southampton"
        string_val: "Southampton"
        string_val: "Southampton"
        string_val: "Cherbourg"
        string_val: "Southampton"
        string_val: "Queenstown"
        string_val: "Southampton"
        string_val: "Cherbourg"
        string_val: "Cherbourg"
        string_val: "Queenstown"
        string_val: "Southampton"
        string_val: "Cherbourg"
        string_val: "Southampton"
        string_val: "Cherbourg"
        string_val: "Cherbourg"
        string_val: "Southampton"
        string_val: "Southampton"
        string_val: "Cherbourg"
        string_val: "Cherbourg"
        string_val: "Southampton"
        string_val: "Queenstown"
        string_val: "Cherbourg"
        string_val: "Southampton"
        string_val: "Southampton"
        string_val: "Cherbourg"
        string_val: "Southampton"
        string_val: "Cherbourg"
        string_val: "Southampton"
        string_val: "Southampton"
        string_val: "Cherbourg"
        string_val: "Southampton"
        string_val: "Cherbourg"
        string_val: "unknown"
        string_val: "Southampton"
        string_val: "Southampton"
        string_val: "Cherbourg"
        string_val: "Southampton"
        string_val: "Southampton"
        string_val: "Southampton"
        string_val: "Southampton"
        string_val: "Southampton"
        string_val: "Southampton"
        string_val: "Southampton"
        string_val: "Southampton"
        string_val: "Southampton"
        string_val: "Southampton"
        string_val: "Southampton"
        string_val: "Southampton"
        string_val: "Southampton"
        string_val: "Queenstown"
        string_val: "Southampton"
        string_val: "Southampton"
        string_val: "Southampton"
        string_val: "Southampton"
        string_val: "Southampton"
        string_val: "Southampton"
        string_val: "Southampton"
        string_val: "Southampton"
        string_val: "Cherbourg"
        string_val: "Cherbourg"
        string_val: "Southampton"
        string_val: "Southampton"
        string_val: "Southampton"
        string_val: "Southampton"
        string_val: "Southampton"
        string_val: "Southampton"
        string_val: "Southampton"
        string_val: "Southampton"
        string_val: "Southampton"
        string_val: "Queenstown"
        string_val: "Southampton"
        string_val: "Cherbourg"
        string_val: "Southampton"
        string_val: "Cherbourg"
        string_val: "Southampton"
        string_val: "Queenstown"
        string_val: "Southampton"
        string_val: "Cherbourg"
        string_val: "Southampton"
        string_val: "Cherbourg"
        string_val: "Southampton"
        string_val: "Queenstown"
        string_val: "Southampton"
        string_val: "Southampton"
        string_val: "Southampton"
        string_val: "Southampton"
        string_val: "Cherbourg"
        string_val: "Southampton"
        string_val: "Southampton"
        string_val: "Southampton"
        string_val: "Cherbourg"
        string_val: "Cherbourg"
        string_val: "Southampton"
        string_val: "Queenstown"
        string_val: "Southampton"
        string_val: "Southampton"
        string_val: "Southampton"
        string_val: "Southampton"
        string_val: "Southampton"
        string_val: "Southampton"
        string_val: "Cherbourg"
        string_val: "Queenstown"
        string_val: "Southampton"
        string_val: "Southampton"
        string_val: "Southampton"
        string_val: "Southampton"
        string_val: "Southampton"
        string_val: "Southampton"
        string_val: "Southampton"
        string_val: "Southampton"
        string_val: "Queenstown"
        string_val: "Southampton"
        string_val: "Southampton"
        string_val: "Cherbourg"
        string_val: "Southampton"
        string_val: "Southampton"
        string_val: "Southampton"
        string_val: "Cherbourg"
        string_val: "Southampton"
        string_val: "Southampton"
        string_val: "Queenstown"
        string_val: "Southampton"
        string_val: "Southampton"
        string_val: "Southampton"
        string_val: "Southampton"
        string_val: "Southampton"
        string_val: "Cherbourg"
        string_val: "Cherbourg"
        string_val: "Queenstown"
        string_val: "Queenstown"
        string_val: "Southampton"
        string_val: "Southampton"
        string_val: "Southampton"
        string_val: "Southampton"
        string_val: "Southampton"
        string_val: "Southampton"
        string_val: "Cherbourg"
        string_val: "Queenstown"
        string_val: "Cherbourg"
        string_val: "Southampton"
        string_val: "Southampton"
        string_val: "Queenstown"
        string_val: "Cherbourg"
        string_val: "Southampton"
        string_val: "Southampton"
        string_val: "Southampton"
        string_val: "Southampton"
        string_val: "Southampton"
        string_val: "Southampton"
        string_val: "Southampton"
        string_val: "Southampton"
        string_val: "Southampton"
        string_val: "Southampton"
        string_val: "Southampton"
        string_val: "Southampton"
        string_val: "Southampton"
        string_val: "Southampton"
        string_val: "Southampton"
        string_val: "Southampton"
        string_val: "Southampton"
        string_val: "Cherbourg"
        string_val: "Queenstown"
        string_val: "Southampton"
        string_val: "Cherbourg"
        string_val: "Queenstown"
        string_val: "Southampton"
        string_val: "Southampton"
        string_val: "Southampton"
        string_val: "Southampton"
        string_val: "Southampton"
        string_val: "Cherbourg"
        string_val: "Cherbourg"
        string_val: "Southampton"
        string_val: "Queenstown"
        string_val: "Southampton"
        string_val: "Southampton"
        string_val: "Queenstown"
        string_val: "Southampton"
        string_val: "Southampton"
        string_val: "Southampton"
        string_val: "Southampton"
        string_val: "Southampton"
        string_val: "Southampton"
        string_val: "Southampton"
        string_val: "Southampton"
        string_val: "Cherbourg"
        string_val: "Queenstown"
        string_val: "Southampton"
        string_val: "Southampton"
        string_val: "Southampton"
        string_val: "Queenstown"
        string_val: "Southampton"
        string_val: "Southampton"
        string_val: "Southampton"
        string_val: "Southampton"
        string_val: "Southampton"
        string_val: "Cherbourg"
        string_val: "Southampton"
        string_val: "Southampton"
        string_val: "Cherbourg"
        string_val: "Queenstown"
        string_val: "Southampton"
        string_val: "Queenstown"
        string_val: "Southampton"
        string_val: "Cherbourg"
        string_val: "Cherbourg"
        string_val: "Cherbourg"
        string_val: "Cherbourg"
        string_val: "Cherbourg"
        string_val: "Cherbourg"
        string_val: "Southampton"
        string_val: "Southampton"
        string_val: "Southampton"
        string_val: "Southampton"
        string_val: "Southampton"
        string_val: "Cherbourg"
        string_val: "Southampton"
        string_val: "Southampton"
        string_val: "Southampton"
        string_val: "Southampton"
        string_val: "Cherbourg"
        string_val: "Southampton"
        string_val: "Southampton"
        string_val: "Queenstown"
        string_val: "Southampton"
        string_val: "Southampton"
        string_val: "Southampton"
        string_val: "Southampton"
        string_val: "Southampton"
        string_val: "Southampton"
        string_val: "Southampton"
        string_val: "Southampton"
        string_val: "Southampton"
        string_val: "Southampton"
        string_val: "Southampton"
        string_val: "Southampton"
        string_val: "Cherbourg"
        string_val: "Southampton"
        string_val: "Cherbourg"
        string_val: "Southampton"
        string_val: "Southampton"
        string_val: "Southampton"
        string_val: "Queenstown"
        string_val: "Queenstown"
        string_val: "Southampton"
        string_val: "Cherbourg"
        string_val: "Cherbourg"
        string_val: "Southampton"
        string_val: "Queenstown"
        string_val: "Cherbourg"
        string_val: "Cherbourg"
        string_val: "Queenstown"
        string_val: "Cherbourg"
        string_val: "Southampton"
        string_val: "Southampton"
        string_val: "Cherbourg"
        string_val: "Cherbourg"
        string_val: "Southampton"
        string_val: "Cherbourg"
        string_val: "Southampton"
        string_val: "Southampton"
        string_val: "Southampton"
        string_val: "Southampton"
        string_val: "Queenstown"
        string_val: "Cherbourg"
        string_val: "Southampton"
        string_val: "Southampton"
        string_val: "Cherbourg"
        string_val: "Southampton"
        string_val: "Southampton"
        string_val: "Southampton"
        string_val: "Southampton"
        string_val: "Southampton"
        string_val: "Southampton"
        string_val: "Southampton"
        string_val: "Southampton"
        string_val: "Southampton"
        string_val: "Southampton"
        string_val: "Southampton"
        string_val: "Southampton"
        string_val: "Southampton"
        string_val: "Queenstown"
        string_val: "Southampton"
        string_val: "Southampton"
        string_val: "Southampton"
        string_val: "Southampton"
        string_val: "Southampton"
        string_val: "Southampton"
        string_val: "Cherbourg"
        string_val: "Queenstown"
        string_val: "Southampton"
        string_val: "Southampton"
        string_val: "Queenstown"
        string_val: "Southampton"
        string_val: "Southampton"
        string_val: "Southampton"
        string_val: "Southampton"
        string_val: "Southampton"
        string_val: "Southampton"
        string_val: "Southampton"
        string_val: "Southampton"
        string_val: "Southampton"
        string_val: "Southampton"
        string_val: "Southampton"
        string_val: "Southampton"
        string_val: "Southampton"
        string_val: "Southampton"
        string_val: "Southampton"
        string_val: "Cherbourg"
        string_val: "Southampton"
        string_val: "Southampton"
        string_val: "Cherbourg"
        string_val: "Cherbourg"
        string_val: "Cherbourg"
        string_val: "Southampton"
        string_val: "Southampton"
        string_val: "Southampton"
        string_val: "Southampton"
        string_val: "Southampton"
        string_val: "Southampton"
        string_val: "Southampton"
        string_val: "Southampton"
        string_val: "Queenstown"
        string_val: "Cherbourg"
        string_val: "Southampton"
        string_val: "Southampton"
        string_val: "Cherbourg"
        string_val: "Southampton"
        string_val: "Southampton"
        string_val: "Southampton"
        string_val: "Southampton"
        string_val: "Southampton"
        string_val: "Southampton"
        string_val: "Southampton"
        string_val: "Cherbourg"
        string_val: "Southampton"
        string_val: "Southampton"
        string_val: "Cherbourg"
        string_val: "Southampton"
        string_val: "Southampton"
        string_val: "Cherbourg"
        string_val: "Southampton"
        string_val: "Southampton"
        string_val: "Southampton"
        string_val: "Queenstown"
        string_val: "Southampton"
        string_val: "Cherbourg"
        string_val: "Southampton"
        string_val: "Southampton"
        string_val: "Southampton"
        string_val: "Cherbourg"
        string_val: "Southampton"
        string_val: "Southampton"
        string_val: "Southampton"
        string_val: "Southampton"
        string_val: "Southampton"
        string_val: "Southampton"
        string_val: "Southampton"
        string_val: "Cherbourg"
        string_val: "Cherbourg"
        string_val: "Queenstown"
        string_val: "Southampton"
        string_val: "Southampton"
        string_val: "Southampton"
        string_val: "Southampton"
        string_val: "Cherbourg"
        string_val: "Cherbourg"
        string_val: "Southampton"
        string_val: "Southampton"
        string_val: "Southampton"
        string_val: "Cherbourg"
        string_val: "Cherbourg"
        string_val: "Southampton"
        string_val: "Southampton"
        string_val: "Southampton"
        string_val: "Cherbourg"
        string_val: "Southampton"
        string_val: "Cherbourg"
        string_val: "Southampton"
        string_val: "Cherbourg"
        string_val: "Southampton"
        string_val: "Queenstown"
        string_val: "Southampton"
        string_val: "Cherbourg"
        string_val: "Cherbourg"
        string_val: "Southampton"
        string_val: "Southampton"
        string_val: "Queenstown"
        string_val: "Southampton"
        string_val: "Southampton"
        string_val: "Southampton"
        string_val: "Southampton"
        string_val: "Southampton"
        string_val: "Southampton"
        string_val: "Southampton"
        string_val: "Southampton"
        string_val: "Southampton"
        string_val: "Southampton"
        string_val: "Southampton"
        string_val: "Southampton"
        string_val: "Cherbourg"
        string_val: "Southampton"
        string_val: "Cherbourg"
        string_val: "Southampton"
        string_val: "Southampton"
        string_val: "Cherbourg"
        string_val: "Southampton"
        string_val: "Queenstown"
        string_val: "Southampton"
        string_val: "Southampton"
        string_val: "Southampton"
        string_val: "Southampton"
        string_val: "Cherbourg"
        string_val: "Cherbourg"
        string_val: "Cherbourg"
        string_val: "Southampton"
        string_val: "Southampton"
        string_val: "Southampton"
        string_val: "Cherbourg"
        string_val: "Southampton"
        string_val: "Southampton"
        string_val: "Southampton"
        string_val: "Queenstown"
        string_val: "Southampton"
        string_val: "Southampton"
        string_val: "Southampton"
        string_val: "Southampton"
        string_val: "Cherbourg"
        string_val: "Southampton"
        string_val: "Queenstown"
        string_val: "Southampton"
        string_val: "Southampton"
        string_val: "Queenstown"
        string_val: "Southampton"
        string_val: "Southampton"
        string_val: "Cherbourg"
        string_val: "Southampton"
        string_val: "Southampton"
        string_val: "Southampton"
        string_val: "Southampton"
        string_val: "Southampton"
        string_val: "Southampton"
        string_val: "Southampton"
        string_val: "Cherbourg"
        string_val: "Cherbourg"
        string_val: "Southampton"
        string_val: "Southampton"
        string_val: "Southampton"
        string_val: "Southampton"
        string_val: "Southampton"
        string_val: "Southampton"
        string_val: "Southampton"
        string_val: "Queenstown"
        string_val: "Southampton"
        string_val: "Southampton"
        string_val: "Southampton"
        string_val: "Southampton"
        string_val: "Southampton"
        string_val: "Southampton"
        string_val: "Southampton"
        string_val: "Southampton"
        string_val: "Southampton"
        string_val: "Southampton"
        string_val: "Southampton"
        string_val: "Southampton"
        string_val: "Southampton"
        string_val: "Cherbourg"
        string_val: "Cherbourg"
        string_val: "Southampton"
        string_val: "Southampton"
        string_val: "Southampton"
        string_val: "Southampton"
        string_val: "Southampton"
        string_val: "Southampton"
        string_val: "Southampton"
        string_val: "Cherbourg"
        string_val: "Southampton"
        string_val: "Southampton"
        string_val: "Queenstown"
        string_val: "Cherbourg"
        string_val: "Southampton"
        string_val: "Queenstown"
        string_val: "Southampton"
        string_val: "Southampton"
        string_val: "Cherbourg"
        string_val: "Cherbourg"
        string_val: "Southampton"
        string_val: "Southampton"
        string_val: "Southampton"
        string_val: "Southampton"
        string_val: "Cherbourg"
        string_val: "Southampton"
        string_val: "Queenstown"
        string_val: "Southampton"
        string_val: "Southampton"
        string_val: "Southampton"
        string_val: "Southampton"
        string_val: "Southampton"
        string_val: "Southampton"
        string_val: "Southampton"
        string_val: "Southampton"
        string_val: "Cherbourg"
        string_val: "Southampton"
        string_val: "Southampton"
        string_val: "Southampton"
        string_val: "Cherbourg"
        string_val: "Southampton"
        string_val: "Southampton"
        string_val: "Southampton"
        string_val: "Cherbourg"
        string_val: "Southampton"
        string_val: "Southampton"
        string_val: "Southampton"
        string_val: "Southampton"
        string_val: "Southampton"
        string_val: "Southampton"
        string_val: "Southampton"
        string_val: "Southampton"
        string_val: "Southampton"
        string_val: "Southampton"
        string_val: "Southampton"
        string_val: "Cherbourg"
        string_val: "Southampton"
        string_val: "Cherbourg"
        string_val: "Queenstown"
        string_val: "Southampton"
        string_val: "Southampton"
        string_val: "Southampton"
        string_val: "Southampton"
        string_val: "Queenstown"
        string_val: "Southampton"
        string_val: "Southampton"
        string_val: "Southampton"
        string_val: "Southampton"
        string_val: "Southampton"
        string_val: "Southampton"
        string_val: "Cherbourg"
        string_val: "Queenstown"
        string_val: "Southampton"
        string_val: "Southampton"
        string_val: "Cherbourg"
        string_val: "Southampton"
        string_val: "Southampton"
        string_val: "Southampton"
        string_val: "Southampton"
        string_val: "Cherbourg"
        string_val: "Southampton"
        string_val: "Southampton"
        string_val: "Southampton"
        string_val: "Southampton"
        string_val: "Southampton"
        string_val: "Southampton"
        string_val: "Southampton"
        string_val: "Southampton"
        string_val: "Southampton"
        string_val: "Southampton"
        string_val: "Southampton"
        string_val: "Southampton"
        string_val: "Southampton"
        string_val: "Southampton"
        string_val: "Cherbourg"
        string_val: "Southampton"
        string_val: "Southampton"
        string_val: "Southampton"
        string_val: "Southampton"
        string_val: "Queenstown"
        string_val: "Southampton"
        string_val: "Queenstown"
        string_val: "Cherbourg"
        string_val: "Cherbourg"
        string_val: "Southampton"
        string_val: "Southampton"
        string_val: "Cherbourg"
        string_val: "Southampton"
        string_val: "Southampton"
        string_val: "Cherbourg"
        string_val: "Southampton"
        string_val: "Cherbourg"
        string_val: "Cherbourg"
        string_val: "Southampton"
        string_val: "Southampton"
        string_val: "Cherbourg"
        string_val: "Southampton"
        string_val: "Cherbourg"
        string_val: "Southampton"
        string_val: "Southampton"
        string_val: "Southampton"
        string_val: "Southampton"
        string_val: "Southampton"
        string_val: "Cherbourg"
        string_val: "Southampton"
        string_val: "Southampton"
        string_val: "Southampton"
        string_val: "Cherbourg"
        string_val: "Southampton"
        string_val: "Southampton"
        string_val: "Southampton"
        string_val: "Southampton"
        string_val: "Southampton"
        string_val: "Southampton"
        string_val: "Cherbourg"
        string_val: "Cherbourg"
        string_val: "Southampton"
        string_val: "Southampton"
        string_val: "Southampton"
        string_val: "Southampton"
        string_val: "Southampton"
        string_val: "Southampton"
        string_val: "Southampton"
        string_val: "Southampton"
        string_val: "Queenstown"
      }
    }
  }
}
node {
  name: "tensors/component_5"
  op: "Const"
  device: "/device:CPU:0"
  attr {
    key: "_output_shapes"
    value {
      list {
        shape {
          dim {
            size: 627
          }
        }
      }
    }
  }
  attr {
    key: "dtype"
    value {
      type: DT_DOUBLE
    }
  }
  attr {
    key: "value"
    value {
      tensor {
        dtype: DT_DOUBLE
        tensor_shape {
          dim {
            size: 627
          }
        }
        tensor_content: "…"
      }
    }
  }
}
node {
  name: "tensors/component_6"
  op: "Const"
  device: "/device:CPU:0"
  attr {
    key: "_output_shapes"
    value {
      list {
        shape {
          dim {
            size: 627
          }
        }
      }
    }
  }
  attr {
    key: "dtype"
    value {
      type: DT_INT64
    }
  }
  attr {
    key: "value"
    value {
      tensor {
        dtype: DT_INT64
        tensor_shape {
          dim {
            size: 627
          }
        }
        tensor_content: "…"
      }
    }
  }
}
node {
  name: "tensors/component_7"
  op: "Const"
  device: "/device:CPU:0"
  attr {
    key: "_output_shapes"
    value {
      list {
        shape {
          dim {
            size: 627
          }
        }
      }
    }
  }
  attr {
    key: "dtype"
    value {
      type: DT_INT64
    }
  }
  attr {
    key: "value"
    value {
      tensor {
        dtype: DT_INT64
        tensor_shape {
          dim {
            size: 627
          }
        }
        tensor_content: "…"
      }
    }
  }
}
node {
  name: "tensors/component_8"
  op: "Const"
  device: "/device:CPU:0"
  attr {
    key: "_output_shapes"
    value {
      list {
        shape {
          dim {
            size: 627
          }
        }
      }
    }
  }
  attr {
    key: "dtype"
    value {
      type: DT_STRING
    }
  }
  attr {
    key: "value"
    value {
      tensor {
        dtype: DT_STRING
        tensor_shape {
          dim {
            size: 627
          }
        }
        string_val: "male"
        string_val: "female"
        string_val: "female"
        string_val: "female"
        string_val: "male"
        string_val: "male"
        string_val: "female"
        string_val: "female"
        string_val: "female"
        string_val: "male"
        string_val: "male"
        string_val: "female"
        string_val: "male"
        string_val: "male"
        string_val: "female"
        string_val: "female"
        string_val: "male"
        string_val: "male"
        string_val: "female"
        string_val: "male"
        string_val: "male"
        string_val: "female"
        string_val: "male"
        string_val: "male"
        string_val: "female"
        string_val: "female"
        string_val: "male"
        string_val: "male"
        string_val: "male"
        string_val: "male"
        string_val: "female"
        string_val: "female"
        string_val: "female"
        string_val: "male"
        string_val: "female"
        string_val: "male"
        string_val: "male"
        string_val: "male"
        string_val: "female"
        string_val: "male"
        string_val: "female"
        string_val: "female"
        string_val: "male"
        string_val: "male"
        string_val: "female"
        string_val: "male"
        string_val: "male"
        string_val: "male"
        string_val: "female"
        string_val: "male"
        string_val: "male"
        string_val: "male"
        string_val: "male"
        string_val: "female"
        string_val: "male"
        string_val: "male"
        string_val: "male"
        string_val: "male"
        string_val: "male"
        string_val: "male"
        string_val: "male"
        string_val: "male"
        string_val: "female"
        string_val: "male"
        string_val: "male"
        string_val: "female"
        string_val: "male"
        string_val: "male"
        string_val: "male"
        string_val: "female"
        string_val: "male"
        string_val: "male"
        string_val: "male"
        string_val: "male"
        string_val: "male"
        string_val: "male"
        string_val: "female"
        string_val: "male"
        string_val: "female"
        string_val: "male"
        string_val: "male"
        string_val: "male"
        string_val: "male"
        string_val: "male"
        string_val: "male"
        string_val: "female"
        string_val: "male"
        string_val: "female"
        string_val: "male"
        string_val: "female"
        string_val: "male"
        string_val: "male"
        string_val: "male"
        string_val: "male"
        string_val: "male"
        string_val: "male"
        string_val: "female"
        string_val: "male"
        string_val: "male"
        string_val: "male"
        string_val: "male"
        string_val: "female"
        string_val: "male"
        string_val: "female"
        string_val: "male"
        string_val: "male"
        string_val: "male"
        string_val: "female"
        string_val: "female"
        string_val: "male"
        string_val: "male"
        string_val: "female"
        string_val: "male"
        string_val: "male"
        string_val: "male"
        string_val: "male"
        string_val: "male"
        string_val: "female"
        string_val: "male"
        string_val: "male"
        string_val: "male"
        string_val: "male"
        string_val: "male"
        string_val: "male"
        string_val: "female"
        string_val: "male"
        string_val: "male"
        string_val: "male"
        string_val: "male"
        string_val: "female"
        string_val: "male"
        string_val: "male"
        string_val: "female"
        string_val: "male"
        string_val: "male"
        string_val: "female"
        string_val: "female"
        string_val: "male"
        string_val: "male"
        string_val: "female"
        string_val: "female"
        string_val: "male"
        string_val: "female"
        string_val: "female"
        string_val: "male"
        string_val: "female"
        string_val: "female"
        string_val: "male"
        string_val: "male"
        string_val: "male"
        string_val: "female"
        string_val: "male"
        string_val: "male"
        string_val: "female"
        string_val: "male"
        string_val: "female"
        string_val: "male"
        string_val: "male"
        string_val: "female"
        string_val: "female"
        string_val: "male"
        string_val: "male"
        string_val: "male"
        string_val: "male"
        string_val: "male"
        string_val: "male"
        string_val: "male"
        string_val: "male"
        string_val: "female"
        string_val: "female"
        string_val: "male"
        string_val: "male"
        string_val: "female"
        string_val: "male"
        string_val: "male"
        string_val: "male"
        string_val: "female"
        string_val: "female"
        string_val: "male"
        string_val: "male"
        string_val: "male"
        string_val: "female"
        string_val: "male"
        string_val: "female"
        string_val: "male"
        string_val: "female"
        string_val: "female"
        string_val: "female"
        string_val: "female"
        string_val: "male"
        string_val: "male"
        string_val: "male"
        string_val: "female"
        string_val: "male"
        string_val: "male"
        string_val: "male"
        string_val: "female"
        string_val: "female"
        string_val: "male"
        string_val: "male"
        string_val: "female"
        string_val: "male"
        string_val: "female"
        string_val: "female"
        string_val: "female"
        string_val: "male"
        string_val: "male"
        string_val: "female"
        string_val: "male"
        string_val: "male"
        string_val: "male"
        string_val: "female"
        string_val: "male"
        string_val: "male"
        string_val: "male"
        string_val: "female"
        string_val: "female"
        string_val: "male"
        string_val: "female"
        string_val: "male"
        string_val: "female"
        string_val: "female"
        string_val: "male"
        string_val: "female"
        string_val: "female"
        string_val: "female"
        string_val: "female"
        string_val: "male"
        string_val: "male"
        string_val: "female"
        string_val: "female"
        string_val: "female"
        string_val: "male"
        string_val: "male"
        string_val: "female"
        string_val: "male"
        string_val: "female"
        string_val: "male"
        string_val: "female"
        string_val: "female"
        string_val: "male"
        string_val: "female"
        string_val: "male"
        string_val: "male"
        string_val: "male"
        string_val: "male"
        string_val: "male"
        string_val: "male"
        string_val: "male"
        string_val: "female"
        string_val: "female"
        string_val: "female"
        string_val: "male"
        string_val: "male"
        string_val: "male"
        string_val: "male"
        string_val: "female"
        string_val: "female"
        string_val: "female"
        string_val: "female"
        string_val: "male"
        string_val: "male"
        string_val: "female"
        string_val: "male"
        string_val: "male"
        string_val: "female"
        string_val: "female"
        string_val: "female"
        string_val: "female"
        string_val: "male"
        string_val: "male"
        string_val: "female"
        string_val: "male"
        string_val: "male"
        string_val: "female"
        string_val: "male"
        string_val: "male"
        string_val: "male"
        string_val: "male"
        string_val: "male"
        string_val: "female"
        string_val: "male"
        string_val: "male"
        string_val: "female"
        string_val: "female"
        string_val: "male"
        string_val: "female"
        string_val: "male"
        string_val: "male"
        string_val: "male"
        string_val: "male"
        string_val: "male"
        string_val: "male"
        string_val: "male"
        string_val: "male"
        string_val: "female"
        string_val: "male"
        string_val: "male"
        string_val: "male"
        string_val: "male"
        string_val: "female"
        string_val: "female"
        string_val: "female"
        string_val: "male"
        string_val: "male"
        string_val: "male"
        string_val: "male"
        string_val: "female"
        string_val: "male"
        string_val: "male"
        string_val: "male"
        string_val: "female"
        string_val: "female"
        string_val: "male"
        string_val: "male"
        string_val: "female"
        string_val: "female"
        string_val: "male"
        string_val: "male"
        string_val: "female"
        string_val: "male"
        string_val: "female"
        string_val: "male"
        string_val: "male"
        string_val: "female"
        string_val: "male"
        string_val: "male"
        string_val: "male"
        string_val: "male"
        string_val: "male"
        string_val: "male"
        string_val: "female"
        string_val: "male"
        string_val: "male"
        string_val: "male"
        string_val: "male"
        string_val: "male"
        string_val: "male"
        string_val: "male"
        string_val: "female"
        string_val: "male"
        string_val: "female"
        string_val: "female"
        string_val: "male"
        string_val: "male"
        string_val: "male"
        string_val: "female"
        string_val: "male"
        string_val: "male"
        string_val: "female"
        string_val: "male"
        string_val: "female"
        string_val: "female"
        string_val: "male"
        string_val: "male"
        string_val: "male"
        string_val: "male"
        string_val: "male"
        string_val: "female"
        string_val: "male"
        string_val: "female"
        string_val: "female"
        string_val: "male"
        string_val: "female"
        string_val: "male"
        string_val: "male"
        string_val: "female"
        string_val: "male"
        string_val: "male"
        string_val: "female"
        string_val: "female"
        string_val: "male"
        string_val: "female"
        string_val: "male"
        string_val: "female"
        string_val: "male"
        string_val: "male"
        string_val: "female"
        string_val: "male"
        string_val: "male"
        string_val: "female"
        string_val: "male"
        string_val: "female"
        string_val: "female"
        string_val: "female"
        string_val: "male"
        string_val: "female"
        string_val: "female"
        string_val: "female"
        string_val: "female"
        string_val: "female"
        string_val: "male"
        string_val: "female"
        string_val: "male"
        string_val: "male"
        string_val: "male"
        string_val: "male"
        string_val: "male"
        string_val: "female"
        string_val: "female"
        string_val: "male"
        string_val: "female"
        string_val: "female"
        string_val: "male"
        string_val: "male"
        string_val: "male"
        string_val: "male"
        string_val: "male"
        string_val: "female"
        string_val: "male"
        string_val: "male"
        string_val: "female"
        string_val: "male"
        string_val: "male"
        string_val: "female"
        string_val: "female"
        string_val: "male"
        string_val: "male"
        string_val: "male"
        string_val: "male"
        string_val: "male"
        string_val: "female"
        string_val: "male"
        string_val: "female"
        string_val: "male"
        string_val: "male"
        string_val: "female"
        string_val: "male"
        string_val: "male"
        string_val: "male"
        string_val: "male"
        string_val: "male"
        string_val: "male"
        string_val: "male"
        string_val: "female"
        string_val: "female"
        string_val: "female"
        string_val: "male"
        string_val: "female"
        string_val: "male"
        string_val: "female"
        string_val: "male"
        string_val: "male"
        string_val: "male"
        string_val: "male"
        string_val: "male"
        string_val: "female"
        string_val: "male"
        string_val: "male"
        string_val: "male"
        string_val: "male"
        string_val: "male"
        string_val: "female"
        string_val: "female"
        string_val: "male"
        string_val: "female"
        string_val: "male"
        string_val: "male"
        string_val: "male"
        string_val: "female"
        string_val: "male"
        string_val: "male"
        string_val: "female"
        string_val: "male"
        string_val: "female"
        string_val: "male"
        string_val: "male"
        string_val: "male"
        string_val: "female"
        string_val: "male"
        string_val: "male"
        string_val: "male"
        string_val: "male"
        string_val: "male"
        string_val: "male"
        string_val: "male"
        string_val: "female"
        string_val: "male"
        string_val: "male"
        string_val: "male"
        string_val: "male"
        string_val: "female"
        string_val: "male"
        string_val: "male"
        string_val: "male"
        string_val: "male"
        string_val: "male"
        string_val: "male"
        string_val: "male"
        string_val: "female"
        string_val: "male"
        string_val: "female"
        string_val: "male"
        string_val: "male"
        string_val: "female"
        string_val: "male"
        string_val: "male"
        string_val: "male"
        string_val: "male"
        string_val: "female"
        string_val: "male"
        string_val: "female"
        string_val: "male"
        string_val: "male"
        string_val: "male"
        string_val: "male"
        string_val: "female"
        string_val: "female"
        string_val: "male"
        string_val: "male"
        string_val: "female"
        string_val: "male"
        string_val: "male"
        string_val: "female"
        string_val: "male"
        string_val: "female"
        string_val: "female"
        string_val: "male"
        string_val: "male"
        string_val: "male"
        string_val: "male"
        string_val: "male"
        string_val: "male"
        string_val: "male"
        string_val: "male"
        string_val: "female"
        string_val: "male"
        string_val: "male"
        string_val: "female"
        string_val: "male"
        string_val: "male"
        string_val: "male"
        string_val: "female"
        string_val: "male"
        string_val: "male"
        string_val: "male"
        string_val: "male"
        string_val: "male"
        string_val: "female"
        string_val: "male"
        string_val: "male"
        string_val: "male"
        string_val: "male"
        string_val: "female"
        string_val: "male"
        string_val: "male"
        string_val: "female"
        string_val: "female"
        string_val: "male"
        string_val: "male"
        string_val: "male"
        string_val: "male"
        string_val: "male"
        string_val: "male"
        string_val: "male"
        string_val: "female"
        string_val: "male"
        string_val: "male"
        string_val: "male"
        string_val: "female"
        string_val: "female"
        string_val: "male"
        string_val: "female"
        string_val: "male"
        string_val: "female"
        string_val: "male"
        string_val: "male"
        string_val: "male"
        string_val: "male"
        string_val: "female"
        string_val: "male"
        string_val: "male"
        string_val: "male"
        string_val: "male"
        string_val: "male"
        string_val: "female"
        string_val: "male"
        string_val: "male"
        string_val: "female"
        string_val: "male"
        string_val: "male"
        string_val: "male"
        string_val: "male"
        string_val: "male"
        string_val: "female"
        string_val: "male"
        string_val: "male"
        string_val: "male"
        string_val: "female"
        string_val: "male"
        string_val: "male"
        string_val: "male"
        string_val: "male"
        string_val: "female"
        string_val: "male"
        string_val: "male"
        string_val: "male"
        string_val: "male"
        string_val: "male"
        string_val: "female"
        string_val: "male"
        string_val: "female"
        string_val: "female"
        string_val: "female"
        string_val: "male"
        string_val: "female"
        string_val: "male"
        string_val: "male"
        string_val: "female"
        string_val: "female"
        string_val: "male"
        string_val: "male"
        string_val: "male"
        string_val: "female"
        string_val: "male"
        string_val: "male"
        string_val: "female"
        string_val: "female"
        string_val: "male"
        string_val: "male"
        string_val: "male"
        string_val: "female"
        string_val: "male"
        string_val: "male"
        string_val: "female"
        string_val: "female"
        string_val: "male"
      }
    }
  }
}
node {
  name: "tensors/component_9"
  op: "Const"
  device: "/device:CPU:0"
  attr {
    key: "_output_shapes"
    value {
      list {
        shape {
          dim {
            size: 627
          }
        }
      }
    }
  }
  attr {
    key: "dtype"
    value {
      type: DT_INT64
    }
  }
  attr {
    key: "value"
    value {
      tensor {
        dtype: DT_INT64
        tensor_shape {
          dim {
            size: 627
          }
        }
        tensor_content: "…"
      }
    }
  }
}
node {
  name: "TensorSliceDataset"
  op: "TensorSliceDataset"
  input: "tensors/component_0"
  input: "tensors/component_1"
  input: "tensors/component_2"
  input: "tensors/component_3"
  input: "tensors/component_4"
  input: "tensors/component_5"
  input: "tensors/component_6"
  input: "tensors/component_7"
  input: "tensors/component_8"
  input: "tensors/component_9"
  device: "/device:CPU:0"
  attr {
    key: "Toutput_types"
    value {
      list {
        type: DT_DOUBLE
        type: DT_STRING
        type: DT_STRING
        type: DT_STRING
        type: DT_STRING
        type: DT_DOUBLE
        type: DT_INT64
        type: DT_INT64
        type: DT_STRING
        type: DT_INT64
      }
    }
  }
  attr {
    key: "_output_shapes"
    value {
      list {
        shape {
        }
      }
    }
  }
  attr {
    key: "output_shapes"
    value {
      list {
        shape {
        }
        shape {
        }
        shape {
        }
        shape {
        }
        shape {
        }
        shape {
        }
        shape {
        }
        shape {
        }
        shape {
        }
        shape {
        }
      }
    }
  }
}
node {
  name: "buffer_size"
  op: "Const"
  device: "/device:CPU:0"
  attr {
    key: "_output_shapes"
    value {
      list {
        shape {
        }
      }
    }
  }
  attr {
    key: "dtype"
    value {
      type: DT_INT64
    }
  }
  attr {
    key: "value"
    value {
      tensor {
        dtype: DT_INT64
        tensor_shape {
        }
        int64_val: 10000
      }
    }
  }
}
node {
  name: "seed"
  op: "Const"
  device: "/device:CPU:0"
  attr {
    key: "_output_shapes"
    value {
      list {
        shape {
        }
      }
    }
  }
  attr {
    key: "dtype"
    value {
      type: DT_INT64
    }
  }
  attr {
    key: "value"
    value {
      tensor {
        dtype: DT_INT64
        tensor_shape {
        }
        int64_val: 0
      }
    }
  }
}
node {
  name: "seed2"
  op: "Const"
  device: "/device:CPU:0"
  attr {
    key: "_output_shapes"
    value {
      list {
        shape {
        }
      }
    }
  }
  attr {
    key: "dtype"
    value {
      type: DT_INT64
    }
  }
  attr {
    key: "value"
    value {
      tensor {
        dtype: DT_INT64
        tensor_shape {
        }
        int64_val: 0
      }
    }
  }
}
node {
  name: "ShuffleDataset"
  op: "ShuffleDataset"
  input: "TensorSliceDataset"
  input: "buffer_size"
  input: "seed"
  input: "seed2"
  device: "/device:CPU:0"
  attr {
    key: "_output_shapes"
    value {
      list {
        shape {
        }
      }
    }
  }
  attr {
    key: "output_shapes"
    value {
      list {
        shape {
        }
        shape {
        }
        shape {
        }
        shape {
        }
        shape {
        }
        shape {
        }
        shape {
        }
        shape {
        }
        shape {
        }
        shape {
        }
      }
    }
  }
  attr {
    key: "output_types"
    value {
      list {
        type: DT_DOUBLE
        type: DT_STRING
        type: DT_STRING
        type: DT_STRING
        type: DT_STRING
        type: DT_DOUBLE
        type: DT_INT64
        type: DT_INT64
        type: DT_STRING
        type: DT_INT64
      }
    }
  }
  attr {
    key: "reshuffle_each_iteration"
    value {
      b: true
    }
  }
}
node {
  name: "count"
  op: "Const"
  device: "/device:CPU:0"
  attr {
    key: "_output_shapes"
    value {
      list {
        shape {
        }
      }
    }
  }
  attr {
    key: "dtype"
    value {
      type: DT_INT64
    }
  }
  attr {
    key: "value"
    value {
      tensor {
        dtype: DT_INT64
        tensor_shape {
        }
        int64_val: 100
      }
    }
  }
}
node {
  name: "RepeatDataset"
  op: "RepeatDataset"
  input: "ShuffleDataset"
  input: "count"
  device: "/device:CPU:0"
  attr {
    key: "_output_shapes"
    value {
      list {
        shape {
        }
      }
    }
  }
  attr {
    key: "output_shapes"
    value {
      list {
        shape {
        }
        shape {
        }
        shape {
        }
        shape {
        }
        shape {
        }
        shape {
        }
        shape {
        }
        shape {
        }
        shape {
        }
        shape {
        }
      }
    }
  }
  attr {
    key: "output_types"
    value {
      list {
        type: DT_DOUBLE
        type: DT_STRING
        type: DT_STRING
        type: DT_STRING
        type: DT_STRING
        type: DT_DOUBLE
        type: DT_INT64
        type: DT_INT64
        type: DT_STRING
        type: DT_INT64
      }
    }
  }
}
node {
  name: "batch_size"
  op: "Const"
  device: "/device:CPU:0"
  attr {
    key: "_output_shapes"
    value {
      list {
        shape {
        }
      }
    }
  }
  attr {
    key: "dtype"
    value {
      type: DT_INT64
    }
  }
  attr {
    key: "value"
    value {
      tensor {
        dtype: DT_INT64
        tensor_shape {
        }
        int64_val: 32
      }
    }
  }
}
node {
  name: "drop_remainder"
  op: "Const"
  device: "/device:CPU:0"
  attr {
    key: "_output_shapes"
    value {
      list {
        shape {
        }
      }
    }
  }
  attr {
    key: "dtype"
    value {
      type: DT_BOOL
    }
  }
  attr {
    key: "value"
    value {
      tensor {
        dtype: DT_BOOL
        tensor_shape {
        }
        bool_val: false
      }
    }
  }
}
node {
  name: "BatchDatasetV2"
  op: "BatchDatasetV2"
  input: "RepeatDataset"
  input: "batch_size"
  input: "drop_remainder"
  device: "/device:CPU:0"
  attr {
    key: "_output_shapes"
    value {
      list {
        shape {
        }
      }
    }
  }
  attr {
    key: "output_shapes"
    value {
      list {
        shape {
          dim {
            size: -1
          }
        }
        shape {
          dim {
            size: -1
          }
        }
        shape {
          dim {
            size: -1
          }
        }
        shape {
          dim {
            size: -1
          }
        }
        shape {
          dim {
            size: -1
          }
        }
        shape {
          dim {
            size: -1
          }
        }
        shape {
          dim {
            size: -1
          }
        }
        shape {
          dim {
            size: -1
          }
        }
        shape {
          dim {
            size: -1
          }
        }
        shape {
          dim {
            size: -1
          }
        }
      }
    }
  }
  attr {
    key: "output_types"
    value {
      list {
        type: DT_DOUBLE
        type: DT_STRING
        type: DT_STRING
        type: DT_STRING
        type: DT_STRING
        type: DT_DOUBLE
        type: DT_INT64
        type: DT_INT64
        type: DT_STRING
        type: DT_INT64
      }
    }
  }
}
node {
  name: "optimizations"
  op: "Const"
  attr {
    key: "_output_shapes"
    value {
      list {
        shape {
          dim {
            size: 3
          }
        }
      }
    }
  }
  attr {
    key: "dtype"
    value {
      type: DT_STRING
    }
  }
  attr {
    key: "value"
    value {
      tensor {
        dtype: DT_STRING
        tensor_shape {
          dim {
            size: 3
          }
        }
        string_val: "map_and_batch_fusion"
        string_val: "noop_elimination"
        string_val: "shuffle_and_repeat_fusion"
      }
    }
  }
}
node {
  name: "OptimizeDataset"
  op: "OptimizeDataset"
  input: "BatchDatasetV2"
  input: "optimizations"
  attr {
    key: "_output_shapes"
    value {
      list {
        shape {
        }
      }
    }
  }
  attr {
    key: "output_shapes"
    value {
      list {
        shape {
          dim {
            size: -1
          }
        }
        shape {
          dim {
            size: -1
          }
        }
        shape {
          dim {
            size: -1
          }
        }
        shape {
          dim {
            size: -1
          }
        }
        shape {
          dim {
            size: -1
          }
        }
        shape {
          dim {
            size: -1
          }
        }
        shape {
          dim {
            size: -1
          }
        }
        shape {
          dim {
            size: -1
          }
        }
        shape {
          dim {
            size: -1
          }
        }
        shape {
          dim {
            size: -1
          }
        }
      }
    }
  }
  attr {
    key: "output_types"
    value {
      list {
        type: DT_DOUBLE
        type: DT_STRING
        type: DT_STRING
        type: DT_STRING
        type: DT_STRING
        type: DT_DOUBLE
        type: DT_INT64
        type: DT_INT64
        type: DT_STRING
        type: DT_INT64
      }
    }
  }
}
node {
  name: "ModelDataset"
  op: "ModelDataset"
  input: "OptimizeDataset"
  attr {
    key: "_output_shapes"
    value {
      list {
        shape {
        }
      }
    }
  }
  attr {
    key: "output_shapes"
    value {
      list {
        shape {
          dim {
            size: -1
          }
        }
        shape {
          dim {
            size: -1
          }
        }
        shape {
          dim {
            size: -1
          }
        }
        shape {
          dim {
            size: -1
          }
        }
        shape {
          dim {
            size: -1
          }
        }
        shape {
          dim {
            size: -1
          }
        }
        shape {
          dim {
            size: -1
          }
        }
        shape {
          dim {
            size: -1
          }
        }
        shape {
          dim {
            size: -1
          }
        }
        shape {
          dim {
            size: -1
          }
        }
      }
    }
  }
  attr {
    key: "output_types"
    value {
      list {
        type: DT_DOUBLE
        type: DT_STRING
        type: DT_STRING
        type: DT_STRING
        type: DT_STRING
        type: DT_DOUBLE
        type: DT_INT64
        type: DT_INT64
        type: DT_STRING
        type: DT_INT64
      }
    }
  }
}
node {
  name: "IteratorV2"
  op: "IteratorV2"
  attr {
    key: "_output_shapes"
    value {
      list {
        shape {
        }
      }
    }
  }
  attr {
    key: "container"
    value {
      s: ""
    }
  }
  attr {
    key: "output_shapes"
    value {
      list {
        shape {
          dim {
            size: -1
          }
        }
        shape {
          dim {
            size: -1
          }
        }
        shape {
          dim {
            size: -1
          }
        }
        shape {
          dim {
            size: -1
          }
        }
        shape {
          dim {
            size: -1
          }
        }
        shape {
          dim {
            size: -1
          }
        }
        shape {
          dim {
            size: -1
          }
        }
        shape {
          dim {
            size: -1
          }
        }
        shape {
          dim {
            size: -1
          }
        }
        shape {
          dim {
            size: -1
          }
        }
      }
    }
  }
  attr {
    key: "output_types"
    value {
      list {
        type: DT_DOUBLE
        type: DT_STRING
        type: DT_STRING
        type: DT_STRING
        type: DT_STRING
        type: DT_DOUBLE
        type: DT_INT64
        type: DT_INT64
        type: DT_STRING
        type: DT_INT64
      }
    }
  }
  attr {
    key: "shared_name"
    value {
      s: ""
    }
  }
}
node {
  name: "MakeIterator"
  op: "MakeIterator"
  input: "ModelDataset"
  input: "IteratorV2"
  attr {
    key: "_class"
    value {
      list {
        s: "loc:@IteratorV2"
      }
    }
  }
}
node {
  name: "IteratorToStringHandle"
  op: "IteratorToStringHandle"
  input: "IteratorV2"
  attr {
    key: "_output_shapes"
    value {
      list {
        shape {
        }
      }
    }
  }
}
node {
  name: "IteratorGetNext"
  op: "IteratorGetNext"
  input: "IteratorV2"
  attr {
    key: "_output_shapes"
    value {
      list {
        shape {
          dim {
            size: -1
          }
        }
        shape {
          dim {
            size: -1
          }
        }
        shape {
          dim {
            size: -1
          }
        }
        shape {
          dim {
            size: -1
          }
        }
        shape {
          dim {
            size: -1
          }
        }
        shape {
          dim {
            size: -1
          }
        }
        shape {
          dim {
            size: -1
          }
        }
        shape {
          dim {
            size: -1
          }
        }
        shape {
          dim {
            size: -1
          }
        }
        shape {
          dim {
            size: -1
          }
        }
      }
    }
  }
  attr {
    key: "output_shapes"
    value {
      list {
        shape {
          dim {
            size: -1
          }
        }
        shape {
          dim {
            size: -1
          }
        }
        shape {
          dim {
            size: -1
          }
        }
        shape {
          dim {
            size: -1
          }
        }
        shape {
          dim {
            size: -1
          }
        }
        shape {
          dim {
            size: -1
          }
        }
        shape {
          dim {
            size: -1
          }
        }
        shape {
          dim {
            size: -1
          }
        }
        shape {
          dim {
            size: -1
          }
        }
        shape {
          dim {
            size: -1
          }
        }
      }
    }
  }
  attr {
    key: "output_types"
    value {
      list {
        type: DT_DOUBLE
        type: DT_STRING
        type: DT_STRING
        type: DT_STRING
        type: DT_STRING
        type: DT_DOUBLE
        type: DT_INT64
        type: DT_INT64
        type: DT_STRING
        type: DT_INT64
      }
    }
  }
}
node {
  name: "Shape"
  op: "Shape"
  input: "IteratorGetNext:8"
  attr {
    key: "T"
    value {
      type: DT_STRING
    }
  }
  attr {
    key: "_output_shapes"
    value {
      list {
        shape {
          dim {
            size: 1
          }
        }
      }
    }
  }
  attr {
    key: "out_type"
    value {
      type: DT_INT32
    }
  }
}
node {
  name: "strided_slice/stack"
  op: "Const"
  attr {
    key: "_output_shapes"
    value {
      list {
        shape {
          dim {
            size: 1
          }
        }
      }
    }
  }
  attr {
    key: "dtype"
    value {
      type: DT_INT32
    }
  }
  attr {
    key: "value"
    value {
      tensor {
        dtype: DT_INT32
        tensor_shape {
          dim {
            size: 1
          }
        }
        int_val: 0
      }
    }
  }
}
node {
  name: "strided_slice/stack_1"
  op: "Const"
  attr {
    key: "_output_shapes"
    value {
      list {
        shape {
          dim {
            size: 1
          }
        }
      }
    }
  }
  attr {
    key: "dtype"
    value {
      type: DT_INT32
    }
  }
  attr {
    key: "value"
    value {
      tensor {
        dtype: DT_INT32
        tensor_shape {
          dim {
            size: 1
          }
        }
        int_val: 1
      }
    }
  }
}
node {
  name: "strided_slice/stack_2"
  op: "Const"
  attr {
    key: "_output_shapes"
    value {
      list {
        shape {
          dim {
            size: 1
          }
        }
      }
    }
  }
  attr {
    key: "dtype"
    value {
      type: DT_INT32
    }
  }
  attr {
    key: "value"
    value {
      tensor {
        dtype: DT_INT32
        tensor_shape {
          dim {
            size: 1
          }
        }
        int_val: 1
      }
    }
  }
}
node {
  name: "strided_slice"
  op: "StridedSlice"
  input: "Shape"
  input: "strided_slice/stack"
  input: "strided_slice/stack_1"
  input: "strided_slice/stack_2"
  attr {
    key: "Index"
    value {
      type: DT_INT32
    }
  }
  attr {
    key: "T"
    value {
      type: DT_INT32
    }
  }
  attr {
    key: "_output_shapes"
    value {
      list {
        shape {
        }
      }
    }
  }
  attr {
    key: "begin_mask"
    value {
      i: 0
    }
  }
  attr {
    key: "ellipsis_mask"
    value {
      i: 0
    }
  }
  attr {
    key: "end_mask"
    value {
      i: 0
    }
  }
  attr {
    key: "new_axis_mask"
    value {
      i: 0
    }
  }
  attr {
    key: "shrink_axis_mask"
    value {
      i: 1
    }
  }
}
node {
  name: "Shape_1"
  op: "Shape"
  input: "IteratorGetNext"
  attr {
    key: "T"
    value {
      type: DT_DOUBLE
    }
  }
  attr {
    key: "_output_shapes"
    value {
      list {
        shape {
          dim {
            size: 1
          }
        }
      }
    }
  }
  attr {
    key: "out_type"
    value {
      type: DT_INT32
    }
  }
}
node {
  name: "strided_slice_1/stack"
  op: "Const"
  attr {
    key: "_output_shapes"
    value {
      list {
        shape {
          dim {
            size: 1
          }
        }
      }
    }
  }
  attr {
    key: "dtype"
    value {
      type: DT_INT32
    }
  }
  attr {
    key: "value"
    value {
      tensor {
        dtype: DT_INT32
        tensor_shape {
          dim {
            size: 1
          }
        }
        int_val: 0
      }
    }
  }
}
node {
  name: "strided_slice_1/stack_1"
  op: "Const"
  attr {
    key: "_output_shapes"
    value {
      list {
        shape {
          dim {
            size: 1
          }
        }
      }
    }
  }
  attr {
    key: "dtype"
    value {
      type: DT_INT32
    }
  }
  attr {
    key: "value"
    value {
      tensor {
        dtype: DT_INT32
        tensor_shape {
          dim {
            size: 1
          }
        }
        int_val: 1
      }
    }
  }
}
node {
  name: "strided_slice_1/stack_2"
  op: "Const"
  attr {
    key: "_output_shapes"
    value {
      list {
        shape {
          dim {
            size: 1
          }
        }
      }
    }
  }
  attr {
    key: "dtype"
    value {
      type: DT_INT32
    }
  }
  attr {
    key: "value"
    value {
      tensor {
        dtype: DT_INT32
        tensor_shape {
          dim {
            size: 1
          }
        }
        int_val: 1
      }
    }
  }
}
node {
  name: "strided_slice_1"
  op: "StridedSlice"
  input: "Shape_1"
  input: "strided_slice_1/stack"
  input: "strided_slice_1/stack_1"
  input: "strided_slice_1/stack_2"
  attr {
    key: "Index"
    value {
      type: DT_INT32
    }
  }
  attr {
    key: "T"
    value {
      type: DT_INT32
    }
  }
  attr {
    key: "_output_shapes"
    value {
      list {
        shape {
        }
      }
    }
  }
  attr {
    key: "begin_mask"
    value {
      i: 0
    }
  }
  attr {
    key: "ellipsis_mask"
    value {
      i: 0
    }
  }
  attr {
    key: "end_mask"
    value {
      i: 0
    }
  }
  attr {
    key: "new_axis_mask"
    value {
      i: 0
    }
  }
  attr {
    key: "shrink_axis_mask"
    value {
      i: 1
    }
  }
}
node {
  name: "assert_equal/Equal"
  op: "Equal"
  input: "strided_slice"
  input: "strided_slice_1"
  attr {
    key: "T"
    value {
      type: DT_INT32
    }
  }
  attr {
    key: "_output_shapes"
    value {
      list {
        shape {
        }
      }
    }
  }
}
node {
  name: "assert_equal/Const"
  op: "Const"
  attr {
    key: "_output_shapes"
    value {
      list {
        shape {
          dim {
          }
        }
      }
    }
  }
  attr {
    key: "dtype"
    value {
      type: DT_INT32
    }
  }
  attr {
    key: "value"
    value {
      tensor {
        dtype: DT_INT32
        tensor_shape {
          dim {
          }
        }
      }
    }
  }
}
node {
  name: "assert_equal/All"
  op: "All"
  input: "assert_equal/Equal"
  input: "assert_equal/Const"
  attr {
    key: "Tidx"
    value {
      type: DT_INT32
    }
  }
  attr {
    key: "_output_shapes"
    value {
      list {
        shape {
        }
      }
    }
  }
  attr {
    key: "keep_dims"
    value {
      b: false
    }
  }
}
node {
  name: "assert_equal/Assert/Const"
  op: "Const"
  attr {
    key: "_output_shapes"
    value {
      list {
        shape {
        }
      }
    }
  }
  attr {
    key: "dtype"
    value {
      type: DT_STRING
    }
  }
  attr {
    key: "value"
    value {
      tensor {
        dtype: DT_STRING
        tensor_shape {
        }
        string_val: ""
      }
    }
  }
}
node {
  name: "assert_equal/Assert/Const_1"
  op: "Const"
  attr {
    key: "_output_shapes"
    value {
      list {
        shape {
        }
      }
    }
  }
  attr {
    key: "dtype"
    value {
      type: DT_STRING
    }
  }
  attr {
    key: "value"
    value {
      tensor {
        dtype: DT_STRING
        tensor_shape {
        }
        string_val: "Condition x == y did not hold element-wise:"
      }
    }
  }
}
node {
  name: "assert_equal/Assert/Const_2"
  op: "Const"
  attr {
    key: "_output_shapes"
    value {
      list {
        shape {
        }
      }
    }
  }
  attr {
    key: "dtype"
    value {
      type: DT_STRING
    }
  }
  attr {
    key: "value"
    value {
      tensor {
        dtype: DT_STRING
        tensor_shape {
        }
        string_val: "x (strided_slice:0) = "
      }
    }
  }
}
node {
  name: "assert_equal/Assert/Const_3"
  op: "Const"
  attr {
    key: "_output_shapes"
    value {
      list {
        shape {
        }
      }
    }
  }
  attr {
    key: "dtype"
    value {
      type: DT_STRING
    }
  }
  attr {
    key: "value"
    value {
      tensor {
        dtype: DT_STRING
        tensor_shape {
        }
        string_val: "y (strided_slice_1:0) = "
      }
    }
  }
}
node {
  name: "assert_equal/Assert/Assert/data_0"
  op: "Const"
  attr {
    key: "_output_shapes"
    value {
      list {
        shape {
        }
      }
    }
  }
  attr {
    key: "dtype"
    value {
      type: DT_STRING
    }
  }
  attr {
    key: "value"
    value {
      tensor {
        dtype: DT_STRING
        tensor_shape {
        }
        string_val: ""
      }
    }
  }
}
node {
  name: "assert_equal/Assert/Assert/data_1"
  op: "Const"
  attr {
    key: "_output_shapes"
    value {
      list {
        shape {
        }
      }
    }
  }
  attr {
    key: "dtype"
    value {
      type: DT_STRING
    }
  }
  attr {
    key: "value"
    value {
      tensor {
        dtype: DT_STRING
        tensor_shape {
        }
        string_val: "Condition x == y did not hold element-wise:"
      }
    }
  }
}
node {
  name: "assert_equal/Assert/Assert/data_2"
  op: "Const"
  attr {
    key: "_output_shapes"
    value {
      list {
        shape {
        }
      }
    }
  }
  attr {
    key: "dtype"
    value {
      type: DT_STRING
    }
  }
  attr {
    key: "value"
    value {
      tensor {
        dtype: DT_STRING
        tensor_shape {
        }
        string_val: "x (strided_slice:0) = "
      }
    }
  }
}
node {
  name: "assert_equal/Assert/Assert/data_4"
  op: "Const"
  attr {
    key: "_output_shapes"
    value {
      list {
        shape {
        }
      }
    }
  }
  attr {
    key: "dtype"
    value {
      type: DT_STRING
    }
  }
  attr {
    key: "value"
    value {
      tensor {
        dtype: DT_STRING
        tensor_shape {
        }
        string_val: "y (strided_slice_1:0) = "
      }
    }
  }
}
node {
  name: "assert_equal/Assert/Assert"
  op: "Assert"
  input: "assert_equal/All"
  input: "assert_equal/Assert/Assert/data_0"
  input: "assert_equal/Assert/Assert/data_1"
  input: "assert_equal/Assert/Assert/data_2"
  input: "strided_slice"
  input: "assert_equal/Assert/Assert/data_4"
  input: "strided_slice_1"
  attr {
    key: "T"
    value {
      list {
        type: DT_STRING
        type: DT_STRING
        type: DT_STRING
        type: DT_INT32
        type: DT_STRING
        type: DT_INT32
      }
    }
  }
  attr {
    key: "summarize"
    value {
      i: 3
    }
  }
}
node {
  name: "Shape_2"
  op: "Shape"
  input: "IteratorGetNext:6"
  attr {
    key: "T"
    value {
      type: DT_INT64
    }
  }
  attr {
    key: "_output_shapes"
    value {
      list {
        shape {
          dim {
            size: 1
          }
        }
      }
    }
  }
  attr {
    key: "out_type"
    value {
      type: DT_INT32
    }
  }
}
node {
  name: "strided_slice_2/stack"
  op: "Const"
  attr {
    key: "_output_shapes"
    value {
      list {
        shape {
          dim {
            size: 1
          }
        }
      }
    }
  }
  attr {
    key: "dtype"
    value {
      type: DT_INT32
    }
  }
  attr {
    key: "value"
    value {
      tensor {
        dtype: DT_INT32
        tensor_shape {
          dim {
            size: 1
          }
        }
        int_val: 0
      }
    }
  }
}
node {
  name: "strided_slice_2/stack_1"
  op: "Const"
  attr {
    key: "_output_shapes"
    value {
      list {
        shape {
          dim {
            size: 1
          }
        }
      }
    }
  }
  attr {
    key: "dtype"
    value {
      type: DT_INT32
    }
  }
  attr {
    key: "value"
    value {
      tensor {
        dtype: DT_INT32
        tensor_shape {
          dim {
            size: 1
          }
        }
        int_val: 1
      }
    }
  }
}
node {
  name: "strided_slice_2/stack_2"
  op: "Const"
  attr {
    key: "_output_shapes"
    value {
      list {
        shape {
          dim {
            size: 1
          }
        }
      }
    }
  }
  attr {
    key: "dtype"
    value {
      type: DT_INT32
    }
  }
  attr {
    key: "value"
    value {
      tensor {
        dtype: DT_INT32
        tensor_shape {
          dim {
            size: 1
          }
        }
        int_val: 1
      }
    }
  }
}
node {
  name: "strided_slice_2"
  op: "StridedSlice"
  input: "Shape_2"
  input: "strided_slice_2/stack"
  input: "strided_slice_2/stack_1"
  input: "strided_slice_2/stack_2"
  attr {
    key: "Index"
    value {
      type: DT_INT32
    }
  }
  attr {
    key: "T"
    value {
      type: DT_INT32
    }
  }
  attr {
    key: "_output_shapes"
    value {
      list {
        shape {
        }
      }
    }
  }
  attr {
    key: "begin_mask"
    value {
      i: 0
    }
  }
  attr {
    key: "ellipsis_mask"
    value {
      i: 0
    }
  }
  attr {
    key: "end_mask"
    value {
      i: 0
    }
  }
  attr {
    key: "new_axis_mask"
    value {
      i: 0
    }
  }
  attr {
    key: "shrink_axis_mask"
    value {
      i: 1
    }
  }
}
node {
  name: "assert_equal_1/Equal"
  op: "Equal"
  input: "strided_slice"
  input: "strided_slice_2"
  attr {
    key: "T"
    value {
      type: DT_INT32
    }
  }
  attr {
    key: "_output_shapes"
    value {
      list {
        shape {
        }
      }
    }
  }
}
node {
  name: "assert_equal_1/Const"
  op: "Const"
  attr {
    key: "_output_shapes"
    value {
      list {
        shape {
          dim {
          }
        }
      }
    }
  }
  attr {
    key: "dtype"
    value {
      type: DT_INT32
    }
  }
  attr {
    key: "value"
    value {
      tensor {
        dtype: DT_INT32
        tensor_shape {
          dim {
          }
        }
      }
    }
  }
}
node {
  name: "assert_equal_1/All"
  op: "All"
  input: "assert_equal_1/Equal"
  input: "assert_equal_1/Const"
  attr {
    key: "Tidx"
    value {
      type: DT_INT32
    }
  }
  attr {
    key: "_output_shapes"
    value {
      list {
        shape {
        }
      }
    }
  }
  attr {
    key: "keep_dims"
    value {
      b: false
    }
  }
}
node {
  name: "assert_equal_1/Assert/Const"
  op: "Const"
  attr {
    key: "_output_shapes"
    value {
      list {
        shape {
        }
      }
    }
  }
  attr {
    key: "dtype"
    value {
      type: DT_STRING
    }
  }
  attr {
    key: "value"
    value {
      tensor {
        dtype: DT_STRING
        tensor_shape {
        }
        string_val: ""
      }
    }
  }
}
node {
  name: "assert_equal_1/Assert/Const_1"
  op: "Const"
  attr {
    key: "_output_shapes"
    value {
      list {
        shape {
        }
      }
    }
  }
  attr {
    key: "dtype"
    value {
      type: DT_STRING
    }
  }
  attr {
    key: "value"
    value {
      tensor {
        dtype: DT_STRING
        tensor_shape {
        }
        string_val: "Condition x == y did not hold element-wise:"
      }
    }
  }
}
node {
  name: "assert_equal_1/Assert/Const_2"
  op: "Const"
  attr {
    key: "_output_shapes"
    value {
      list {
        shape {
        }
      }
    }
  }
  attr {
    key: "dtype"
    value {
      type: DT_STRING
    }
  }
  attr {
    key: "value"
    value {
      tensor {
        dtype: DT_STRING
        tensor_shape {
        }
        string_val: "x (strided_slice:0) = "
      }
    }
  }
}
node {
  name: "assert_equal_1/Assert/Const_3"
  op: "Const"
  attr {
    key: "_output_shapes"
    value {
      list {
        shape {
        }
      }
    }
  }
  attr {
    key: "dtype"
    value {
      type: DT_STRING
    }
  }
  attr {
    key: "value"
    value {
      tensor {
        dtype: DT_STRING
        tensor_shape {
        }
        string_val: "y (strided_slice_2:0) = "
      }
    }
  }
}
node {
  name: "assert_equal_1/Assert/Assert/data_0"
  op: "Const"
  attr {
    key: "_output_shapes"
    value {
      list {
        shape {
        }
      }
    }
  }
  attr {
    key: "dtype"
    value {
      type: DT_STRING
    }
  }
  attr {
    key: "value"
    value {
      tensor {
        dtype: DT_STRING
        tensor_shape {
        }
        string_val: ""
      }
    }
  }
}
node {
  name: "assert_equal_1/Assert/Assert/data_1"
  op: "Const"
  attr {
    key: "_output_shapes"
    value {
      list {
        shape {
        }
      }
    }
  }
  attr {
    key: "dtype"
    value {
      type: DT_STRING
    }
  }
  attr {
    key: "value"
    value {
      tensor {
        dtype: DT_STRING
        tensor_shape {
        }
        string_val: "Condition x == y did not hold element-wise:"
      }
    }
  }
}
node {
  name: "assert_equal_1/Assert/Assert/data_2"
  op: "Const"
  attr {
    key: "_output_shapes"
    value {
      list {
        shape {
        }
      }
    }
  }
  attr {
    key: "dtype"
    value {
      type: DT_STRING
    }
  }
  attr {
    key: "value"
    value {
      tensor {
        dtype: DT_STRING
        tensor_shape {
        }
        string_val: "x (strided_slice:0) = "
      }
    }
  }
}
node {
  name: "assert_equal_1/Assert/Assert/data_4"
  op: "Const"
  attr {
    key: "_output_shapes"
    value {
      list {
        shape {
        }
      }
    }
  }
  attr {
    key: "dtype"
    value {
      type: DT_STRING
    }
  }
  attr {
    key: "value"
    value {
      tensor {
        dtype: DT_STRING
        tensor_shape {
        }
        string_val: "y (strided_slice_2:0) = "
      }
    }
  }
}
node {
  name: "assert_equal_1/Assert/Assert"
  op: "Assert"
  input: "assert_equal_1/All"
  input: "assert_equal_1/Assert/Assert/data_0"
  input: "assert_equal_1/Assert/Assert/data_1"
  input: "assert_equal_1/Assert/Assert/data_2"
  input: "strided_slice"
  input: "assert_equal_1/Assert/Assert/data_4"
  input: "strided_slice_2"
  attr {
    key: "T"
    value {
      list {
        type: DT_STRING
        type: DT_STRING
        type: DT_STRING
        type: DT_INT32
        type: DT_STRING
        type: DT_INT32
      }
    }
  }
  attr {
    key: "summarize"
    value {
      i: 3
    }
  }
}
node {
  name: "Shape_3"
  op: "Shape"
  input: "IteratorGetNext:7"
  attr {
    key: "T"
    value {
      type: DT_INT64
    }
  }
  attr {
    key: "_output_shapes"
    value {
      list {
        shape {
          dim {
            size: 1
          }
        }
      }
    }
  }
  attr {
    key: "out_type"
    value {
      type: DT_INT32
    }
  }
}
node {
  name: "strided_slice_3/stack"
  op: "Const"
  attr {
    key: "_output_shapes"
    value {
      list {
        shape {
          dim {
            size: 1
          }
        }
      }
    }
  }
  attr {
    key: "dtype"
    value {
      type: DT_INT32
    }
  }
  attr {
    key: "value"
    value {
      tensor {
        dtype: DT_INT32
        tensor_shape {
          dim {
            size: 1
          }
        }
        int_val: 0
      }
    }
  }
}
node {
  name: "strided_slice_3/stack_1"
  op: "Const"
  attr {
    key: "_output_shapes"
    value {
      list {
        shape {
          dim {
            size: 1
          }
        }
      }
    }
  }
  attr {
    key: "dtype"
    value {
      type: DT_INT32
    }
  }
  attr {
    key: "value"
    value {
      tensor {
        dtype: DT_INT32
        tensor_shape {
          dim {
            size: 1
          }
        }
        int_val: 1
      }
    }
  }
}
node {
  name: "strided_slice_3/stack_2"
  op: "Const"
  attr {
    key: "_output_shapes"
    value {
      list {
        shape {
          dim {
            size: 1
          }
        }
      }
    }
  }
  attr {
    key: "dtype"
    value {
      type: DT_INT32
    }
  }
  attr {
    key: "value"
    value {
      tensor {
        dtype: DT_INT32
        tensor_shape {
          dim {
            size: 1
          }
        }
        int_val: 1
      }
    }
  }
}
node {
  name: "strided_slice_3"
  op: "StridedSlice"
  input: "Shape_3"
  input: "strided_slice_3/stack"
  input: "strided_slice_3/stack_1"
  input: "strided_slice_3/stack_2"
  attr {
    key: "Index"
    value {
      type: DT_INT32
    }
  }
  attr {
    key: "T"
    value {
      type: DT_INT32
    }
  }
  attr {
    key: "_output_shapes"
    value {
      list {
        shape {
        }
      }
    }
  }
  attr {
    key: "begin_mask"
    value {
      i: 0
    }
  }
  attr {
    key: "ellipsis_mask"
    value {
      i: 0
    }
  }
  attr {
    key: "end_mask"
    value {
      i: 0
    }
  }
  attr {
    key: "new_axis_mask"
    value {
      i: 0
    }
  }
  attr {
    key: "shrink_axis_mask"
    value {
      i: 1
    }
  }
}
node {
  name: "assert_equal_2/Equal"
  op: "Equal"
  input: "strided_slice"
  input: "strided_slice_3"
  attr {
    key: "T"
    value {
      type: DT_INT32
    }
  }
  attr {
    key: "_output_shapes"
    value {
      list {
        shape {
        }
      }
    }
  }
}
node {
  name: "assert_equal_2/Const"
  op: "Const"
  attr {
    key: "_output_shapes"
    value {
      list {
        shape {
          dim {
          }
        }
      }
    }
  }
  attr {
    key: "dtype"
    value {
      type: DT_INT32
    }
  }
  attr {
    key: "value"
    value {
      tensor {
        dtype: DT_INT32
        tensor_shape {
          dim {
          }
        }
      }
    }
  }
}
node {
  name: "assert_equal_2/All"
  op: "All"
  input: "assert_equal_2/Equal"
  input: "assert_equal_2/Const"
  attr {
    key: "Tidx"
    value {
      type: DT_INT32
    }
  }
  attr {
    key: "_output_shapes"
    value {
      list {
        shape {
        }
      }
    }
  }
  attr {
    key: "keep_dims"
    value {
      b: false
    }
  }
}
node {
  name: "assert_equal_2/Assert/Const"
  op: "Const"
  attr {
    key: "_output_shapes"
    value {
      list {
        shape {
        }
      }
    }
  }
  attr {
    key: "dtype"
    value {
      type: DT_STRING
    }
  }
  attr {
    key: "value"
    value {
      tensor {
        dtype: DT_STRING
        tensor_shape {
        }
        string_val: ""
      }
    }
  }
}
node {
  name: "assert_equal_2/Assert/Const_1"
  op: "Const"
  attr {
    key: "_output_shapes"
    value {
      list {
        shape {
        }
      }
    }
  }
  attr {
    key: "dtype"
    value {
      type: DT_STRING
    }
  }
  attr {
    key: "value"
    value {
      tensor {
        dtype: DT_STRING
        tensor_shape {
        }
        string_val: "Condition x == y did not hold element-wise:"
      }
    }
  }
}
node {
  name: "assert_equal_2/Assert/Const_2"
  op: "Const"
  attr {
    key: "_output_shapes"
    value {
      list {
        shape {
        }
      }
    }
  }
  attr {
    key: "dtype"
    value {
      type: DT_STRING
    }
  }
  attr {
    key: "value"
    value {
      tensor {
        dtype: DT_STRING
        tensor_shape {
        }
        string_val: "x (strided_slice:0) = "
      }
    }
  }
}
node {
  name: "assert_equal_2/Assert/Const_3"
  op: "Const"
  attr {
    key: "_output_shapes"
    value {
      list {
        shape {
        }
      }
    }
  }
  attr {
    key: "dtype"
    value {
      type: DT_STRING
    }
  }
  attr {
    key: "value"
    value {
      tensor {
        dtype: DT_STRING
        tensor_shape {
        }
        string_val: "y (strided_slice_3:0) = "
      }
    }
  }
}
node {
  name: "assert_equal_2/Assert/Assert/data_0"
  op: "Const"
  attr {
    key: "_output_shapes"
    value {
      list {
        shape {
        }
      }
    }
  }
  attr {
    key: "dtype"
    value {
      type: DT_STRING
    }
  }
  attr {
    key: "value"
    value {
      tensor {
        dtype: DT_STRING
        tensor_shape {
        }
        string_val: ""
      }
    }
  }
}
node {
  name: "assert_equal_2/Assert/Assert/data_1"
  op: "Const"
  attr {
    key: "_output_shapes"
    value {
      list {
        shape {
        }
      }
    }
  }
  attr {
    key: "dtype"
    value {
      type: DT_STRING
    }
  }
  attr {
    key: "value"
    value {
      tensor {
        dtype: DT_STRING
        tensor_shape {
        }
        string_val: "Condition x == y did not hold element-wise:"
      }
    }
  }
}
node {
  name: "assert_equal_2/Assert/Assert/data_2"
  op: "Const"
  attr {
    key: "_output_shapes"
    value {
      list {
        shape {
        }
      }
    }
  }
  attr {
    key: "dtype"
    value {
      type: DT_STRING
    }
  }
  attr {
    key: "value"
    value {
      tensor {
        dtype: DT_STRING
        tensor_shape {
        }
        string_val: "x (strided_slice:0) = "
      }
    }
  }
}
node {
  name: "assert_equal_2/Assert/Assert/data_4"
  op: "Const"
  attr {
    key: "_output_shapes"
    value {
      list {
        shape {
        }
      }
    }
  }
  attr {
    key: "dtype"
    value {
      type: DT_STRING
    }
  }
  attr {
    key: "value"
    value {
      tensor {
        dtype: DT_STRING
        tensor_shape {
        }
        string_val: "y (strided_slice_3:0) = "
      }
    }
  }
}
node {
  name: "assert_equal_2/Assert/Assert"
  op: "Assert"
  input: "assert_equal_2/All"
  input: "assert_equal_2/Assert/Assert/data_0"
  input: "assert_equal_2/Assert/Assert/data_1"
  input: "assert_equal_2/Assert/Assert/data_2"
  input: "strided_slice"
  input: "assert_equal_2/Assert/Assert/data_4"
  input: "strided_slice_3"
  attr {
    key: "T"
    value {
      list {
        type: DT_STRING
        type: DT_STRING
        type: DT_STRING
        type: DT_INT32
        type: DT_STRING
        type: DT_INT32
      }
    }
  }
  attr {
    key: "summarize"
    value {
      i: 3
    }
  }
}
node {
  name: "Shape_4"
  op: "Shape"
  input: "IteratorGetNext:5"
  attr {
    key: "T"
    value {
      type: DT_DOUBLE
    }
  }
  attr {
    key: "_output_shapes"
    value {
      list {
        shape {
          dim {
            size: 1
          }
        }
      }
    }
  }
  attr {
    key: "out_type"
    value {
      type: DT_INT32
    }
  }
}
node {
  name: "strided_slice_4/stack"
  op: "Const"
  attr {
    key: "_output_shapes"
    value {
      list {
        shape {
          dim {
            size: 1
          }
        }
      }
    }
  }
  attr {
    key: "dtype"
    value {
      type: DT_INT32
    }
  }
  attr {
    key: "value"
    value {
      tensor {
        dtype: DT_INT32
        tensor_shape {
          dim {
            size: 1
          }
        }
        int_val: 0
      }
    }
  }
}
node {
  name: "strided_slice_4/stack_1"
  op: "Const"
  attr {
    key: "_output_shapes"
    value {
      list {
        shape {
          dim {
            size: 1
          }
        }
      }
    }
  }
  attr {
    key: "dtype"
    value {
      type: DT_INT32
    }
  }
  attr {
    key: "value"
    value {
      tensor {
        dtype: DT_INT32
        tensor_shape {
          dim {
            size: 1
          }
        }
        int_val: 1
      }
    }
  }
}
node {
  name: "strided_slice_4/stack_2"
  op: "Const"
  attr {
    key: "_output_shapes"
    value {
      list {
        shape {
          dim {
            size: 1
          }
        }
      }
    }
  }
  attr {
    key: "dtype"
    value {
      type: DT_INT32
    }
  }
  attr {
    key: "value"
    value {
      tensor {
        dtype: DT_INT32
        tensor_shape {
          dim {
            size: 1
          }
        }
        int_val: 1
      }
    }
  }
}
node {
  name: "strided_slice_4"
  op: "StridedSlice"
  input: "Shape_4"
  input: "strided_slice_4/stack"
  input: "strided_slice_4/stack_1"
  input: "strided_slice_4/stack_2"
  attr {
    key: "Index"
    value {
      type: DT_INT32
    }
  }
  attr {
    key: "T"
    value {
      type: DT_INT32
    }
  }
  attr {
    key: "_output_shapes"
    value {
      list {
        shape {
        }
      }
    }
  }
  attr {
    key: "begin_mask"
    value {
      i: 0
    }
  }
  attr {
    key: "ellipsis_mask"
    value {
      i: 0
    }
  }
  attr {
    key: "end_mask"
    value {
      i: 0
    }
  }
  attr {
    key: "new_axis_mask"
    value {
      i: 0
    }
  }
  attr {
    key: "shrink_axis_mask"
    value {
      i: 1
    }
  }
}
node {
  name: "assert_equal_3/Equal"
  op: "Equal"
  input: "strided_slice"
  input: "strided_slice_4"
  attr {
    key: "T"
    value {
      type: DT_INT32
    }
  }
  attr {
    key: "_output_shapes"
    value {
      list {
        shape {
        }
      }
    }
  }
}
node {
  name: "assert_equal_3/Const"
  op: "Const"
  attr {
    key: "_output_shapes"
    value {
      list {
        shape {
          dim {
          }
        }
      }
    }
  }
  attr {
    key: "dtype"
    value {
      type: DT_INT32
    }
  }
  attr {
    key: "value"
    value {
      tensor {
        dtype: DT_INT32
        tensor_shape {
          dim {
          }
        }
      }
    }
  }
}
node {
  name: "assert_equal_3/All"
  op: "All"
  input: "assert_equal_3/Equal"
  input: "assert_equal_3/Const"
  attr {
    key: "Tidx"
    value {
      type: DT_INT32
    }
  }
  attr {
    key: "_output_shapes"
    value {
      list {
        shape {
        }
      }
    }
  }
  attr {
    key: "keep_dims"
    value {
      b: false
    }
  }
}
node {
  name: "assert_equal_3/Assert/Const"
  op: "Const"
  attr {
    key: "_output_shapes"
    value {
      list {
        shape {
        }
      }
    }
  }
  attr {
    key: "dtype"
    value {
      type: DT_STRING
    }
  }
  attr {
    key: "value"
    value {
      tensor {
        dtype: DT_STRING
        tensor_shape {
        }
        string_val: ""
      }
    }
  }
}
node {
  name: "assert_equal_3/Assert/Const_1"
  op: "Const"
  attr {
    key: "_output_shapes"
    value {
      list {
        shape {
        }
      }
    }
  }
  attr {
    key: "dtype"
    value {
      type: DT_STRING
    }
  }
  attr {
    key: "value"
    value {
      tensor {
        dtype: DT_STRING
        tensor_shape {
        }
        string_val: "Condition x == y did not hold element-wise:"
      }
    }
  }
}
node {
  name: "assert_equal_3/Assert/Const_2"
  op: "Const"
  attr {
    key: "_output_shapes"
    value {
      list {
        shape {
        }
      }
    }
  }
  attr {
    key: "dtype"
    value {
      type: DT_STRING
    }
  }
  attr {
    key: "value"
    value {
      tensor {
        dtype: DT_STRING
        tensor_shape {
        }
        string_val: "x (strided_slice:0) = "
      }
    }
  }
}
node {
  name: "assert_equal_3/Assert/Const_3"
  op: "Const"
  attr {
    key: "_output_shapes"
    value {
      list {
        shape {
        }
      }
    }
  }
  attr {
    key: "dtype"
    value {
      type: DT_STRING
    }
  }
  attr {
    key: "value"
    value {
      tensor {
        dtype: DT_STRING
        tensor_shape {
        }
        string_val: "y (strided_slice_4:0) = "
      }
    }
  }
}
node {
  name: "assert_equal_3/Assert/Assert/data_0"
  op: "Const"
  attr {
    key: "_output_shapes"
    value {
      list {
        shape {
        }
      }
    }
  }
  attr {
    key: "dtype"
    value {
      type: DT_STRING
    }
  }
  attr {
    key: "value"
    value {
      tensor {
        dtype: DT_STRING
        tensor_shape {
        }
        string_val: ""
      }
    }
  }
}
node {
  name: "assert_equal_3/Assert/Assert/data_1"
  op: "Const"
  attr {
    key: "_output_shapes"
    value {
      list {
        shape {
        }
      }
    }
  }
  attr {
    key: "dtype"
    value {
      type: DT_STRING
    }
  }
  attr {
    key: "value"
    value {
      tensor {
        dtype: DT_STRING
        tensor_shape {
        }
        string_val: "Condition x == y did not hold element-wise:"
      }
    }
  }
}
node {
  name: "assert_equal_3/Assert/Assert/data_2"
  op: "Const"
  attr {
    key: "_output_shapes"
    value {
      list {
        shape {
        }
      }
    }
  }
  attr {
    key: "dtype"
    value {
      type: DT_STRING
    }
  }
  attr {
    key: "value"
    value {
      tensor {
        dtype: DT_STRING
        tensor_shape {
        }
        string_val: "x (strided_slice:0) = "
      }
    }
  }
}
node {
  name: "assert_equal_3/Assert/Assert/data_4"
  op: "Const"
  attr {
    key: "_output_shapes"
    value {
      list {
        shape {
        }
      }
    }
  }
  attr {
    key: "dtype"
    value {
      type: DT_STRING
    }
  }
  attr {
    key: "value"
    value {
      tensor {
        dtype: DT_STRING
        tensor_shape {
        }
        string_val: "y (strided_slice_4:0) = "
      }
    }
  }
}
node {
  name: "assert_equal_3/Assert/Assert"
  op: "Assert"
  input: "assert_equal_3/All"
  input: "assert_equal_3/Assert/Assert/data_0"
  input: "assert_equal_3/Assert/Assert/data_1"
  input: "assert_equal_3/Assert/Assert/data_2"
  input: "strided_slice"
  input: "assert_equal_3/Assert/Assert/data_4"
  input: "strided_slice_4"
  attr {
    key: "T"
    value {
      list {
        type: DT_STRING
        type: DT_STRING
        type: DT_STRING
        type: DT_INT32
        type: DT_STRING
        type: DT_INT32
      }
    }
  }
  attr {
    key: "summarize"
    value {
      i: 3
    }
  }
}
node {
  name: "Shape_5"
  op: "Shape"
  input: "IteratorGetNext:2"
  attr {
    key: "T"
    value {
      type: DT_STRING
    }
  }
  attr {
    key: "_output_shapes"
    value {
      list {
        shape {
          dim {
            size: 1
          }
        }
      }
    }
  }
  attr {
    key: "out_type"
    value {
      type: DT_INT32
    }
  }
}
node {
  name: "strided_slice_5/stack"
  op: "Const"
  attr {
    key: "_output_shapes"
    value {
      list {
        shape {
          dim {
            size: 1
          }
        }
      }
    }
  }
  attr {
    key: "dtype"
    value {
      type: DT_INT32
    }
  }
  attr {
    key: "value"
    value {
      tensor {
        dtype: DT_INT32
        tensor_shape {
          dim {
            size: 1
          }
        }
        int_val: 0
      }
    }
  }
}
node {
  name: "strided_slice_5/stack_1"
  op: "Const"
  attr {
    key: "_output_shapes"
    value {
      list {
        shape {
          dim {
            size: 1
          }
        }
      }
    }
  }
  attr {
    key: "dtype"
    value {
      type: DT_INT32
    }
  }
  attr {
    key: "value"
    value {
      tensor {
        dtype: DT_INT32
        tensor_shape {
          dim {
            size: 1
          }
        }
        int_val: 1
      }
    }
  }
}
node {
  name: "strided_slice_5/stack_2"
  op: "Const"
  attr {
    key: "_output_shapes"
    value {
      list {
        shape {
          dim {
            size: 1
          }
        }
      }
    }
  }
  attr {
    key: "dtype"
    value {
      type: DT_INT32
    }
  }
  attr {
    key: "value"
    value {
      tensor {
        dtype: DT_INT32
        tensor_shape {
          dim {
            size: 1
          }
        }
        int_val: 1
      }
    }
  }
}
node {
  name: "strided_slice_5"
  op: "StridedSlice"
  input: "Shape_5"
  input: "strided_slice_5/stack"
  input: "strided_slice_5/stack_1"
  input: "strided_slice_5/stack_2"
  attr {
    key: "Index"
    value {
      type: DT_INT32
    }
  }
  attr {
    key: "T"
    value {
      type: DT_INT32
    }
  }
  attr {
    key: "_output_shapes"
    value {
      list {
        shape {
        }
      }
    }
  }
  attr {
    key: "begin_mask"
    value {
      i: 0
    }
  }
  attr {
    key: "ellipsis_mask"
    value {
      i: 0
    }
  }
  attr {
    key: "end_mask"
    value {
      i: 0
    }
  }
  attr {
    key: "new_axis_mask"
    value {
      i: 0
    }
  }
  attr {
    key: "shrink_axis_mask"
    value {
      i: 1
    }
  }
}
node {
  name: "assert_equal_4/Equal"
  op: "Equal"
  input: "strided_slice"
  input: "strided_slice_5"
  attr {
    key: "T"
    value {
      type: DT_INT32
    }
  }
  attr {
    key: "_output_shapes"
    value {
      list {
        shape {
        }
      }
    }
  }
}
node {
  name: "assert_equal_4/Const"
  op: "Const"
  attr {
    key: "_output_shapes"
    value {
      list {
        shape {
          dim {
          }
        }
      }
    }
  }
  attr {
    key: "dtype"
    value {
      type: DT_INT32
    }
  }
  attr {
    key: "value"
    value {
      tensor {
        dtype: DT_INT32
        tensor_shape {
          dim {
          }
        }
      }
    }
  }
}
node {
  name: "assert_equal_4/All"
  op: "All"
  input: "assert_equal_4/Equal"
  input: "assert_equal_4/Const"
  attr {
    key: "Tidx"
    value {
      type: DT_INT32
    }
  }
  attr {
    key: "_output_shapes"
    value {
      list {
        shape {
        }
      }
    }
  }
  attr {
    key: "keep_dims"
    value {
      b: false
    }
  }
}
node {
  name: "assert_equal_4/Assert/Const"
  op: "Const"
  attr {
    key: "_output_shapes"
    value {
      list {
        shape {
        }
      }
    }
  }
  attr {
    key: "dtype"
    value {
      type: DT_STRING
    }
  }
  attr {
    key: "value"
    value {
      tensor {
        dtype: DT_STRING
        tensor_shape {
        }
        string_val: ""
      }
    }
  }
}
node {
…
    key: "_output_shapes"
    value {
      list {
        shape {
        }
      }
    }
  }
}
node {
  name: "report_uninitialized_variables/VarIsInitializedOp_2"
  op: "VarIsInitializedOp"
  input: "baseline/bias/Ftrl"
  attr {
    key: "_output_shapes"
    value {
      list {
        shape {
        }
      }
    }
  }
}
node {
  name: "report_uninitialized_variables/VarIsInitializedOp_3"
  op: "VarIsInitializedOp"
  input: "baseline/bias/Ftrl_1"
  attr {
    key: "_output_shapes"
    value {
      list {
        shape {
        }
      }
    }
  }
}
node {
  name: "report_uninitialized_variables/stack"
  op: "Pack"
  input: "report_uninitialized_variables/VarIsInitializedOp"
  input: "report_uninitialized_variables/VarIsInitializedOp_1"
  input: "report_uninitialized_variables/VarIsInitializedOp_2"
  input: "report_uninitialized_variables/VarIsInitializedOp_3"
  device: "/device:CPU:0"
  attr {
    key: "N"
    value {
      i: 4
    }
  }
  attr {
    key: "T"
    value {
      type: DT_BOOL
    }
  }
  attr {
    key: "_output_shapes"
    value {
      list {
        shape {
          dim {
            size: 4
          }
        }
      }
    }
  }
  attr {
    key: "axis"
    value {
      i: 0
    }
  }
}
node {
  name: "report_uninitialized_variables/LogicalNot"
  op: "LogicalNot"
  input: "report_uninitialized_variables/stack"
  device: "/device:CPU:0"
  attr {
    key: "_output_shapes"
    value {
      list {
        shape {
          dim {
            size: 4
          }
        }
      }
    }
  }
}
node {
  name: "report_uninitialized_variables/Const"
  op: "Const"
  device: "/device:CPU:0"
  attr {
    key: "_output_shapes"
    value {
      list {
        shape {
          dim {
            size: 4
          }
        }
      }
    }
  }
  attr {
    key: "dtype"
    value {
      type: DT_STRING
    }
  }
  attr {
    key: "value"
    value {
      tensor {
        dtype: DT_STRING
        tensor_shape {
          dim {
            size: 4
          }
        }
        string_val: "global_step"
        string_val: "baseline/bias"
        string_val: "baseline/bias/Ftrl"
        string_val: "baseline/bias/Ftrl_1"
      }
    }
  }
}
node {
  name: "report_uninitialized_variables/boolean_mask/Shape"
  op: "Const"
  device: "/device:CPU:0"
  attr {
    key: "_output_shapes"
    value {
      list {
        shape {
          dim {
            size: 1
          }
        }
      }
    }
  }
  attr {
    key: "dtype"
    value {
      type: DT_INT32
    }
  }
  attr {
    key: "value"
    value {
      tensor {
        dtype: DT_INT32
        tensor_shape {
          dim {
            size: 1
          }
        }
        int_val: 4
      }
    }
  }
}
node {
  name: "report_uninitialized_variables/boolean_mask/strided_slice/stack"
  op: "Const"
  device: "/device:CPU:0"
  attr {
    key: "_output_shapes"
    value {
      list {
        shape {
          dim {
            size: 1
          }
        }
      }
    }
  }
  attr {
    key: "dtype"
    value {
      type: DT_INT32
    }
  }
  attr {
    key: "value"
    value {
      tensor {
        dtype: DT_INT32
        tensor_shape {
          dim {
            size: 1
          }
        }
        int_val: 0
      }
    }
  }
}
node {
  name: "report_uninitialized_variables/boolean_mask/strided_slice/stack_1"
  op: "Const"
  device: "/device:CPU:0"
  attr {
    key: "_output_shapes"
    value {
      list {
        shape {
          dim {
            size: 1
          }
        }
      }
    }
  }
  attr {
    key: "dtype"
    value {
      type: DT_INT32
    }
  }
  attr {
    key: "value"
    value {
      tensor {
        dtype: DT_INT32
        tensor_shape {
          dim {
            size: 1
          }
        }
        int_val: 1
      }
    }
  }
}
node {
  name: "report_uninitialized_variables/boolean_mask/strided_slice/stack_2"
  op: "Const"
  device: "/device:CPU:0"
  attr {
    key: "_output_shapes"
    value {
      list {
        shape {
          dim {
            size: 1
          }
        }
      }
    }
  }
  attr {
    key: "dtype"
    value {
      type: DT_INT32
    }
  }
  attr {
    key: "value"
    value {
      tensor {
        dtype: DT_INT32
        tensor_shape {
          dim {
            size: 1
          }
        }
        int_val: 1
      }
    }
  }
}
node {
  name: "report_uninitialized_variables/boolean_mask/strided_slice"
  op: "StridedSlice"
  input: "report_uninitialized_variables/boolean_mask/Shape"
  input: "report_uninitialized_variables/boolean_mask/strided_slice/stack"
  input: "report_uninitialized_variables/boolean_mask/strided_slice/stack_1"
  input: "report_uninitialized_variables/boolean_mask/strided_slice/stack_2"
  device: "/device:CPU:0"
  attr {
    key: "Index"
    value {
      type: DT_INT32
    }
  }
  attr {
    key: "T"
    value {
      type: DT_INT32
    }
  }
  attr {
    key: "_output_shapes"
    value {
      list {
        shape {
          dim {
            size: 1
          }
        }
      }
    }
  }
  attr {
    key: "begin_mask"
    value {
      i: 0
    }
  }
  attr {
    key: "ellipsis_mask"
    value {
      i: 0
    }
  }
  attr {
    key: "end_mask"
    value {
      i: 0
    }
  }
  attr {
    key: "new_axis_mask"
    value {
      i: 0
    }
  }
  attr {
    key: "shrink_axis_mask"
    value {
      i: 0
    }
  }
}
node {
  name: "report_uninitialized_variables/boolean_mask/Prod/reduction_indices"
  op: "Const"
  device: "/device:CPU:0"
  attr {
    key: "_output_shapes"
    value {
      list {
        shape {
          dim {
            size: 1
          }
        }
      }
    }
  }
  attr {
    key: "dtype"
    value {
      type: DT_INT32
    }
  }
  attr {
    key: "value"
    value {
      tensor {
        dtype: DT_INT32
        tensor_shape {
          dim {
            size: 1
          }
        }
        int_val: 0
      }
    }
  }
}
node {
  name: "report_uninitialized_variables/boolean_mask/Prod"
  op: "Prod"
  input: "report_uninitialized_variables/boolean_mask/strided_slice"
  input: "report_uninitialized_variables/boolean_mask/Prod/reduction_indices"
  device: "/device:CPU:0"
  attr {
    key: "T"
    value {
      type: DT_INT32
    }
  }
  attr {
    key: "Tidx"
    value {
      type: DT_INT32
    }
  }
  attr {
    key: "_output_shapes"
    value {
      list {
        shape {
        }
      }
    }
  }
  attr {
    key: "keep_dims"
    value {
      b: false
    }
  }
}
node {
  name: "report_uninitialized_variables/boolean_mask/Shape_1"
  op: "Const"
  device: "/device:CPU:0"
  attr {
    key: "_output_shapes"
    value {
      list {
        shape {
          dim {
            size: 1
          }
        }
      }
    }
  }
  attr {
    key: "dtype"
    value {
      type: DT_INT32
    }
  }
  attr {
    key: "value"
    value {
      tensor {
        dtype: DT_INT32
        tensor_shape {
          dim {
            size: 1
          }
        }
        int_val: 4
      }
    }
  }
}
node {
  name: "report_uninitialized_variables/boolean_mask/strided_slice_1/stack"
  op: "Const"
  device: "/device:CPU:0"
  attr {
    key: "_output_shapes"
    value {
      list {
        shape {
          dim {
            size: 1
          }
        }
      }
    }
  }
  attr {
    key: "dtype"
    value {
      type: DT_INT32
    }
  }
  attr {
    key: "value"
    value {
      tensor {
        dtype: DT_INT32
        tensor_shape {
          dim {
            size: 1
          }
        }
        int_val: 0
      }
    }
  }
}
node {
  name: "report_uninitialized_variables/boolean_mask/strided_slice_1/stack_1"
  op: "Const"
  device: "/device:CPU:0"
  attr {
    key: "_output_shapes"
    value {
      list {
        shape {
          dim {
            size: 1
          }
        }
      }
    }
  }
  attr {
    key: "dtype"
    value {
      type: DT_INT32
    }
  }
  attr {
    key: "value"
    value {
      tensor {
        dtype: DT_INT32
        tensor_shape {
          dim {
            size: 1
          }
        }
        int_val: 0
      }
    }
  }
}
node {
  name: "report_uninitialized_variables/boolean_mask/strided_slice_1/stack_2"
  op: "Const"
  device: "/device:CPU:0"
  attr {
    key: "_output_shapes"
    value {
      list {
        shape {
          dim {
            size: 1
          }
        }
      }
    }
  }
  attr {
    key: "dtype"
    value {
      type: DT_INT32
    }
  }
  attr {
    key: "value"
    value {
      tensor {
        dtype: DT_INT32
        tensor_shape {
          dim {
            size: 1
          }
        }
        int_val: 1
      }
    }
  }
}
node {
  name: "report_uninitialized_variables/boolean_mask/strided_slice_1"
  op: "StridedSlice"
  input: "report_uninitialized_variables/boolean_mask/Shape_1"
  input: "report_uninitialized_variables/boolean_mask/strided_slice_1/stack"
  input: "report_uninitialized_variables/boolean_mask/strided_slice_1/stack_1"
  input: "report_uninitialized_variables/boolean_mask/strided_slice_1/stack_2"
  device: "/device:CPU:0"
  attr {
    key: "Index"
    value {
      type: DT_INT32
    }
  }
  attr {
    key: "T"
    value {
      type: DT_INT32
    }
  }
  attr {
    key: "_output_shapes"
    value {
      list {
        shape {
          dim {
          }
        }
      }
    }
  }
  attr {
    key: "begin_mask"
    value {
      i: 1
    }
  }
  attr {
    key: "ellipsis_mask"
    value {
      i: 0
    }
  }
  attr {
    key: "end_mask"
    value {
      i: 0
    }
  }
  attr {
    key: "new_axis_mask"
    value {
      i: 0
    }
  }
  attr {
    key: "shrink_axis_mask"
    value {
      i: 0
    }
  }
}
node {
  name: "report_uninitialized_variables/boolean_mask/Shape_2"
  op: "Const"
  device: "/device:CPU:0"
  attr {
    key: "_output_shapes"
    value {
      list {
        shape {
          dim {
            size: 1
          }
        }
      }
    }
  }
  attr {
    key: "dtype"
    value {
      type: DT_INT32
    }
  }
  attr {
    key: "value"
    value {
      tensor {
        dtype: DT_INT32
        tensor_shape {
          dim {
            size: 1
          }
        }
        int_val: 4
      }
    }
  }
}
node {
  name: "report_uninitialized_variables/boolean_mask/strided_slice_2/stack"
  op: "Const"
  device: "/device:CPU:0"
  attr {
    key: "_output_shapes"
    value {
      list {
        shape {
          dim {
            size: 1
          }
        }
      }
    }
  }
  attr {
    key: "dtype"
    value {
      type: DT_INT32
    }
  }
  attr {
    key: "value"
    value {
      tensor {
        dtype: DT_INT32
        tensor_shape {
          dim {
            size: 1
          }
        }
        int_val: 1
      }
    }
  }
}
node {
  name: "report_uninitialized_variables/boolean_mask/strided_slice_2/stack_1"
  op: "Const"
  device: "/device:CPU:0"
  attr {
    key: "_output_shapes"
    value {
      list {
        shape {
          dim {
            size: 1
          }
        }
      }
    }
  }
  attr {
    key: "dtype"
    value {
      type: DT_INT32
    }
  }
  attr {
    key: "value"
    value {
      tensor {
        dtype: DT_INT32
        tensor_shape {
          dim {
            size: 1
          }
        }
        int_val: 0
      }
    }
  }
}
node {
  name: "report_uninitialized_variables/boolean_mask/strided_slice_2/stack_2"
  op: "Const"
  device: "/device:CPU:0"
  attr {
    key: "_output_shapes"
    value {
      list {
        shape {
          dim {
            size: 1
          }
        }
      }
    }
  }
  attr {
    key: "dtype"
    value {
      type: DT_INT32
    }
  }
  attr {
    key: "value"
    value {
      tensor {
        dtype: DT_INT32
        tensor_shape {
          dim {
            size: 1
          }
        }
        int_val: 1
      }
    }
  }
}
node {
  name: "report_uninitialized_variables/boolean_mask/strided_slice_2"
  op: "StridedSlice"
  input: "report_uninitialized_variables/boolean_mask/Shape_2"
  input: "report_uninitialized_variables/boolean_mask/strided_slice_2/stack"
  input: "report_uninitialized_variables/boolean_mask/strided_slice_2/stack_1"
  input: "report_uninitialized_variables/boolean_mask/strided_slice_2/stack_2"
  device: "/device:CPU:0"
  attr {
    key: "Index"
    value {
      type: DT_INT32
    }
  }
  attr {
    key: "T"
    value {
      type: DT_INT32
    }
  }
  attr {
    key: "_output_shapes"
    value {
      list {
        shape {
          dim {
          }
        }
      }
    }
  }
  attr {
    key: "begin_mask"
    value {
      i: 0
    }
  }
  attr {
    key: "ellipsis_mask"
    value {
      i: 0
    }
  }
  attr {
    key: "end_mask"
    value {
      i: 1
    }
  }
  attr {
    key: "new_axis_mask"
    value {
      i: 0
    }
  }
  attr {
    key: "shrink_axis_mask"
    value {
      i: 0
    }
  }
}
node {
  name: "report_uninitialized_variables/boolean_mask/concat/values_1"
  op: "Pack"
  input: "report_uninitialized_variables/boolean_mask/Prod"
  device: "/device:CPU:0"
  attr {
    key: "N"
    value {
      i: 1
    }
  }
  attr {
    key: "T"
    value {
      type: DT_INT32
    }
  }
  attr {
    key: "_output_shapes"
    value {
      list {
        shape {
          dim {
            size: 1
          }
        }
      }
    }
  }
  attr {
    key: "axis"
    value {
      i: 0
    }
  }
}
node {
  name: "report_uninitialized_variables/boolean_mask/concat/axis"
  op: "Const"
  device: "/device:CPU:0"
  attr {
    key: "_output_shapes"
    value {
      list {
        shape {
        }
      }
    }
  }
  attr {
    key: "dtype"
    value {
      type: DT_INT32
    }
  }
  attr {
    key: "value"
    value {
      tensor {
        dtype: DT_INT32
        tensor_shape {
        }
        int_val: 0
      }
    }
  }
}
node {
  name: "report_uninitialized_variables/boolean_mask/concat"
  op: "ConcatV2"
  input: "report_uninitialized_variables/boolean_mask/strided_slice_1"
  input: "report_uninitialized_variables/boolean_mask/concat/values_1"
  input: "report_uninitialized_variables/boolean_mask/strided_slice_2"
  input: "report_uninitialized_variables/boolean_mask/concat/axis"
  device: "/device:CPU:0"
  attr {
    key: "N"
    value {
      i: 3
    }
  }
  attr {
    key: "T"
    value {
      type: DT_INT32
    }
  }
  attr {
    key: "Tidx"
    value {
      type: DT_INT32
    }
  }
  attr {
    key: "_output_shapes"
    value {
      list {
        shape {
          dim {
            size: 1
          }
        }
      }
    }
  }
}
node {
  name: "report_uninitialized_variables/boolean_mask/Reshape"
  op: "Reshape"
  input: "report_uninitialized_variables/Const"
  input: "report_uninitialized_variables/boolean_mask/concat"
  device: "/device:CPU:0"
  attr {
    key: "T"
    value {
      type: DT_STRING
    }
  }
  attr {
    key: "Tshape"
    value {
      type: DT_INT32
    }
  }
  attr {
    key: "_output_shapes"
    value {
      list {
        shape {
          dim {
            size: 4
          }
        }
      }
    }
  }
}
node {
  name: "report_uninitialized_variables/boolean_mask/Reshape_1/shape"
  op: "Const"
  device: "/device:CPU:0"
  attr {
    key: "_output_shapes"
    value {
      list {
        shape {
          dim {
            size: 1
          }
        }
      }
    }
  }
  attr {
    key: "dtype"
    value {
      type: DT_INT32
    }
  }
  attr {
    key: "value"
    value {
      tensor {
        dtype: DT_INT32
        tensor_shape {
          dim {
            size: 1
          }
        }
        int_val: -1
      }
    }
  }
}
node {
  name: "report_uninitialized_variables/boolean_mask/Reshape_1"
  op: "Reshape"
  input: "report_uninitialized_variables/LogicalNot"
  input: "report_uninitialized_variables/boolean_mask/Reshape_1/shape"
  device: "/device:CPU:0"
  attr {
    key: "T"
    value {
      type: DT_BOOL
    }
  }
  attr {
    key: "Tshape"
    value {
      type: DT_INT32
    }
  }
  attr {
    key: "_output_shapes"
    value {
      list {
        shape {
          dim {
            size: 4
          }
        }
      }
    }
  }
}
node {
  name: "report_uninitialized_variables/boolean_mask/Where"
  op: "Where"
  input: "report_uninitialized_variables/boolean_mask/Reshape_1"
  device: "/device:CPU:0"
  attr {
    key: "T"
    value {
      type: DT_BOOL
    }
  }
  attr {
    key: "_output_shapes"
    value {
      list {
        shape {
          dim {
            size: -1
          }
          dim {
            size: 1
          }
        }
      }
    }
  }
}
node {
  name: "report_uninitialized_variables/boolean_mask/Squeeze"
  op: "Squeeze"
  input: "report_uninitialized_variables/boolean_mask/Where"
  device: "/device:CPU:0"
  attr {
    key: "T"
    value {
      type: DT_INT64
    }
  }
  attr {
    key: "_output_shapes"
    value {
      list {
        shape {
          dim {
            size: -1
          }
        }
      }
    }
  }
  attr {
    key: "squeeze_dims"
    value {
      list {
        i: 1
      }
    }
  }
}
node {
  name: "report_uninitialized_variables/boolean_mask/GatherV2/axis"
  op: "Const"
  device: "/device:CPU:0"
  attr {
    key: "_output_shapes"
    value {
      list {
        shape {
        }
      }
    }
  }
  attr {
    key: "dtype"
    value {
      type: DT_INT32
    }
  }
  attr {
    key: "value"
    value {
      tensor {
        dtype: DT_INT32
        tensor_shape {
        }
        int_val: 0
      }
    }
  }
}
node {
  name: "report_uninitialized_variables/boolean_mask/GatherV2"
  op: "GatherV2"
  input: "report_uninitialized_variables/boolean_mask/Reshape"
  input: "report_uninitialized_variables/boolean_mask/Squeeze"
  input: "report_uninitialized_variables/boolean_mask/GatherV2/axis"
  device: "/device:CPU:0"
  attr {
    key: "Taxis"
    value {
      type: DT_INT32
    }
  }
  attr {
    key: "Tindices"
    value {
      type: DT_INT64
    }
  }
  attr {
    key: "Tparams"
    value {
      type: DT_STRING
    }
  }
  attr {
    key: "_output_shapes"
    value {
      list {
        shape {
          dim {
            size: -1
          }
        }
      }
    }
  }
}
node {
  name: "report_uninitialized_resources/Const"
  op: "Const"
  device: "/device:CPU:0"
  attr {
    key: "_output_shapes"
    value {
      list {
        shape {
          dim {
          }
        }
      }
    }
  }
  attr {
    key: "dtype"
    value {
      type: DT_STRING
    }
  }
  attr {
    key: "value"
    value {
      tensor {
        dtype: DT_STRING
        tensor_shape {
          dim {
          }
        }
      }
    }
  }
}
node {
  name: "concat/axis"
  op: "Const"
  attr {
    key: "_output_shapes"
    value {
      list {
        shape {
        }
      }
    }
  }
  attr {
    key: "dtype"
    value {
      type: DT_INT32
    }
  }
  attr {
    key: "value"
    value {
      tensor {
        dtype: DT_INT32
        tensor_shape {
        }
        int_val: 0
      }
    }
  }
}
node {
  name: "concat"
  op: "ConcatV2"
  input: "report_uninitialized_variables/boolean_mask/GatherV2"
  input: "report_uninitialized_resources/Const"
  input: "concat/axis"
  attr {
    key: "N"
    value {
      i: 2
    }
  }
  attr {
    key: "T"
    value {
      type: DT_STRING
    }
  }
  attr {
    key: "Tidx"
    value {
      type: DT_INT32
    }
  }
  attr {
    key: "_output_shapes"
    value {
      list {
        shape {
          dim {
            size: -1
          }
        }
      }
    }
  }
}
node {
  name: "report_uninitialized_variables_1/VarIsInitializedOp"
  op: "VarIsInitializedOp"
  input: "global_step"
  attr {
    key: "_output_shapes"
    value {
      list {
        shape {
        }
      }
    }
  }
}
node {
  name: "report_uninitialized_variables_1/VarIsInitializedOp_1"
  op: "VarIsInitializedOp"
  input: "baseline/bias"
  attr {
    key: "_output_shapes"
    value {
      list {
        shape {
        }
      }
    }
  }
}
node {
  name: "report_uninitialized_variables_1/VarIsInitializedOp_2"
  op: "VarIsInitializedOp"
  input: "baseline/bias/Ftrl"
  attr {
    key: "_output_shapes"
    value {
      list {
        shape {
        }
      }
    }
  }
}
node {
  name: "report_uninitialized_variables_1/VarIsInitializedOp_3"
  op: "VarIsInitializedOp"
  input: "baseline/bias/Ftrl_1"
  attr {
    key: "_output_shapes"
    value {
      list {
        shape {
        }
      }
    }
  }
}
node {
  name: "report_uninitialized_variables_1/stack"
  op: "Pack"
  input: "report_uninitialized_variables_1/VarIsInitializedOp"
  input: "report_uninitialized_variables_1/VarIsInitializedOp_1"
  input: "report_uninitialized_variables_1/VarIsInitializedOp_2"
  input: "report_uninitialized_variables_1/VarIsInitializedOp_3"
  device: "/device:CPU:0"
  attr {
    key: "N"
    value {
      i: 4
    }
  }
  attr {
    key: "T"
    value {
      type: DT_BOOL
    }
  }
  attr {
    key: "_output_shapes"
    value {
      list {
        shape {
          dim {
            size: 4
          }
        }
      }
    }
  }
  attr {
    key: "axis"
    value {
      i: 0
    }
  }
}
node {
  name: "report_uninitialized_variables_1/LogicalNot"
  op: "LogicalNot"
  input: "report_uninitialized_variables_1/stack"
  device: "/device:CPU:0"
  attr {
    key: "_output_shapes"
    value {
      list {
        shape {
          dim {
            size: 4
          }
        }
      }
    }
  }
}
node {
  name: "report_uninitialized_variables_1/Const"
  op: "Const"
  device: "/device:CPU:0"
  attr {
    key: "_output_shapes"
    value {
      list {
        shape {
          dim {
            size: 4
          }
        }
      }
    }
  }
  attr {
    key: "dtype"
    value {
      type: DT_STRING
    }
  }
  attr {
    key: "value"
    value {
      tensor {
        dtype: DT_STRING
        tensor_shape {
          dim {
            size: 4
          }
        }
        string_val: "global_step"
        string_val: "baseline/bias"
        string_val: "baseline/bias/Ftrl"
        string_val: "baseline/bias/Ftrl_1"
      }
    }
  }
}
node {
  name: "report_uninitialized_variables_1/boolean_mask/Shape"
  op: "Const"
  device: "/device:CPU:0"
  attr {
    key: "_output_shapes"
    value {
      list {
        shape {
          dim {
            size: 1
          }
        }
      }
    }
  }
  attr {
    key: "dtype"
    value {
      type: DT_INT32
    }
  }
  attr {
    key: "value"
    value {
      tensor {
        dtype: DT_INT32
        tensor_shape {
          dim {
            size: 1
          }
        }
        int_val: 4
      }
    }
  }
}
node {
  name: "report_uninitialized_variables_1/boolean_mask/strided_slice/stack"
  op: "Const"
  device: "/device:CPU:0"
  attr {
    key: "_output_shapes"
    value {
      list {
        shape {
          dim {
            size: 1
          }
        }
      }
    }
  }
  attr {
    key: "dtype"
    value {
      type: DT_INT32
    }
  }
  attr {
    key: "value"
    value {
      tensor {
        dtype: DT_INT32
        tensor_shape {
          dim {
            size: 1
          }
        }
        int_val: 0
      }
    }
  }
}
node {
  name: "report_uninitialized_variables_1/boolean_mask/strided_slice/stack_1"
  op: "Const"
  device: "/device:CPU:0"
  attr {
    key: "_output_shapes"
    value {
      list {
        shape {
          dim {
            size: 1
          }
        }
      }
    }
  }
  attr {
    key: "dtype"
    value {
      type: DT_INT32
    }
  }
  attr {
    key: "value"
    value {
      tensor {
        dtype: DT_INT32
        tensor_shape {
          dim {
            size: 1
          }
        }
        int_val: 1
      }
    }
  }
}
node {
  name: "report_uninitialized_variables_1/boolean_mask/strided_slice/stack_2"
  op: "Const"
  device: "/device:CPU:0"
  attr {
    key: "_output_shapes"
    value {
      list {
        shape {
          dim {
            size: 1
          }
        }
      }
    }
  }
  attr {
    key: "dtype"
    value {
      type: DT_INT32
    }
  }
  attr {
    key: "value"
    value {
      tensor {
        dtype: DT_INT32
        tensor_shape {
          dim {
            size: 1
          }
        }
        int_val: 1
      }
    }
  }
}
node {
  name: "report_uninitialized_variables_1/boolean_mask/strided_slice"
  op: "StridedSlice"
  input: "report_uninitialized_variables_1/boolean_mask/Shape"
  input: "report_uninitialized_variables_1/boolean_mask/strided_slice/stack"
  input: "report_uninitialized_variables_1/boolean_mask/strided_slice/stack_1"
  input: "report_uninitialized_variables_1/boolean_mask/strided_slice/stack_2"
  device: "/device:CPU:0"
  attr {
    key: "Index"
    value {
      type: DT_INT32
    }
  }
  attr {
    key: "T"
    value {
      type: DT_INT32
    }
  }
  attr {
    key: "_output_shapes"
    value {
      list {
        shape {
          dim {
            size: 1
          }
        }
      }
    }
  }
  attr {
    key: "begin_mask"
    value {
      i: 0
    }
  }
  attr {
    key: "ellipsis_mask"
    value {
      i: 0
    }
  }
  attr {
    key: "end_mask"
    value {
      i: 0
    }
  }
  attr {
    key: "new_axis_mask"
    value {
      i: 0
    }
  }
  attr {
    key: "shrink_axis_mask"
    value {
      i: 0
    }
  }
}
node {
  name: "report_uninitialized_variables_1/boolean_mask/Prod/reduction_indices"
  op: "Const"
  device: "/device:CPU:0"
  attr {
    key: "_output_shapes"
    value {
      list {
        shape {
          dim {
            size: 1
          }
        }
      }
    }
  }
  attr {
    key: "dtype"
    value {
      type: DT_INT32
    }
  }
  attr {
    key: "value"
    value {
      tensor {
        dtype: DT_INT32
        tensor_shape {
          dim {
            size: 1
          }
        }
        int_val: 0
      }
    }
  }
}
node {
  name: "report_uninitialized_variables_1/boolean_mask/Prod"
  op: "Prod"
  input: "report_uninitialized_variables_1/boolean_mask/strided_slice"
  input: "report_uninitialized_variables_1/boolean_mask/Prod/reduction_indices"
  device: "/device:CPU:0"
  attr {
    key: "T"
    value {
      type: DT_INT32
    }
  }
  attr {
    key: "Tidx"
    value {
      type: DT_INT32
    }
  }
  attr {
    key: "_output_shapes"
    value {
      list {
        shape {
        }
      }
    }
  }
  attr {
    key: "keep_dims"
    value {
      b: false
    }
  }
}
node {
  name: "report_uninitialized_variables_1/boolean_mask/Shape_1"
  op: "Const"
  device: "/device:CPU:0"
  attr {
    key: "_output_shapes"
    value {
      list {
        shape {
          dim {
            size: 1
          }
        }
      }
    }
  }
  attr {
    key: "dtype"
    value {
      type: DT_INT32
    }
  }
  attr {
    key: "value"
    value {
      tensor {
        dtype: DT_INT32
        tensor_shape {
          dim {
            size: 1
          }
        }
        int_val: 4
      }
    }
  }
}
node {
  name: "report_uninitialized_variables_1/boolean_mask/strided_slice_1/stack"
  op: "Const"
  device: "/device:CPU:0"
  attr {
    key: "_output_shapes"
    value {
      list {
        shape {
          dim {
            size: 1
          }
        }
      }
    }
  }
  attr {
    key: "dtype"
    value {
      type: DT_INT32
    }
  }
  attr {
    key: "value"
    value {
      tensor {
        dtype: DT_INT32
        tensor_shape {
          dim {
            size: 1
          }
        }
        int_val: 0
      }
    }
  }
}
node {
  name: "report_uninitialized_variables_1/boolean_mask/strided_slice_1/stack_1"
  op: "Const"
  device: "/device:CPU:0"
  attr {
    key: "_output_shapes"
    value {
      list {
        shape {
          dim {
            size: 1
          }
        }
      }
    }
  }
  attr {
    key: "dtype"
    value {
      type: DT_INT32
    }
  }
  attr {
    key: "value"
    value {
      tensor {
        dtype: DT_INT32
        tensor_shape {
          dim {
            size: 1
          }
        }
        int_val: 0
      }
    }
  }
}
node {
  name: "report_uninitialized_variables_1/boolean_mask/strided_slice_1/stack_2"
  op: "Const"
  device: "/device:CPU:0"
  attr {
    key: "_output_shapes"
    value {
      list {
        shape {
          dim {
            size: 1
          }
        }
      }
    }
  }
  attr {
    key: "dtype"
    value {
      type: DT_INT32
    }
  }
  attr {
    key: "value"
    value {
      tensor {
        dtype: DT_INT32
        tensor_shape {
          dim {
            size: 1
          }
        }
        int_val: 1
      }
    }
  }
}
node {
  name: "report_uninitialized_variables_1/boolean_mask/strided_slice_1"
  op: "StridedSlice"
  input: "report_uninitialized_variables_1/boolean_mask/Shape_1"
  input: "report_uninitialized_variables_1/boolean_mask/strided_slice_1/stack"
  input: "report_uninitialized_variables_1/boolean_mask/strided_slice_1/stack_1"
  input: "report_uninitialized_variables_1/boolean_mask/strided_slice_1/stack_2"
  device: "/device:CPU:0"
  attr {
    key: "Index"
    value {
      type: DT_INT32
    }
  }
  attr {
    key: "T"
    value {
      type: DT_INT32
    }
  }
  attr {
    key: "_output_shapes"
    value {
      list {
        shape {
          dim {
          }
        }
      }
    }
  }
  attr {
    key: "begin_mask"
    value {
      i: 1
    }
  }
  attr {
    key: "ellipsis_mask"
    value {
      i: 0
    }
  }
  attr {
    key: "end_mask"
    value {
      i: 0
    }
  }
  attr {
    key: "new_axis_mask"
    value {
      i: 0
    }
  }
  attr {
    key: "shrink_axis_mask"
    value {
      i: 0
    }
  }
}
node {
  name: "report_uninitialized_variables_1/boolean_mask/Shape_2"
  op: "Const"
  device: "/device:CPU:0"
  attr {
    key: "_output_shapes"
    value {
      list {
        shape {
          dim {
            size: 1
          }
        }
      }
    }
  }
  attr {
    key: "dtype"
    value {
      type: DT_INT32
    }
  }
  attr {
    key: "value"
    value {
      tensor {
        dtype: DT_INT32
        tensor_shape {
          dim {
            size: 1
          }
        }
        int_val: 4
      }
    }
  }
}
node {
  name: "report_uninitialized_variables_1/boolean_mask/strided_slice_2/stack"
  op: "Const"
  device: "/device:CPU:0"
  attr {
    key: "_output_shapes"
    value {
      list {
        shape {
          dim {
            size: 1
          }
        }
      }
    }
  }
  attr {
    key: "dtype"
    value {
      type: DT_INT32
    }
  }
  attr {
    key: "value"
    value {
      tensor {
        dtype: DT_INT32
        tensor_shape {
          dim {
            size: 1
          }
        }
        int_val: 1
      }
    }
  }
}
node {
  name: "report_uninitialized_variables_1/boolean_mask/strided_slice_2/stack_1"
  op: "Const"
  device: "/device:CPU:0"
  attr {
    key: "_output_shapes"
    value {
      list {
        shape {
          dim {
            size: 1
          }
        }
      }
    }
  }
  attr {
    key: "dtype"
    value {
      type: DT_INT32
    }
  }
  attr {
    key: "value"
    value {
      tensor {
        dtype: DT_INT32
        tensor_shape {
          dim {
            size: 1
          }
        }
        int_val: 0
      }
    }
  }
}
node {
  name: "report_uninitialized_variables_1/boolean_mask/strided_slice_2/stack_2"
  op: "Const"
  device: "/device:CPU:0"
  attr {
    key: "_output_shapes"
    value {
      list {
        shape {
          dim {
            size: 1
          }
        }
      }
    }
  }
  attr {
    key: "dtype"
    value {
      type: DT_INT32
    }
  }
  attr {
    key: "value"
    value {
      tensor {
        dtype: DT_INT32
        tensor_shape {
          dim {
            size: 1
          }
        }
        int_val: 1
      }
    }
  }
}
node {
  name: "report_uninitialized_variables_1/boolean_mask/strided_slice_2"
  op: "StridedSlice"
  input: "report_uninitialized_variables_1/boolean_mask/Shape_2"
  input: "report_uninitialized_variables_1/boolean_mask/strided_slice_2/stack"
  input: "report_uninitialized_variables_1/boolean_mask/strided_slice_2/stack_1"
  input: "report_uninitialized_variables_1/boolean_mask/strided_slice_2/stack_2"
  device: "/device:CPU:0"
  attr {
    key: "Index"
    value {
      type: DT_INT32
    }
  }
  attr {
    key: "T"
    value {
      type: DT_INT32
    }
  }
  attr {
    key: "_output_shapes"
    value {
      list {
        shape {
          dim {
          }
        }
      }
    }
  }
  attr {
    key: "begin_mask"
    value {
      i: 0
    }
  }
  attr {
    key: "ellipsis_mask"
    value {
      i: 0
    }
  }
  attr {
    key: "end_mask"
    value {
      i: 1
    }
  }
  attr {
    key: "new_axis_mask"
    value {
      i: 0
    }
  }
  attr {
    key: "shrink_axis_mask"
    value {
      i: 0
    }
  }
}
node {
  name: "report_uninitialized_variables_1/boolean_mask/concat/values_1"
  op: "Pack"
  input: "report_uninitialized_variables_1/boolean_mask/Prod"
  device: "/device:CPU:0"
  attr {
    key: "N"
    value {
      i: 1
    }
  }
  attr {
    key: "T"
    value {
      type: DT_INT32
    }
  }
  attr {
    key: "_output_shapes"
    value {
      list {
        shape {
          dim {
            size: 1
          }
        }
      }
    }
  }
  attr {
    key: "axis"
    value {
      i: 0
    }
  }
}
node {
  name: "report_uninitialized_variables_1/boolean_mask/concat/axis"
  op: "Const"
  device: "/device:CPU:0"
  attr {
    key: "_output_shapes"
    value {
      list {
        shape {
        }
      }
    }
  }
  attr {
    key: "dtype"
    value {
      type: DT_INT32
    }
  }
  attr {
    key: "value"
    value {
      tensor {
        dtype: DT_INT32
        tensor_shape {
        }
        int_val: 0
      }
    }
  }
}
node {
  name: "report_uninitialized_variables_1/boolean_mask/concat"
  op: "ConcatV2"
  input: "report_uninitialized_variables_1/boolean_mask/strided_slice_1"
  input: "report_uninitialized_variables_1/boolean_mask/concat/values_1"
  input: "report_uninitialized_variables_1/boolean_mask/strided_slice_2"
  input: "report_uninitialized_variables_1/boolean_mask/concat/axis"
  device: "/device:CPU:0"
  attr {
    key: "N"
    value {
      i: 3
    }
  }
  attr {
    key: "T"
    value {
      type: DT_INT32
    }
  }
  attr {
    key: "Tidx"
    value {
      type: DT_INT32
    }
  }
  attr {
    key: "_output_shapes"
    value {
      list {
        shape {
          dim {
            size: 1
          }
        }
      }
    }
  }
}
node {
  name: "report_uninitialized_variables_1/boolean_mask/Reshape"
  op: "Reshape"
  input: "report_uninitialized_variables_1/Const"
  input: "report_uninitialized_variables_1/boolean_mask/concat"
  device: "/device:CPU:0"
  attr {
    key: "T"
    value {
      type: DT_STRING
    }
  }
  attr {
    key: "Tshape"
    value {
      type: DT_INT32
    }
  }
  attr {
    key: "_output_shapes"
    value {
      list {
        shape {
          dim {
            size: 4
          }
        }
      }
    }
  }
}
node {
  name: "report_uninitialized_variables_1/boolean_mask/Reshape_1/shape"
  op: "Const"
  device: "/device:CPU:0"
  attr {
    key: "_output_shapes"
    value {
      list {
        shape {
          dim {
            size: 1
          }
        }
      }
    }
  }
  attr {
    key: "dtype"
    value {
      type: DT_INT32
    }
  }
  attr {
    key: "value"
    value {
      tensor {
        dtype: DT_INT32
        tensor_shape {
          dim {
            size: 1
          }
        }
        int_val: -1
      }
    }
  }
}
node {
  name: "report_uninitialized_variables_1/boolean_mask/Reshape_1"
  op: "Reshape"
  input: "report_uninitialized_variables_1/LogicalNot"
  input: "report_uninitialized_variables_1/boolean_mask/Reshape_1/shape"
  device: "/device:CPU:0"
  attr {
    key: "T"
    value {
      type: DT_BOOL
    }
  }
  attr {
    key: "Tshape"
    value {
      type: DT_INT32
    }
  }
  attr {
    key: "_output_shapes"
    value {
      list {
        shape {
          dim {
            size: 4
          }
        }
      }
    }
  }
}
node {
  name: "report_uninitialized_variables_1/boolean_mask/Where"
  op: "Where"
  input: "report_uninitialized_variables_1/boolean_mask/Reshape_1"
  device: "/device:CPU:0"
  attr {
    key: "T"
    value {
      type: DT_BOOL
    }
  }
  attr {
    key: "_output_shapes"
    value {
      list {
        shape {
          dim {
            size: -1
          }
          dim {
            size: 1
          }
        }
      }
    }
  }
}
node {
  name: "report_uninitialized_variables_1/boolean_mask/Squeeze"
  op: "Squeeze"
  input: "report_uninitialized_variables_1/boolean_mask/Where"
  device: "/device:CPU:0"
  attr {
    key: "T"
    value {
      type: DT_INT64
    }
  }
  attr {
    key: "_output_shapes"
    value {
      list {
        shape {
          dim {
            size: -1
          }
        }
      }
    }
  }
  attr {
    key: "squeeze_dims"
    value {
      list {
        i: 1
      }
    }
  }
}
node {
  name: "report_uninitialized_variables_1/boolean_mask/GatherV2/axis"
  op: "Const"
  device: "/device:CPU:0"
  attr {
    key: "_output_shapes"
    value {
      list {
        shape {
        }
      }
    }
  }
  attr {
    key: "dtype"
    value {
      type: DT_INT32
    }
  }
  attr {
    key: "value"
    value {
      tensor {
        dtype: DT_INT32
        tensor_shape {
        }
        int_val: 0
      }
    }
  }
}
node {
  name: "report_uninitialized_variables_1/boolean_mask/GatherV2"
  op: "GatherV2"
  input: "report_uninitialized_variables_1/boolean_mask/Reshape"
  input: "report_uninitialized_variables_1/boolean_mask/Squeeze"
  input: "report_uninitialized_variables_1/boolean_mask/GatherV2/axis"
  device: "/device:CPU:0"
  attr {
    key: "Taxis"
    value {
      type: DT_INT32
    }
  }
  attr {
    key: "Tindices"
    value {
      type: DT_INT64
    }
  }
  attr {
    key: "Tparams"
    value {
      type: DT_STRING
    }
  }
  attr {
    key: "_output_shapes"
    value {
      list {
        shape {
          dim {
            size: -1
          }
        }
      }
    }
  }
}
node {
  name: "report_uninitialized_resources_1/Const"
  op: "Const"
  device: "/device:CPU:0"
  attr {
    key: "_output_shapes"
    value {
      list {
        shape {
          dim {
          }
        }
      }
    }
  }
  attr {
    key: "dtype"
    value {
      type: DT_STRING
    }
  }
  attr {
    key: "value"
    value {
      tensor {
        dtype: DT_STRING
        tensor_shape {
          dim {
          }
        }
      }
    }
  }
}
node {
  name: "concat_1/axis"
  op: "Const"
  attr {
    key: "_output_shapes"
    value {
      list {
        shape {
        }
      }
    }
  }
  attr {
    key: "dtype"
    value {
      type: DT_INT32
    }
  }
  attr {
    key: "value"
    value {
      tensor {
        dtype: DT_INT32
        tensor_shape {
        }
        int_val: 0
      }
    }
  }
}
node {
  name: "concat_1"
  op: "ConcatV2"
  input: "report_uninitialized_variables_1/boolean_mask/GatherV2"
  input: "report_uninitialized_resources_1/Const"
  input: "concat_1/axis"
  attr {
    key: "N"
    value {
      i: 2
    }
  }
  attr {
    key: "T"
    value {
      type: DT_STRING
    }
  }
  attr {
    key: "Tidx"
    value {
      type: DT_INT32
    }
  }
  attr {
    key: "_output_shapes"
    value {
      list {
        shape {
          dim {
            size: -1
          }
        }
      }
    }
  }
}
node {
  name: "init_2"
  op: "NoOp"
}
node {
  name: "init_all_tables"
  op: "NoOp"
}
node {
  name: "init_3"
  op: "NoOp"
}
node {
  name: "group_deps_1"
  op: "NoOp"
  input: "^init_2"
  input: "^init_3"
  input: "^init_all_tables"
}
node {
  name: "Merge/MergeSummary"
  op: "MergeSummary"
  input: "loss"
  attr {
    key: "N"
    value {
      i: 1
    }
  }
  attr {
    key: "_output_shapes"
    value {
      list {
        shape {
        }
      }
    }
  }
}
node {
  name: "save/filename/input"
  op: "Const"
  attr {
    key: "_output_shapes"
    value {
      list {
        shape {
        }
      }
    }
  }
  attr {
    key: "dtype"
    value {
      type: DT_STRING
    }
  }
  attr {
    key: "value"
    value {
      tensor {
        dtype: DT_STRING
        tensor_shape {
        }
        string_val: "model"
      }
    }
  }
}
node {
  name: "save/filename"
  op: "PlaceholderWithDefault"
  input: "save/filename/input"
  attr {
    key: "_output_shapes"
    value {
      list {
        shape {
        }
      }
    }
  }
  attr {
    key: "dtype"
    value {
      type: DT_STRING
    }
  }
  attr {
    key: "shape"
    value {
      shape {
      }
    }
  }
}
node {
  name: "save/Const"
  op: "PlaceholderWithDefault"
  input: "save/filename"
  attr {
    key: "_output_shapes"
    value {
      list {
        shape {
        }
      }
    }
  }
  attr {
    key: "dtype"
    value {
      type: DT_STRING
    }
  }
  attr {
    key: "shape"
    value {
      shape {
      }
    }
  }
}
node {
  name: "save/StringJoin/inputs_1"
  op: "Const"
  attr {
    key: "_output_shapes"
    value {
      list {
        shape {
        }
      }
    }
  }
  attr {
    key: "dtype"
    value {
      type: DT_STRING
    }
  }
  attr {
    key: "value"
    value {
      tensor {
        dtype: DT_STRING
        tensor_shape {
        }
        string_val: "_temp_a1037c5b7c7f4ad7ba7b98d6bb7c6582/part"
      }
    }
  }
}
node {
  name: "save/StringJoin"
  op: "StringJoin"
  input: "save/Const"
  input: "save/StringJoin/inputs_1"
  attr {
    key: "N"
    value {
      i: 2
    }
  }
  attr {
    key: "_output_shapes"
    value {
      list {
        shape {
        }
      }
    }
  }
  attr {
    key: "separator"
    value {
      s: ""
    }
  }
}
node {
  name: "save/num_shards"
  op: "Const"
  attr {
    key: "_output_shapes"
    value {
      list {
        shape {
        }
      }
    }
  }
  attr {
    key: "dtype"
    value {
      type: DT_INT32
    }
  }
  attr {
    key: "value"
    value {
      tensor {
        dtype: DT_INT32
        tensor_shape {
        }
        int_val: 1
      }
    }
  }
}
node {
  name: "save/ShardedFilename/shard"
  op: "Const"
  device: "/device:CPU:0"
  attr {
    key: "_output_shapes"
    value {
      list {
        shape {
        }
      }
    }
  }
  attr {
    key: "dtype"
    value {
      type: DT_INT32
    }
  }
  attr {
    key: "value"
    value {
      tensor {
        dtype: DT_INT32
        tensor_shape {
        }
        int_val: 0
      }
    }
  }
}
node {
  name: "save/ShardedFilename"
  op: "ShardedFilename"
  input: "save/StringJoin"
  input: "save/ShardedFilename/shard"
  input: "save/num_shards"
  device: "/device:CPU:0"
  attr {
    key: "_output_shapes"
    value {
      list {
        shape {
        }
      }
    }
  }
}
node {
  name: "save/SaveV2/tensor_names"
  op: "Const"
  device: "/device:CPU:0"
  attr {
    key: "_output_shapes"
    value {
      list {
        shape {
          dim {
            size: 4
          }
        }
      }
    }
  }
  attr {
    key: "dtype"
    value {
      type: DT_STRING
    }
  }
  attr {
    key: "value"
    value {
      tensor {
        dtype: DT_STRING
        tensor_shape {
          dim {
            size: 4
          }
        }
        string_val: "baseline/bias"
        string_val: "baseline/bias/Ftrl"
        string_val: "baseline/bias/Ftrl_1"
        string_val: "global_step"
      }
    }
  }
}
node {
  name: "save/SaveV2/shape_and_slices"
  op: "Const"
  device: "/device:CPU:0"
  attr {
    key: "_output_shapes"
    value {
      list {
        shape {
          dim {
            size: 4
          }
        }
      }
    }
  }
  attr {
    key: "dtype"
    value {
      type: DT_STRING
    }
  }
  attr {
    key: "value"
    value {
      tensor {
        dtype: DT_STRING
        tensor_shape {
          dim {
            size: 4
          }
        }
        string_val: ""
        string_val: ""
        string_val: ""
        string_val: ""
      }
    }
  }
}
node {
  name: "save/SaveV2"
  op: "SaveV2"
  input: "save/ShardedFilename"
  input: "save/SaveV2/tensor_names"
  input: "save/SaveV2/shape_and_slices"
  input: "baseline/bias/Read/ReadVariableOp"
  input: "baseline/bias/Ftrl/Read/ReadVariableOp"
  input: "baseline/bias/Ftrl_1/Read/ReadVariableOp"
  input: "global_step/Read/ReadVariableOp"
  device: "/device:CPU:0"
  attr {
    key: "dtypes"
    value {
      list {
        type: DT_FLOAT
        type: DT_FLOAT
        type: DT_FLOAT
        type: DT_INT64
      }
    }
  }
}
node {
  name: "save/control_dependency"
  op: "Identity"
  input: "save/ShardedFilename"
  input: "^save/SaveV2"
  device: "/device:CPU:0"
  attr {
    key: "T"
    value {
      type: DT_STRING
    }
  }
  attr {
    key: "_class"
    value {
      list {
        s: "loc:@save/ShardedFilename"
      }
    }
  }
  attr {
    key: "_output_shapes"
    value {
      list {
        shape {
        }
      }
    }
  }
}
node {
  name: "save/MergeV2Checkpoints/checkpoint_prefixes"
  op: "Pack"
  input: "save/ShardedFilename"
  input: "^save/control_dependency"
  device: "/device:CPU:0"
  attr {
    key: "N"
    value {
      i: 1
    }
  }
  attr {
    key: "T"
    value {
      type: DT_STRING
    }
  }
  attr {
    key: "_output_shapes"
    value {
      list {
        shape {
          dim {
            size: 1
          }
        }
      }
    }
  }
  attr {
    key: "axis"
    value {
      i: 0
    }
  }
}
node {
  name: "save/MergeV2Checkpoints"
  op: "MergeV2Checkpoints"
  input: "save/MergeV2Checkpoints/checkpoint_prefixes"
  input: "save/Const"
  device: "/device:CPU:0"
  attr {
    key: "delete_old_dirs"
    value {
      b: true
    }
  }
}
node {
  name: "save/Identity"
  op: "Identity"
  input: "save/Const"
  input: "^save/MergeV2Checkpoints"
  input: "^save/control_dependency"
  device: "/device:CPU:0"
  attr {
    key: "T"
    value {
      type: DT_STRING
    }
  }
  attr {
    key: "_output_shapes"
    value {
      list {
        shape {
        }
      }
    }
  }
}
node {
  name: "save/RestoreV2/tensor_names"
  op: "Const"
  device: "/device:CPU:0"
  attr {
    key: "_output_shapes"
    value {
      list {
        shape {
          dim {
            size: 4
          }
        }
      }
    }
  }
  attr {
    key: "dtype"
    value {
      type: DT_STRING
    }
  }
  attr {
    key: "value"
    value {
      tensor {
        dtype: DT_STRING
        tensor_shape {
          dim {
            size: 4
          }
        }
        string_val: "baseline/bias"
        string_val: "baseline/bias/Ftrl"
        string_val: "baseline/bias/Ftrl_1"
        string_val: "global_step"
      }
    }
  }
}
node {
  name: "save/RestoreV2/shape_and_slices"
  op: "Const"
  device: "/device:CPU:0"
  attr {
    key: "_output_shapes"
    value {
      list {
        shape {
          dim {
            size: 4
          }
        }
      }
    }
  }
  attr {
    key: "dtype"
    value {
      type: DT_STRING
    }
  }
  attr {
    key: "value"
    value {
      tensor {
        dtype: DT_STRING
        tensor_shape {
          dim {
            size: 4
          }
        }
        string_val: ""
        string_val: ""
        string_val: ""
        string_val: ""
      }
    }
  }
}
node {
  name: "save/RestoreV2"
  op: "RestoreV2"
  input: "save/Const"
  input: "save/RestoreV2/tensor_names"
  input: "save/RestoreV2/shape_and_slices"
  device: "/device:CPU:0"
  attr {
    key: "_output_shapes"
    value {
      list {
        shape {
          unknown_rank: true
        }
        shape {
          unknown_rank: true
        }
        shape {
          unknown_rank: true
        }
        shape {
          unknown_rank: true
        }
      }
    }
  }
  attr {
    key: "dtypes"
    value {
      list {
        type: DT_FLOAT
        type: DT_FLOAT
        type: DT_FLOAT
        type: DT_INT64
      }
    }
  }
}
node {
  name: "save/Identity_1"
  op: "Identity"
  input: "save/RestoreV2"
  attr {
    key: "T"
    value {
      type: DT_FLOAT
    }
  }
  attr {
    key: "_output_shapes"
    value {
      list {
        shape {
          unknown_rank: true
        }
      }
    }
  }
}
node {
  name: "save/AssignVariableOp"
  op: "AssignVariableOp"
  input: "baseline/bias"
  input: "save/Identity_1"
  attr {
    key: "dtype"
    value {
      type: DT_FLOAT
    }
  }
}
node {
  name: "save/Identity_2"
  op: "Identity"
  input: "save/RestoreV2:1"
  attr {
    key: "T"
    value {
      type: DT_FLOAT
    }
  }
  attr {
    key: "_output_shapes"
    value {
      list {
        shape {
          unknown_rank: true
        }
      }
    }
  }
}
node {
  name: "save/AssignVariableOp_1"
  op: "AssignVariableOp"
  input: "baseline/bias/Ftrl"
  input: "save/Identity_2"
  attr {
    key: "dtype"
    value {
      type: DT_FLOAT
    }
  }
}
node {
  name: "save/Identity_3"
  op: "Identity"
  input: "save/RestoreV2:2"
  attr {
    key: "T"
    value {
      type: DT_FLOAT
    }
  }
  attr {
    key: "_output_shapes"
    value {
      list {
        shape {
          unknown_rank: true
        }
      }
    }
  }
}
node {
  name: "save/AssignVariableOp_2"
  op: "AssignVariableOp"
  input: "baseline/bias/Ftrl_1"
  input: "save/Identity_3"
  attr {
    key: "dtype"
    value {
      type: DT_FLOAT
    }
  }
}
node {
  name: "save/Identity_4"
  op: "Identity"
  input: "save/RestoreV2:3"
  attr {
    key: "T"
    value {
      type: DT_INT64
    }
  }
  attr {
    key: "_output_shapes"
    value {
      list {
        shape {
          unknown_rank: true
        }
      }
    }
  }
}
node {
  name: "save/AssignVariableOp_3"
  op: "AssignVariableOp"
  input: "global_step"
  input: "save/Identity_4"
  attr {
    key: "dtype"
    value {
      type: DT_INT64
    }
  }
}
node {
  name: "save/restore_shard"
  op: "NoOp"
  input: "^save/AssignVariableOp"
  input: "^save/AssignVariableOp_1"
  input: "^save/AssignVariableOp_2"
  input: "^save/AssignVariableOp_3"
}
node {
  name: "save/restore_all"
  op: "NoOp"
  input: "^save/restore_shard"
}
versions {
  producer: 27
}
