node {
  name: "global_step/Initializer/zeros"
  op: "Const"
  attr {
    key: "_class"
    value {
      list {
        s: "loc:@global_step"
      }
    }
  }
  attr {
    key: "_output_shapes"
    value {
      list {
        shape {
        }
      }
    }
  }
  attr {
    key: "dtype"
    value {
      type: DT_INT64
    }
  }
  attr {
    key: "value"
    value {
      tensor {
        dtype: DT_INT64
        tensor_shape {
        }
        int64_val: 0
      }
    }
  }
}
node {
  name: "global_step"
  op: "VarHandleOp"
  attr {
    key: "_class"
    value {
      list {
        s: "loc:@global_step"
      }
    }
  }
  attr {
    key: "_output_shapes"
    value {
      list {
        shape {
        }
      }
    }
  }
  attr {
    key: "container"
    value {
      s: ""
    }
  }
  attr {
    key: "dtype"
    value {
      type: DT_INT64
    }
  }
  attr {
    key: "shape"
    value {
      shape {
      }
    }
  }
  attr {
    key: "shared_name"
    value {
      s: "global_step"
    }
  }
}
node {
  name: "global_step/IsInitialized/VarIsInitializedOp"
  op: "VarIsInitializedOp"
  input: "global_step"
  attr {
    key: "_output_shapes"
    value {
      list {
        shape {
        }
      }
    }
  }
}
node {
  name: "global_step/Assign"
  op: "AssignVariableOp"
  input: "global_step"
  input: "global_step/Initializer/zeros"
  attr {
    key: "_class"
    value {
      list {
        s: "loc:@global_step"
      }
    }
  }
  attr {
    key: "dtype"
    value {
      type: DT_INT64
    }
  }
}
node {
  name: "global_step/Read/ReadVariableOp"
  op: "ReadVariableOp"
  input: "global_step"
  attr {
    key: "_class"
    value {
      list {
        s: "loc:@global_step"
      }
    }
  }
  attr {
    key: "_output_shapes"
    value {
      list {
        shape {
        }
      }
    }
  }
  attr {
    key: "dtype"
    value {
      type: DT_INT64
    }
  }
}
node {
  name: "global_step/VarIsInitializedOp"
  op: "VarIsInitializedOp"
  input: "global_step"
  attr {
    key: "_output_shapes"
    value {
      list {
        shape {
        }
      }
    }
  }
}
node {
  name: "global_step/cond/Switch"
  op: "Switch"
  input: "global_step/VarIsInitializedOp"
  input: "global_step/VarIsInitializedOp"
  attr {
    key: "T"
    value {
      type: DT_BOOL
    }
  }
  attr {
    key: "_output_shapes"
    value {
      list {
        shape {
        }
        shape {
        }
      }
    }
  }
}
node {
  name: "global_step/cond/switch_t"
  op: "Identity"
  input: "global_step/cond/Switch:1"
  attr {
    key: "T"
    value {
      type: DT_BOOL
    }
  }
  attr {
    key: "_output_shapes"
    value {
      list {
        shape {
        }
      }
    }
  }
}
node {
  name: "global_step/cond/switch_f"
  op: "Identity"
  input: "global_step/cond/Switch"
  attr {
    key: "T"
    value {
      type: DT_BOOL
    }
  }
  attr {
    key: "_output_shapes"
    value {
      list {
        shape {
        }
      }
    }
  }
}
node {
  name: "global_step/cond/pred_id"
  op: "Identity"
  input: "global_step/VarIsInitializedOp"
  attr {
    key: "T"
    value {
      type: DT_BOOL
    }
  }
  attr {
    key: "_output_shapes"
    value {
      list {
        shape {
        }
      }
    }
  }
}
node {
  name: "global_step/cond/Read/ReadVariableOp"
  op: "ReadVariableOp"
  input: "global_step/cond/Read/ReadVariableOp/Switch:1"
  attr {
    key: "_output_shapes"
    value {
      list {
        shape {
        }
      }
    }
  }
  attr {
    key: "dtype"
    value {
      type: DT_INT64
    }
  }
}
node {
  name: "global_step/cond/Read/ReadVariableOp/Switch"
  op: "Switch"
  input: "global_step"
  input: "global_step/cond/pred_id"
  attr {
    key: "T"
    value {
      type: DT_RESOURCE
    }
  }
  attr {
    key: "_class"
    value {
      list {
        s: "loc:@global_step"
      }
    }
  }
  attr {
    key: "_output_shapes"
    value {
      list {
        shape {
        }
        shape {
        }
      }
    }
  }
}
node {
  name: "global_step/cond/Identity"
  op: "Identity"
  input: "global_step/cond/Read/ReadVariableOp"
  attr {
    key: "T"
    value {
      type: DT_INT64
    }
  }
  attr {
    key: "_output_shapes"
    value {
      list {
        shape {
        }
      }
    }
  }
}
node {
  name: "global_step/cond/Switch_1"
  op: "Switch"
  input: "global_step/Initializer/zeros"
  input: "global_step/cond/pred_id"
  attr {
    key: "T"
    value {
      type: DT_INT64
    }
  }
  attr {
    key: "_class"
    value {
      list {
        s: "loc:@global_step"
      }
    }
  }
  attr {
    key: "_output_shapes"
    value {
      list {
        shape {
        }
        shape {
        }
      }
    }
  }
}
node {
  name: "global_step/cond/Merge"
  op: "Merge"
  input: "global_step/cond/Switch_1"
  input: "global_step/cond/Identity"
  attr {
    key: "N"
    value {
      i: 2
    }
  }
  attr {
    key: "T"
    value {
      type: DT_INT64
    }
  }
  attr {
    key: "_output_shapes"
    value {
      list {
        shape {
        }
        shape {
        }
      }
    }
  }
}
node {
  name: "global_step/add/y"
  op: "Const"
  attr {
    key: "_output_shapes"
    value {
      list {
        shape {
        }
      }
    }
  }
  attr {
    key: "dtype"
    value {
      type: DT_INT64
    }
  }
  attr {
    key: "value"
    value {
      tensor {
        dtype: DT_INT64
        tensor_shape {
        }
        int64_val: 0
      }
    }
  }
}
node {
  name: "global_step/add"
  op: "Add"
  input: "global_step/cond/Merge"
  input: "global_step/add/y"
  attr {
    key: "T"
    value {
      type: DT_INT64
    }
  }
  attr {
    key: "_output_shapes"
    value {
      list {
        shape {
        }
      }
    }
  }
}
node {
  name: "tensors/component_0"
  op: "Const"
  device: "/device:CPU:0"
  attr {
    key: "_output_shapes"
    value {
      list {
        shape {
          dim {
            size: 627
          }
        }
      }
    }
  }
  attr {
    key: "dtype"
    value {
      type: DT_DOUBLE
    }
  }
  attr {
    key: "value"
    value {
      tensor {
        dtype: DT_DOUBLE
        tensor_shape {
          dim {
            size: 627
          }
        }
        tensor_content: "…"
      }
    }
  }
}
node {
  name: "tensors/component_1"
  op: "Const"
  device: "/device:CPU:0"
  attr {
    key: "_output_shapes"
    value {
      list {
        shape {
          dim {
            size: 627
          }
        }
      }
    }
  }
  attr {
    key: "dtype"
    value {
      type: DT_STRING
    }
  }
  attr {
    key: "value"
    value {
      tensor {
        dtype: DT_STRING
        tensor_shape {
          dim {
            size: 627
          }
        }
        string_val: "n"
        string_val: "n"
        string_val: "y"
        string_val: "n"
        string_val: "y"
        string_val: "n"
        string_val: "n"
        string_val: "n"
        string_val: "n"
        string_val: "y"
        string_val: "n"
        string_val: "y"
        string_val: "n"
        string_val: "y"
        string_val: "n"
        string_val: "y"
        string_val: "y"
        string_val: "y"
        string_val: "n"
        string_val: "y"
        string_val: "n"
        string_val: "y"
        string_val: "y"
        string_val: "y"
        string_val: "n"
        string_val: "y"
        string_val: "y"
        string_val: "n"
        string_val: "n"
        string_val: "y"
        string_val: "n"
        string_val: "n"
        string_val: "n"
        string_val: "y"
        string_val: "n"
        string_val: "y"
        string_val: "n"
        string_val: "n"
        string_val: "n"
        string_val: "n"
        string_val: "n"
        string_val: "n"
        string_val: "n"
        string_val: "y"
        string_val: "y"
        string_val: "y"
        string_val: "n"
        string_val: "y"
        string_val: "y"
        string_val: "n"
        string_val: "n"
        string_val: "n"
        string_val: "y"
        string_val: "n"
        string_val: "n"
        string_val: "y"
        string_val: "y"
        string_val: "y"
        string_val: "y"
        string_val: "y"
        string_val: "y"
        string_val: "n"
        string_val: "y"
        string_val: "y"
        string_val: "y"
        string_val: "y"
        string_val: "y"
        string_val: "n"
        string_val: "y"
        string_val: "n"
        string_val: "y"
        string_val: "n"
        string_val: "y"
        string_val: "y"
        string_val: "y"
        string_val: "n"
        string_val: "n"
        string_val: "n"
        string_val: "y"
        string_val: "y"
        string_val: "n"
        string_val: "y"
        string_val: "n"
        string_val: "y"
        string_val: "y"
        string_val: "n"
        string_val: "y"
        string_val: "n"
        string_val: "y"
        string_val: "y"
        string_val: "y"
        string_val: "y"
        string_val: "n"
        string_val: "n"
        string_val: "y"
        string_val: "n"
        string_val: "y"
        string_val: "y"
        string_val: "y"
        string_val: "y"
        string_val: "y"
        string_val: "n"
        string_val: "y"
        string_val: "n"
        string_val: "n"
        string_val: "y"
        string_val: "y"
        string_val: "n"
        string_val: "y"
        string_val: "y"
        string_val: "y"
        string_val: "n"
        string_val: "y"
        string_val: "y"
        string_val: "n"
        string_val: "y"
        string_val: "n"
        string_val: "y"
        string_val: "y"
        string_val: "n"
        string_val: "n"
        string_val: "y"
        string_val: "y"
        string_val: "n"
        string_val: "n"
        string_val: "y"
        string_val: "n"
        string_val: "n"
        string_val: "n"
        string_val: "y"
        string_val: "y"
        string_val: "y"
        string_val: "n"
        string_val: "y"
        string_val: "n"
        string_val: "n"
        string_val: "n"
        string_val: "y"
        string_val: "y"
        string_val: "y"
        string_val: "n"
        string_val: "n"
        string_val: "y"
        string_val: "y"
        string_val: "y"
        string_val: "y"
        string_val: "y"
        string_val: "y"
        string_val: "n"
        string_val: "y"
        string_val: "n"
        string_val: "n"
        string_val: "y"
        string_val: "y"
        string_val: "y"
        string_val: "y"
        string_val: "y"
        string_val: "n"
        string_val: "n"
        string_val: "y"
        string_val: "n"
        string_val: "y"
        string_val: "y"
        string_val: "y"
        string_val: "y"
        string_val: "y"
        string_val: "y"
        string_val: "y"
        string_val: "n"
        string_val: "n"
        string_val: "y"
        string_val: "y"
        string_val: "y"
        string_val: "n"
        string_val: "y"
        string_val: "y"
        string_val: "n"
        string_val: "n"
        string_val: "y"
        string_val: "y"
        string_val: "n"
        string_val: "n"
        string_val: "y"
        string_val: "n"
        string_val: "n"
        string_val: "n"
        string_val: "y"
        string_val: "y"
        string_val: "n"
        string_val: "y"
        string_val: "n"
        string_val: "y"
        string_val: "y"
        string_val: "y"
        string_val: "n"
        string_val: "n"
        string_val: "n"
        string_val: "y"
        string_val: "y"
        string_val: "y"
        string_val: "n"
        string_val: "n"
        string_val: "y"
        string_val: "n"
        string_val: "y"
        string_val: "y"
        string_val: "n"
        string_val: "n"
        string_val: "y"
        string_val: "y"
        string_val: "y"
        string_val: "y"
        string_val: "y"
        string_val: "y"
        string_val: "y"
        string_val: "n"
        string_val: "y"
        string_val: "y"
        string_val: "y"
        string_val: "y"
        string_val: "y"
        string_val: "n"
        string_val: "n"
        string_val: "y"
        string_val: "y"
        string_val: "n"
        string_val: "n"
        string_val: "y"
        string_val: "n"
        string_val: "n"
        string_val: "n"
        string_val: "n"
        string_val: "y"
        string_val: "y"
        string_val: "n"
        string_val: "n"
        string_val: "y"
        string_val: "y"
        string_val: "n"
        string_val: "n"
        string_val: "n"
        string_val: "n"
        string_val: "y"
        string_val: "n"
        string_val: "y"
        string_val: "y"
        string_val: "y"
        string_val: "y"
        string_val: "y"
        string_val: "y"
        string_val: "y"
        string_val: "n"
        string_val: "n"
        string_val: "n"
        string_val: "y"
        string_val: "y"
        string_val: "n"
        string_val: "y"
        string_val: "y"
        string_val: "y"
        string_val: "n"
        string_val: "n"
        string_val: "n"
        string_val: "y"
        string_val: "n"
        string_val: "n"
        string_val: "y"
        string_val: "y"
        string_val: "y"
        string_val: "n"
        string_val: "y"
        string_val: "n"
        string_val: "n"
        string_val: "y"
        string_val: "y"
        string_val: "y"
        string_val: "y"
        string_val: "y"
        string_val: "n"
        string_val: "y"
        string_val: "y"
        string_val: "n"
        string_val: "y"
        string_val: "n"
        string_val: "n"
        string_val: "y"
        string_val: "y"
        string_val: "y"
        string_val: "y"
        string_val: "y"
        string_val: "y"
        string_val: "n"
        string_val: "n"
        string_val: "n"
        string_val: "y"
        string_val: "n"
        string_val: "y"
        string_val: "y"
        string_val: "y"
        string_val: "y"
        string_val: "y"
        string_val: "n"
        string_val: "n"
        string_val: "y"
        string_val: "y"
        string_val: "y"
        string_val: "n"
        string_val: "y"
        string_val: "y"
        string_val: "y"
        string_val: "y"
        string_val: "n"
        string_val: "n"
        string_val: "y"
        string_val: "n"
        string_val: "n"
        string_val: "n"
        string_val: "n"
        string_val: "y"
        string_val: "n"
        string_val: "y"
        string_val: "y"
        string_val: "y"
        string_val: "y"
        string_val: "n"
        string_val: "y"
        string_val: "n"
        string_val: "y"
        string_val: "n"
        string_val: "y"
        string_val: "y"
        string_val: "n"
        string_val: "y"
        string_val: "y"
        string_val: "y"
        string_val: "y"
        string_val: "y"
        string_val: "y"
        string_val: "y"
        string_val: "n"
        string_val: "y"
        string_val: "n"
        string_val: "y"
        string_val: "y"
        string_val: "n"
        string_val: "n"
        string_val: "n"
        string_val: "n"
        string_val: "y"
        string_val: "y"
        string_val: "n"
        string_val: "n"
        string_val: "n"
        string_val: "y"
        string_val: "n"
        string_val: "n"
        string_val: "y"
        string_val: "y"
        string_val: "n"
        string_val: "y"
        string_val: "y"
        string_val: "y"
        string_val: "n"
        string_val: "n"
        string_val: "y"
        string_val: "y"
        string_val: "n"
        string_val: "y"
        string_val: "y"
        string_val: "y"
        string_val: "n"
        string_val: "y"
        string_val: "y"
        string_val: "y"
        string_val: "n"
        string_val: "y"
        string_val: "y"
        string_val: "y"
        string_val: "y"
        string_val: "n"
        string_val: "n"
        string_val: "n"
        string_val: "n"
        string_val: "y"
        string_val: "n"
        string_val: "y"
        string_val: "y"
        string_val: "n"
        string_val: "n"
        string_val: "n"
        string_val: "n"
        string_val: "n"
        string_val: "n"
        string_val: "y"
        string_val: "n"
        string_val: "n"
        string_val: "y"
        string_val: "y"
        string_val: "y"
        string_val: "n"
        string_val: "y"
        string_val: "n"
        string_val: "n"
        string_val: "y"
        string_val: "y"
        string_val: "y"
        string_val: "n"
        string_val: "y"
        string_val: "n"
        string_val: "y"
        string_val: "y"
        string_val: "n"
        string_val: "y"
        string_val: "y"
        string_val: "y"
        string_val: "n"
        string_val: "y"
        string_val: "y"
        string_val: "n"
        string_val: "y"
        string_val: "y"
        string_val: "n"
        string_val: "y"
        string_val: "n"
        string_val: "n"
        string_val: "n"
        string_val: "y"
        string_val: "y"
        string_val: "y"
        string_val: "n"
        string_val: "y"
        string_val: "n"
        string_val: "y"
        string_val: "y"
        string_val: "n"
        string_val: "y"
        string_val: "n"
        string_val: "y"
        string_val: "n"
        string_val: "y"
        string_val: "n"
        string_val: "n"
        string_val: "y"
        string_val: "n"
        string_val: "y"
        string_val: "y"
        string_val: "y"
        string_val: "y"
        string_val: "y"
        string_val: "y"
        string_val: "y"
        string_val: "y"
        string_val: "n"
        string_val: "y"
        string_val: "y"
        string_val: "n"
        string_val: "n"
        string_val: "y"
        string_val: "y"
        string_val: "n"
        string_val: "n"
        string_val: "y"
        string_val: "y"
        string_val: "y"
        string_val: "n"
        string_val: "y"
        string_val: "n"
        string_val: "y"
        string_val: "n"
        string_val: "n"
        string_val: "y"
        string_val: "y"
        string_val: "n"
        string_val: "y"
        string_val: "y"
        string_val: "y"
        string_val: "n"
        string_val: "n"
        string_val: "y"
        string_val: "y"
        string_val: "y"
        string_val: "y"
        string_val: "n"
        string_val: "y"
        string_val: "y"
        string_val: "n"
        string_val: "n"
        string_val: "y"
        string_val: "y"
        string_val: "n"
        string_val: "n"
        string_val: "n"
        string_val: "y"
        string_val: "y"
        string_val: "y"
        string_val: "n"
        string_val: "y"
        string_val: "y"
        string_val: "y"
        string_val: "y"
        string_val: "n"
        string_val: "y"
        string_val: "y"
        string_val: "n"
        string_val: "y"
        string_val: "y"
        string_val: "y"
        string_val: "y"
        string_val: "y"
        string_val: "y"
        string_val: "n"
        string_val: "y"
        string_val: "n"
        string_val: "n"
        string_val: "n"
        string_val: "n"
        string_val: "y"
        string_val: "y"
        string_val: "y"
        string_val: "y"
        string_val: "y"
        string_val: "y"
        string_val: "y"
        string_val: "y"
        string_val: "n"
        string_val: "n"
        string_val: "n"
        string_val: "n"
        string_val: "n"
        string_val: "n"
        string_val: "y"
        string_val: "y"
        string_val: "n"
        string_val: "y"
        string_val: "y"
        string_val: "y"
        string_val: "y"
        string_val: "y"
        string_val: "n"
        string_val: "y"
        string_val: "n"
        string_val: "y"
        string_val: "y"
        string_val: "y"
        string_val: "y"
        string_val: "y"
        string_val: "y"
        string_val: "n"
        string_val: "y"
        string_val: "n"
        string_val: "y"
        string_val: "n"
        string_val: "y"
        string_val: "y"
        string_val: "y"
        string_val: "n"
        string_val: "y"
        string_val: "y"
        string_val: "y"
        string_val: "y"
        string_val: "y"
        string_val: "y"
        string_val: "n"
        string_val: "y"
        string_val: "n"
        string_val: "n"
        string_val: "y"
        string_val: "y"
        string_val: "y"
        string_val: "n"
        string_val: "y"
        string_val: "y"
        string_val: "y"
        string_val: "y"
        string_val: "y"
        string_val: "y"
        string_val: "n"
        string_val: "n"
        string_val: "n"
        string_val: "y"
        string_val: "n"
        string_val: "y"
        string_val: "y"
        string_val: "y"
        string_val: "n"
        string_val: "y"
        string_val: "y"
        string_val: "y"
        string_val: "n"
        string_val: "y"
        string_val: "y"
        string_val: "y"
        string_val: "y"
        string_val: "y"
        string_val: "y"
        string_val: "y"
        string_val: "n"
        string_val: "y"
        string_val: "n"
        string_val: "n"
        string_val: "n"
        string_val: "n"
        string_val: "n"
        string_val: "n"
        string_val: "y"
        string_val: "n"
        string_val: "n"
        string_val: "y"
        string_val: "y"
        string_val: "n"
        string_val: "y"
        string_val: "n"
        string_val: "y"
        string_val: "n"
        string_val: "y"
        string_val: "y"
        string_val: "n"
        string_val: "y"
        string_val: "y"
        string_val: "y"
        string_val: "y"
        string_val: "y"
        string_val: "y"
        string_val: "y"
        string_val: "y"
        string_val: "n"
        string_val: "y"
      }
    }
  }
}
node {
  name: "tensors/component_2"
  op: "Const"
  device: "/device:CPU:0"
  attr {
    key: "_output_shapes"
    value {
      list {
        shape {
          dim {
            size: 627
          }
        }
      }
    }
  }
  attr {
    key: "dtype"
    value {
      type: DT_STRING
    }
  }
  attr {
    key: "value"
    value {
      tensor {
        dtype: DT_STRING
        tensor_shape {
          dim {
            size: 627
          }
        }
        string_val: "Third"
        string_val: "First"
        string_val: "Third"
        string_val: "First"
        string_val: "Third"
        string_val: "Third"
        string_val: "Third"
        string_val: "Second"
        string_val: "Third"
        string_val: "Third"
        string_val: "Third"
        string_val: "Third"
        string_val: "Third"
        string_val: "Second"
        string_val: "Third"
        string_val: "Third"
        string_val: "Second"
        string_val: "First"
        string_val: "Third"
        string_val: "Third"
        string_val: "First"
        string_val: "Third"
        string_val: "Third"
        string_val: "First"
        string_val: "First"
        string_val: "Third"
        string_val: "Second"
        string_val: "First"
        string_val: "First"
        string_val: "Third"
        string_val: "Third"
        string_val: "Third"
        string_val: "Second"
        string_val: "Third"
        string_val: "Second"
        string_val: "Third"
        string_val: "Third"
        string_val: "Third"
        string_val: "Third"
        string_val: "Third"
        string_val: "First"
        string_val: "Second"
        string_val: "First"
        string_val: "First"
        string_val: "Second"
        string_val: "Third"
        string_val: "Third"
        string_val: "Third"
        string_val: "First"
        string_val: "First"
        string_val: "Third"
        string_val: "Third"
        string_val: "Third"
        string_val: "Third"
        string_val: "Third"
        string_val: "Second"
        string_val: "Second"
        string_val: "Third"
        string_val: "Third"
        string_val: "Third"
        string_val: "Third"
        string_val: "Second"
        string_val: "Third"
        string_val: "Third"
        string_val: "Third"
        string_val: "Third"
        string_val: "First"
        string_val: "Third"
        string_val: "Third"
        string_val: "First"
        string_val: "Third"
        string_val: "First"
        string_val: "Third"
        string_val: "Third"
        string_val: "First"
        string_val: "First"
        string_val: "Second"
        string_val: "Second"
        string_val: "Third"
        string_val: "Third"
        string_val: "First"
        string_val: "Third"
        string_val: "Third"
        string_val: "Third"
        string_val: "Third"
        string_val: "Third"
        string_val: "First"
        string_val: "Third"
        string_val: "Third"
        string_val: "Third"
        string_val: "Third"
        string_val: "Third"
        string_val: "Second"
        string_val: "First"
        string_val: "Third"
        string_val: "Second"
        string_val: "Second"
        string_val: "Third"
        string_val: "Third"
        string_val: "Third"
        string_val: "Third"
        string_val: "Third"
        string_val: "Second"
        string_val: "First"
        string_val: "First"
        string_val: "Third"
        string_val: "First"
        string_val: "Third"
        string_val: "Third"
        string_val: "Third"
        string_val: "Second"
        string_val: "Third"
        string_val: "Second"
        string_val: "Third"
        string_val: "Third"
        string_val: "Third"
        string_val: "First"
        string_val: "Third"
        string_val: "Third"
        string_val: "Third"
        string_val: "Third"
        string_val: "Third"
        string_val: "Third"
        string_val: "Third"
        string_val: "First"
        string_val: "Third"
        string_val: "Third"
        string_val: "Third"
        string_val: "Third"
        string_val: "First"
        string_val: "Second"
        string_val: "Third"
        string_val: "Third"
        string_val: "Second"
        string_val: "Third"
        string_val: "Third"
        string_val: "Third"
        string_val: "First"
        string_val: "Third"
        string_val: "Second"
        string_val: "Third"
        string_val: "Second"
        string_val: "First"
        string_val: "First"
        string_val: "Third"
        string_val: "Third"
        string_val: "Second"
        string_val: "Third"
        string_val: "Third"
        string_val: "Third"
        string_val: "Third"
        string_val: "Third"
        string_val: "Third"
        string_val: "Third"
        string_val: "First"
        string_val: "Second"
        string_val: "Third"
        string_val: "Third"
        string_val: "First"
        string_val: "Third"
        string_val: "Second"
        string_val: "Second"
        string_val: "Third"
        string_val: "Third"
        string_val: "Third"
        string_val: "Second"
        string_val: "Third"
        string_val: "Second"
        string_val: "Third"
        string_val: "First"
        string_val: "Third"
        string_val: "Second"
        string_val: "Third"
        string_val: "Second"
        string_val: "Second"
        string_val: "Second"
        string_val: "Third"
        string_val: "Third"
        string_val: "Third"
        string_val: "Third"
        string_val: "First"
        string_val: "Second"
        string_val: "Third"
        string_val: "Third"
        string_val: "Third"
        string_val: "Third"
        string_val: "First"
        string_val: "First"
        string_val: "Second"
        string_val: "Third"
        string_val: "Third"
        string_val: "First"
        string_val: "Third"
        string_val: "Second"
        string_val: "Third"
        string_val: "Third"
        string_val: "First"
        string_val: "First"
        string_val: "First"
        string_val: "Third"
        string_val: "Second"
        string_val: "First"
        string_val: "Third"
        string_val: "First"
        string_val: "Third"
        string_val: "Second"
        string_val: "Third"
        string_val: "Third"
        string_val: "Third"
        string_val: "Third"
        string_val: "First"
        string_val: "First"
        string_val: "Second"
        string_val: "Third"
        string_val: "First"
        string_val: "First"
        string_val: "Third"
        string_val: "Third"
        string_val: "Second"
        string_val: "Third"
        string_val: "First"
        string_val: "First"
        string_val: "Second"
        string_val: "First"
        string_val: "First"
        string_val: "First"
        string_val: "Second"
        string_val: "Third"
        string_val: "Second"
        string_val: "Second"
        string_val: "First"
        string_val: "First"
        string_val: "Third"
        string_val: "Third"
        string_val: "Second"
        string_val: "Third"
        string_val: "First"
        string_val: "Third"
        string_val: "Third"
        string_val: "Third"
        string_val: "First"
        string_val: "First"
        string_val: "Third"
        string_val: "First"
        string_val: "Third"
        string_val: "First"
        string_val: "Second"
        string_val: "Second"
        string_val: "Second"
        string_val: "Second"
        string_val: "Second"
        string_val: "Third"
        string_val: "Third"
        string_val: "Third"
        string_val: "Third"
        string_val: "Third"
        string_val: "First"
        string_val: "Second"
        string_val: "Third"
        string_val: "Third"
        string_val: "Third"
        string_val: "Second"
        string_val: "Third"
        string_val: "Third"
        string_val: "Third"
        string_val: "First"
        string_val: "Third"
        string_val: "Third"
        string_val: "First"
        string_val: "Third"
        string_val: "Third"
        string_val: "First"
        string_val: "First"
        string_val: "Third"
        string_val: "First"
        string_val: "Third"
        string_val: "Third"
        string_val: "Second"
        string_val: "Third"
        string_val: "Third"
        string_val: "Second"
        string_val: "First"
        string_val: "Third"
        string_val: "First"
        string_val: "Third"
        string_val: "Third"
        string_val: "Third"
        string_val: "Second"
        string_val: "Second"
        string_val: "Third"
        string_val: "Third"
        string_val: "Third"
        string_val: "Second"
        string_val: "Second"
        string_val: "Third"
        string_val: "Third"
        string_val: "Third"
        string_val: "Third"
        string_val: "Second"
        string_val: "Third"
        string_val: "Third"
        string_val: "Second"
        string_val: "Second"
        string_val: "Second"
        string_val: "Third"
        string_val: "Third"
        string_val: "Third"
        string_val: "Second"
        string_val: "Third"
        string_val: "Third"
        string_val: "First"
        string_val: "Third"
        string_val: "Second"
        string_val: "Third"
        string_val: "First"
        string_val: "First"
        string_val: "Second"
        string_val: "First"
        string_val: "Second"
        string_val: "Second"
        string_val: "Third"
        string_val: "Second"
        string_val: "Third"
        string_val: "First"
        string_val: "Third"
        string_val: "First"
        string_val: "Second"
        string_val: "First"
        string_val: "First"
        string_val: "Third"
        string_val: "First"
        string_val: "First"
        string_val: "First"
        string_val: "Third"
        string_val: "First"
        string_val: "Third"
        string_val: "Third"
        string_val: "First"
        string_val: "Third"
        string_val: "Third"
        string_val: "Third"
        string_val: "Second"
        string_val: "Second"
        string_val: "First"
        string_val: "Second"
        string_val: "Third"
        string_val: "Third"
        string_val: "Third"
        string_val: "Second"
        string_val: "Third"
        string_val: "First"
        string_val: "Third"
        string_val: "First"
        string_val: "First"
        string_val: "Third"
        string_val: "Third"
        string_val: "First"
        string_val: "Third"
        string_val: "First"
        string_val: "Third"
        string_val: "Third"
        string_val: "Third"
        string_val: "First"
        string_val: "Second"
        string_val: "First"
        string_val: "Third"
        string_val: "First"
        string_val: "Third"
        string_val: "First"
        string_val: "Second"
        string_val: "Second"
        string_val: "Third"
        string_val: "First"
        string_val: "Third"
        string_val: "First"
        string_val: "Third"
        string_val: "Third"
        string_val: "Second"
        string_val: "First"
        string_val: "Second"
        string_val: "Second"
        string_val: "Third"
        string_val: "Third"
        string_val: "Third"
        string_val: "Second"
        string_val: "First"
        string_val: "First"
        string_val: "First"
        string_val: "First"
        string_val: "Third"
        string_val: "Third"
        string_val: "First"
        string_val: "Second"
        string_val: "Second"
        string_val: "Third"
        string_val: "First"
        string_val: "Second"
        string_val: "Third"
        string_val: "Third"
        string_val: "First"
        string_val: "First"
        string_val: "First"
        string_val: "Third"
        string_val: "Third"
        string_val: "Third"
        string_val: "Third"
        string_val: "Third"
        string_val: "Third"
        string_val: "Third"
        string_val: "Third"
        string_val: "Second"
        string_val: "First"
        string_val: "First"
        string_val: "Third"
        string_val: "Second"
        string_val: "Second"
        string_val: "First"
        string_val: "Second"
        string_val: "First"
        string_val: "Third"
        string_val: "Third"
        string_val: "First"
        string_val: "Third"
        string_val: "Third"
        string_val: "Second"
        string_val: "Third"
        string_val: "Second"
        string_val: "Third"
        string_val: "Third"
        string_val: "First"
        string_val: "First"
        string_val: "Third"
        string_val: "Third"
        string_val: "First"
        string_val: "Second"
        string_val: "First"
        string_val: "Third"
        string_val: "Third"
        string_val: "Third"
        string_val: "Third"
        string_val: "Second"
        string_val: "Third"
        string_val: "Second"
        string_val: "Third"
        string_val: "First"
        string_val: "Second"
        string_val: "First"
        string_val: "Third"
        string_val: "Third"
        string_val: "First"
        string_val: "Third"
        string_val: "First"
        string_val: "Third"
        string_val: "Second"
        string_val: "Third"
        string_val: "Third"
        string_val: "Third"
        string_val: "Third"
        string_val: "Third"
        string_val: "Third"
        string_val: "First"
        string_val: "Third"
        string_val: "Third"
        string_val: "Third"
        string_val: "Second"
        string_val: "Third"
        string_val: "Second"
        string_val: "Third"
        string_val: "Third"
        string_val: "First"
        string_val: "First"
        string_val: "Third"
        string_val: "Third"
        string_val: "Second"
        string_val: "Third"
        string_val: "Third"
        string_val: "Second"
        string_val: "First"
        string_val: "Second"
        string_val: "Second"
        string_val: "Third"
        string_val: "Third"
        string_val: "First"
        string_val: "First"
        string_val: "Third"
        string_val: "Third"
        string_val: "Second"
        string_val: "Third"
        string_val: "Third"
        string_val: "First"
        string_val: "First"
        string_val: "Third"
        string_val: "Third"
        string_val: "First"
        string_val: "Third"
        string_val: "First"
        string_val: "First"
        string_val: "Third"
        string_val: "Second"
        string_val: "First"
        string_val: "Third"
        string_val: "First"
        string_val: "First"
        string_val: "First"
        string_val: "Third"
        string_val: "Third"
        string_val: "First"
        string_val: "Second"
        string_val: "Third"
        string_val: "Third"
        string_val: "Second"
        string_val: "Second"
        string_val: "First"
        string_val: "Second"
        string_val: "Second"
        string_val: "Third"
        string_val: "First"
        string_val: "Third"
        string_val: "Second"
        string_val: "Second"
        string_val: "Second"
        string_val: "First"
        string_val: "Third"
        string_val: "Third"
        string_val: "First"
        string_val: "First"
        string_val: "Third"
        string_val: "First"
        string_val: "Second"
        string_val: "Third"
        string_val: "Third"
        string_val: "Third"
        string_val: "Second"
        string_val: "Third"
        string_val: "Third"
        string_val: "Third"
        string_val: "Third"
        string_val: "Third"
        string_val: "First"
        string_val: "First"
        string_val: "Third"
        string_val: "Third"
        string_val: "Third"
        string_val: "Second"
        string_val: "Third"
        string_val: "Third"
        string_val: "Third"
        string_val: "First"
        string_val: "First"
        string_val: "Third"
        string_val: "Third"
        string_val: "Third"
        string_val: "First"
        string_val: "Third"
        string_val: "Second"
        string_val: "Third"
        string_val: "First"
        string_val: "Third"
        string_val: "Second"
        string_val: "First"
        string_val: "Third"
        string_val: "Third"
        string_val: "Third"
        string_val: "Second"
        string_val: "Second"
        string_val: "First"
        string_val: "Third"
        string_val: "First"
        string_val: "Second"
        string_val: "First"
        string_val: "Third"
        string_val: "Third"
        string_val: "Second"
        string_val: "Third"
        string_val: "First"
        string_val: "Third"
        string_val: "Second"
        string_val: "Third"
        string_val: "First"
        string_val: "Third"
        string_val: "Third"
        string_val: "Third"
        string_val: "Third"
        string_val: "Third"
        string_val: "Third"
        string_val: "Third"
        string_val: "Third"
        string_val: "Third"
        string_val: "First"
        string_val: "Third"
        string_val: "Third"
        string_val: "First"
        string_val: "Second"
        string_val: "First"
        string_val: "Third"
        string_val: "Third"
        string_val: "Third"
        string_val: "Third"
        string_val: "Second"
        string_val: "First"
        string_val: "Third"
        string_val: "First"
        string_val: "Third"
        string_val: "First"
        string_val: "First"
        string_val: "Third"
        string_val: "Third"
        string_val: "Second"
        string_val: "Second"
        string_val: "Second"
        string_val: "First"
        string_val: "Third"
        string_val: "Third"
        string_val: "First"
        string_val: "First"
        string_val: "Third"
        string_val: "Second"
        string_val: "Third"
        string_val: "Third"
        string_val: "Third"
        string_val: "Third"
        string_val: "Third"
        string_val: "Second"
        string_val: "Third"
        string_val: "First"
        string_val: "Third"
        string_val: "Third"
      }
    }
  }
}
node {
  name: "tensors/component_3"
  op: "Const"
  device: "/device:CPU:0"
  attr {
    key: "_output_shapes"
    value {
      list {
        shape {
          dim {
            size: 627
          }
        }
      }
    }
  }
  attr {
    key: "dtype"
    value {
      type: DT_STRING
    }
  }
  attr {
    key: "value"
    value {
      tensor {
        dtype: DT_STRING
        tensor_shape {
          dim {
            size: 627
          }
        }
        string_val: "unknown"
        string_val: "C"
        string_val: "unknown"
        string_val: "C"
        string_val: "unknown"
        string_val: "unknown"
        string_val: "unknown"
        string_val: "unknown"
        string_val: "G"
        string_val: "unknown"
        string_val: "unknown"
        string_val: "unknown"
        string_val: "unknown"
        string_val: "unknown"
        string_val: "unknown"
        string_val: "unknown"
        string_val: "unknown"
        string_val: "A"
        string_val: "unknown"
        string_val: "unknown"
        string_val: "C"
        string_val: "unknown"
        string_val: "unknown"
        string_val: "unknown"
        string_val: "B"
        string_val: "unknown"
        string_val: "unknown"
        string_val: "unknown"
        string_val: "unknown"
        string_val: "unknown"
        string_val: "unknown"
        string_val: "unknown"
        string_val: "unknown"
        string_val: "unknown"
        string_val: "unknown"
        string_val: "unknown"
        string_val: "unknown"
        string_val: "unknown"
        string_val: "unknown"
        string_val: "unknown"
        string_val: "D"
        string_val: "unknown"
        string_val: "B"
        string_val: "C"
        string_val: "unknown"
        string_val: "unknown"
        string_val: "unknown"
        string_val: "unknown"
        string_val: "B"
        string_val: "C"
        string_val: "unknown"
        string_val: "unknown"
        string_val: "unknown"
        string_val: "unknown"
        string_val: "unknown"
        string_val: "unknown"
        string_val: "unknown"
        string_val: "unknown"
        string_val: "F"
        string_val: "unknown"
        string_val: "unknown"
        string_val: "unknown"
        string_val: "unknown"
        string_val: "unknown"
        string_val: "unknown"
        string_val: "unknown"
        string_val: "unknown"
        string_val: "unknown"
        string_val: "unknown"
        string_val: "C"
        string_val: "unknown"
        string_val: "E"
        string_val: "unknown"
        string_val: "unknown"
        string_val: "A"
        string_val: "D"
        string_val: "unknown"
        string_val: "unknown"
        string_val: "unknown"
        string_val: "unknown"
        string_val: "D"
        string_val: "unknown"
        string_val: "unknown"
        string_val: "unknown"
        string_val: "unknown"
        string_val: "unknown"
        string_val: "C"
        string_val: "unknown"
        string_val: "unknown"
        string_val: "unknown"
        string_val: "unknown"
        string_val: "unknown"
        string_val: "unknown"
        string_val: "B"
        string_val: "unknown"
        string_val: "unknown"
        string_val: "E"
        string_val: "unknown"
        string_val: "unknown"
        string_val: "unknown"
        string_val: "unknown"
        string_val: "unknown"
        string_val: "unknown"
        string_val: "D"
        string_val: "C"
        string_val: "unknown"
        string_val: "B"
        string_val: "unknown"
        string_val: "unknown"
        string_val: "unknown"
        string_val: "unknown"
        string_val: "unknown"
        string_val: "unknown"
        string_val: "unknown"
        string_val: "unknown"
        string_val: "unknown"
        string_val: "unknown"
        string_val: "unknown"
        string_val: "unknown"
        string_val: "unknown"
        string_val: "unknown"
        string_val: "unknown"
        string_val: "unknown"
        string_val: "unknown"
        string_val: "E"
        string_val: "unknown"
        string_val: "unknown"
        string_val: "unknown"
        string_val: "unknown"
        string_val: "C"
        string_val: "unknown"
        string_val: "unknown"
        string_val: "unknown"
        string_val: "unknown"
        string_val: "unknown"
        string_val: "unknown"
        string_val: "unknown"
        string_val: "unknown"
        string_val: "unknown"
        string_val: "unknown"
        string_val: "unknown"
        string_val: "F"
        string_val: "B"
        string_val: "B"
        string_val: "unknown"
        string_val: "unknown"
        string_val: "unknown"
        string_val: "unknown"
        string_val: "unknown"
        string_val: "unknown"
        string_val: "G"
        string_val: "unknown"
        string_val: "unknown"
        string_val: "unknown"
        string_val: "A"
        string_val: "unknown"
        string_val: "unknown"
        string_val: "unknown"
        string_val: "D"
        string_val: "unknown"
        string_val: "unknown"
        string_val: "unknown"
        string_val: "unknown"
        string_val: "unknown"
        string_val: "unknown"
        string_val: "unknown"
        string_val: "unknown"
        string_val: "unknown"
        string_val: "unknown"
        string_val: "C"
        string_val: "unknown"
        string_val: "unknown"
        string_val: "unknown"
        string_val: "unknown"
        string_val: "unknown"
        string_val: "unknown"
        string_val: "unknown"
        string_val: "unknown"
        string_val: "unknown"
        string_val: "unknown"
        string_val: "C"
        string_val: "unknown"
        string_val: "unknown"
        string_val: "G"
        string_val: "unknown"
        string_val: "unknown"
        string_val: "unknown"
        string_val: "unknown"
        string_val: "unknown"
        string_val: "unknown"
        string_val: "unknown"
        string_val: "B"
        string_val: "unknown"
        string_val: "unknown"
        string_val: "unknown"
        string_val: "unknown"
        string_val: "C"
        string_val: "C"
        string_val: "unknown"
        string_val: "unknown"
        string_val: "unknown"
        string_val: "C"
        string_val: "unknown"
        string_val: "D"
        string_val: "unknown"
        string_val: "unknown"
        string_val: "unknown"
        string_val: "unknown"
        string_val: "unknown"
        string_val: "unknown"
        string_val: "A"
        string_val: "unknown"
        string_val: "D"
        string_val: "unknown"
        string_val: "C"
        string_val: "B"
        string_val: "unknown"
        string_val: "unknown"
        string_val: "E"
        string_val: "unknown"
        string_val: "unknown"
        string_val: "C"
        string_val: "unknown"
        string_val: "E"
        string_val: "C"
        string_val: "B"
        string_val: "unknown"
        string_val: "unknown"
        string_val: "unknown"
        string_val: "unknown"
        string_val: "C"
        string_val: "E"
        string_val: "unknown"
        string_val: "unknown"
        string_val: "unknown"
        string_val: "unknown"
        string_val: "C"
        string_val: "unknown"
        string_val: "unknown"
        string_val: "unknown"
        string_val: "C"
        string_val: "unknown"
        string_val: "unknown"
        string_val: "C"
        string_val: "unknown"
        string_val: "unknown"
        string_val: "unknown"
        string_val: "unknown"
        string_val: "unknown"
        string_val: "F"
        string_val: "unknown"
        string_val: "unknown"
        string_val: "unknown"
        string_val: "unknown"
        string_val: "unknown"
        string_val: "unknown"
        string_val: "E"
        string_val: "unknown"
        string_val: "unknown"
        string_val: "unknown"
        string_val: "unknown"
        string_val: "unknown"
        string_val: "unknown"
        string_val: "unknown"
        string_val: "unknown"
        string_val: "D"
        string_val: "unknown"
        string_val: "unknown"
        string_val: "B"
        string_val: "unknown"
        string_val: "unknown"
        string_val: "unknown"
        string_val: "C"
        string_val: "unknown"
        string_val: "unknown"
        string_val: "unknown"
        string_val: "unknown"
        string_val: "unknown"
        string_val: "unknown"
        string_val: "unknown"
        string_val: "unknown"
        string_val: "B"
        string_val: "unknown"
        string_val: "D"
        string_val: "G"
        string_val: "unknown"
        string_val: "unknown"
        string_val: "unknown"
        string_val: "unknown"
        string_val: "unknown"
        string_val: "unknown"
        string_val: "unknown"
        string_val: "unknown"
        string_val: "unknown"
        string_val: "unknown"
        string_val: "unknown"
        string_val: "unknown"
        string_val: "unknown"
        string_val: "unknown"
        string_val: "unknown"
        string_val: "unknown"
        string_val: "unknown"
        string_val: "unknown"
        string_val: "unknown"
        string_val: "unknown"
        string_val: "unknown"
        string_val: "unknown"
        string_val: "unknown"
        string_val: "unknown"
        string_val: "E"
        string_val: "C"
        string_val: "unknown"
        string_val: "unknown"
        string_val: "unknown"
        string_val: "E"
        string_val: "B"
        string_val: "unknown"
        string_val: "C"
        string_val: "unknown"
        string_val: "unknown"
        string_val: "unknown"
        string_val: "unknown"
        string_val: "unknown"
        string_val: "unknown"
        string_val: "unknown"
        string_val: "C"
        string_val: "unknown"
        string_val: "C"
        string_val: "C"
        string_val: "unknown"
        string_val: "E"
        string_val: "D"
        string_val: "E"
        string_val: "unknown"
        string_val: "E"
        string_val: "unknown"
        string_val: "unknown"
        string_val: "unknown"
        string_val: "unknown"
        string_val: "unknown"
        string_val: "unknown"
        string_val: "unknown"
        string_val: "D"
        string_val: "A"
        string_val: "unknown"
        string_val: "unknown"
        string_val: "unknown"
        string_val: "unknown"
        string_val: "unknown"
        string_val: "unknown"
        string_val: "B"
        string_val: "unknown"
        string_val: "C"
        string_val: "B"
        string_val: "unknown"
        string_val: "unknown"
        string_val: "unknown"
        string_val: "unknown"
        string_val: "C"
        string_val: "unknown"
        string_val: "unknown"
        string_val: "unknown"
        string_val: "C"
        string_val: "unknown"
        string_val: "unknown"
        string_val: "unknown"
        string_val: "unknown"
        string_val: "unknown"
        string_val: "D"
        string_val: "F"
        string_val: "unknown"
        string_val: "unknown"
        string_val: "B"
        string_val: "unknown"
        string_val: "B"
        string_val: "unknown"
        string_val: "unknown"
        string_val: "unknown"
        string_val: "C"
        string_val: "unknown"
        string_val: "unknown"
        string_val: "unknown"
        string_val: "unknown"
        string_val: "unknown"
        string_val: "unknown"
        string_val: "B"
        string_val: "unknown"
        string_val: "B"
        string_val: "B"
        string_val: "unknown"
        string_val: "unknown"
        string_val: "C"
        string_val: "unknown"
        string_val: "unknown"
        string_val: "unknown"
        string_val: "C"
        string_val: "unknown"
        string_val: "unknown"
        string_val: "unknown"
        string_val: "A"
        string_val: "unknown"
        string_val: "E"
        string_val: "unknown"
        string_val: "unknown"
        string_val: "unknown"
        string_val: "unknown"
        string_val: "unknown"
        string_val: "unknown"
        string_val: "unknown"
        string_val: "unknown"
        string_val: "unknown"
        string_val: "C"
        string_val: "E"
        string_val: "unknown"
        string_val: "unknown"
        string_val: "unknown"
        string_val: "A"
        string_val: "unknown"
        string_val: "B"
        string_val: "unknown"
        string_val: "unknown"
        string_val: "D"
        string_val: "unknown"
        string_val: "unknown"
        string_val: "unknown"
        string_val: "unknown"
        string_val: "unknown"
        string_val: "unknown"
        string_val: "unknown"
        string_val: "A"
        string_val: "unknown"
        string_val: "unknown"
        string_val: "unknown"
        string_val: "unknown"
        string_val: "unknown"
        string_val: "C"
        string_val: "unknown"
        string_val: "unknown"
        string_val: "unknown"
        string_val: "unknown"
        string_val: "unknown"
        string_val: "unknown"
        string_val: "unknown"
        string_val: "unknown"
        string_val: "D"
        string_val: "unknown"
        string_val: "D"
        string_val: "unknown"
        string_val: "unknown"
        string_val: "A"
        string_val: "unknown"
        string_val: "B"
        string_val: "unknown"
        string_val: "unknown"
        string_val: "unknown"
        string_val: "unknown"
        string_val: "unknown"
        string_val: "unknown"
        string_val: "unknown"
        string_val: "unknown"
        string_val: "D"
        string_val: "unknown"
        string_val: "unknown"
        string_val: "unknown"
        string_val: "unknown"
        string_val: "unknown"
        string_val: "unknown"
        string_val: "unknown"
        string_val: "unknown"
        string_val: "unknown"
        string_val: "E"
        string_val: "unknown"
        string_val: "unknown"
        string_val: "unknown"
        string_val: "unknown"
        string_val: "unknown"
        string_val: "unknown"
        string_val: "B"
        string_val: "unknown"
        string_val: "unknown"
        string_val: "unknown"
        string_val: "unknown"
        string_val: "B"
        string_val: "D"
        string_val: "unknown"
        string_val: "unknown"
        string_val: "unknown"
        string_val: "unknown"
        string_val: "unknown"
        string_val: "B"
        string_val: "B"
        string_val: "unknown"
        string_val: "unknown"
        string_val: "unknown"
        string_val: "unknown"
        string_val: "C"
        string_val: "E"
        string_val: "unknown"
        string_val: "unknown"
        string_val: "unknown"
        string_val: "unknown"
        string_val: "C"
        string_val: "C"
        string_val: "C"
        string_val: "unknown"
        string_val: "F"
        string_val: "C"
        string_val: "E"
        string_val: "unknown"
        string_val: "unknown"
        string_val: "unknown"
        string_val: "unknown"
        string_val: "E"
        string_val: "unknown"
        string_val: "unknown"
        string_val: "unknown"
        string_val: "B"
        string_val: "unknown"
        string_val: "unknown"
        string_val: "unknown"
        string_val: "unknown"
        string_val: "B"
        string_val: "unknown"
        string_val: "unknown"
        string_val: "C"
        string_val: "B"
        string_val: "unknown"
        string_val: "B"
        string_val: "unknown"
        string_val: "E"
        string_val: "unknown"
        string_val: "unknown"
        string_val: "unknown"
        string_val: "unknown"
        string_val: "unknown"
        string_val: "unknown"
        string_val: "unknown"
        string_val: "unknown"
        string_val: "D"
        string_val: "unknown"
        string_val: "unknown"
        string_val: "unknown"
        string_val: "unknown"
        string_val: "E"
        string_val: "unknown"
        string_val: "F"
        string_val: "unknown"
        string_val: "B"
        string_val: "D"
        string_val: "unknown"
        string_val: "unknown"
        string_val: "unknown"
        string_val: "B"
        string_val: "unknown"
        string_val: "unknown"
        string_val: "unknown"
        string_val: "unknown"
        string_val: "unknown"
        string_val: "unknown"
        string_val: "D"
        string_val: "unknown"
        string_val: "unknown"
        string_val: "unknown"
        string_val: "unknown"
        string_val: "unknown"
        string_val: "B"
        string_val: "unknown"
        string_val: "A"
        string_val: "unknown"
        string_val: "E"
        string_val: "unknown"
        string_val: "unknown"
        string_val: "unknown"
        string_val: "unknown"
        string_val: "B"
        string_val: "unknown"
        string_val: "unknown"
        string_val: "unknown"
        string_val: "B"
        string_val: "unknown"
        string_val: "unknown"
        string_val: "unknown"
        string_val: "unknown"
        string_val: "unknown"
        string_val: "unknown"
        string_val: "unknown"
        string_val: "unknown"
        string_val: "unknown"
        string_val: "E"
        string_val: "unknown"
        string_val: "unknown"
        string_val: "C"
        string_val: "unknown"
        string_val: "unknown"
        string_val: "unknown"
        string_val: "unknown"
        string_val: "unknown"
        string_val: "unknown"
        string_val: "unknown"
        string_val: "C"
        string_val: "unknown"
        string_val: "D"
        string_val: "unknown"
        string_val: "unknown"
        string_val: "E"
        string_val: "unknown"
        string_val: "unknown"
        string_val: "unknown"
        string_val: "unknown"
        string_val: "unknown"
        string_val: "A"
        string_val: "unknown"
        string_val: "unknown"
        string_val: "D"
        string_val: "B"
        string_val: "unknown"
        string_val: "unknown"
        string_val: "unknown"
        string_val: "unknown"
        string_val: "unknown"
        string_val: "unknown"
        string_val: "unknown"
        string_val: "unknown"
        string_val: "unknown"
        string_val: "B"
        string_val: "unknown"
        string_val: "unknown"
      }
    }
  }
}
node {
  name: "tensors/component_4"
  op: "Const"
  device: "/device:CPU:0"
  attr {
    key: "_output_shapes"
    value {
      list {
        shape {
          dim {
            size: 627
          }
        }
      }
    }
  }
  attr {
    key: "dtype"
    value {
      type: DT_STRING
    }
  }
  attr {
    key: "value"
    value {
      tensor {
        dtype: DT_STRING
        tensor_shape {
          dim {
            size: 627
          }
        }
        string_val: "Southampton"
        string_val: "Cherbourg"
        string_val: "Southampton"
        string_val: "Southampton"
        string_val: "Queenstown"
        string_val: "Southampton"
        string_val: "Southampton"
        string_val: "Cherbourg"
        string_val: "Southampton"
        string_val: "Southampton"
        string_val: "Southampton"
        string_val: "Southampton"
        string_val: "Queenstown"
        string_val: "Southampton"
        string_val: "Southampton"
        string_val: "Cherbourg"
        string_val: "Southampton"
        string_val: "Southampton"
        string_val: "Southampton"
        string_val: "Cherbourg"
        string_val: "Southampton"
        string_val: "Queenstown"
        string_val: "Southampton"
        string_val: "Cherbourg"
        string_val: "Cherbourg"
        string_val: "Queenstown"
        string_val: "Southampton"
        string_val: "Cherbourg"
        string_val: "Southampton"
        string_val: "Cherbourg"
        string_val: "Cherbourg"
        string_val: "Southampton"
        string_val: "Southampton"
        string_val: "Cherbourg"
        string_val: "Cherbourg"
        string_val: "Southampton"
        string_val: "Queenstown"
        string_val: "Cherbourg"
        string_val: "Southampton"
        string_val: "Southampton"
        string_val: "Cherbourg"
        string_val: "Southampton"
        string_val: "Cherbourg"
        string_val: "Southampton"
        string_val: "Southampton"
        string_val: "Cherbourg"
        string_val: "Southampton"
        string_val: "Cherbourg"
        string_val: "unknown"
        string_val: "Southampton"
        string_val: "Southampton"
        string_val: "Cherbourg"
        string_val: "Southampton"
        string_val: "Southampton"
        string_val: "Southampton"
        string_val: "Southampton"
        string_val: "Southampton"
        string_val: "Southampton"
        string_val: "Southampton"
        string_val: "Southampton"
        string_val: "Southampton"
        string_val: "Southampton"
        string_val: "Southampton"
        string_val: "Southampton"
        string_val: "Southampton"
        string_val: "Queenstown"
        string_val: "Southampton"
        string_val: "Southampton"
        string_val: "Southampton"
        string_val: "Southampton"
        string_val: "Southampton"
        string_val: "Southampton"
        string_val: "Southampton"
        string_val: "Southampton"
        string_val: "Cherbourg"
        string_val: "Cherbourg"
        string_val: "Southampton"
        string_val: "Southampton"
        string_val: "Southampton"
        string_val: "Southampton"
        string_val: "Southampton"
        string_val: "Southampton"
        string_val: "Southampton"
        string_val: "Southampton"
        string_val: "Southampton"
        string_val: "Queenstown"
        string_val: "Southampton"
        string_val: "Cherbourg"
        string_val: "Southampton"
        string_val: "Cherbourg"
        string_val: "Southampton"
        string_val: "Queenstown"
        string_val: "Southampton"
        string_val: "Cherbourg"
        string_val: "Southampton"
        string_val: "Cherbourg"
        string_val: "Southampton"
        string_val: "Queenstown"
        string_val: "Southampton"
        string_val: "Southampton"
        string_val: "Southampton"
        string_val: "Southampton"
        string_val: "Cherbourg"
        string_val: "Southampton"
        string_val: "Southampton"
        string_val: "Southampton"
        string_val: "Cherbourg"
        string_val: "Cherbourg"
        string_val: "Southampton"
        string_val: "Queenstown"
        string_val: "Southampton"
        string_val: "Southampton"
        string_val: "Southampton"
        string_val: "Southampton"
        string_val: "Southampton"
        string_val: "Southampton"
        string_val: "Cherbourg"
        string_val: "Queenstown"
        string_val: "Southampton"
        string_val: "Southampton"
        string_val: "Southampton"
        string_val: "Southampton"
        string_val: "Southampton"
        string_val: "Southampton"
        string_val: "Southampton"
        string_val: "Southampton"
        string_val: "Queenstown"
        string_val: "Southampton"
        string_val: "Southampton"
        string_val: "Cherbourg"
        string_val: "Southampton"
        string_val: "Southampton"
        string_val: "Southampton"
        string_val: "Cherbourg"
        string_val: "Southampton"
        string_val: "Southampton"
        string_val: "Queenstown"
        string_val: "Southampton"
        string_val: "Southampton"
        string_val: "Southampton"
        string_val: "Southampton"
        string_val: "Southampton"
        string_val: "Cherbourg"
        string_val: "Cherbourg"
        string_val: "Queenstown"
        string_val: "Queenstown"
        string_val: "Southampton"
        string_val: "Southampton"
        string_val: "Southampton"
        string_val: "Southampton"
        string_val: "Southampton"
        string_val: "Southampton"
        string_val: "Cherbourg"
        string_val: "Queenstown"
        string_val: "Cherbourg"
        string_val: "Southampton"
        string_val: "Southampton"
        string_val: "Queenstown"
        string_val: "Cherbourg"
        string_val: "Southampton"
        string_val: "Southampton"
        string_val: "Southampton"
        string_val: "Southampton"
        string_val: "Southampton"
        string_val: "Southampton"
        string_val: "Southampton"
        string_val: "Southampton"
        string_val: "Southampton"
        string_val: "Southampton"
        string_val: "Southampton"
        string_val: "Southampton"
        string_val: "Southampton"
        string_val: "Southampton"
        string_val: "Southampton"
        string_val: "Southampton"
        string_val: "Southampton"
        string_val: "Cherbourg"
        string_val: "Queenstown"
        string_val: "Southampton"
        string_val: "Cherbourg"
        string_val: "Queenstown"
        string_val: "Southampton"
        string_val: "Southampton"
        string_val: "Southampton"
        string_val: "Southampton"
        string_val: "Southampton"
        string_val: "Cherbourg"
        string_val: "Cherbourg"
        string_val: "Southampton"
        string_val: "Queenstown"
        string_val: "Southampton"
        string_val: "Southampton"
        string_val: "Queenstown"
        string_val: "Southampton"
        string_val: "Southampton"
        string_val: "Southampton"
        string_val: "Southampton"
        string_val: "Southampton"
        string_val: "Southampton"
        string_val: "Southampton"
        string_val: "Southampton"
        string_val: "Cherbourg"
        string_val: "Queenstown"
        string_val: "Southampton"
        string_val: "Southampton"
        string_val: "Southampton"
        string_val: "Queenstown"
        string_val: "Southampton"
        string_val: "Southampton"
        string_val: "Southampton"
        string_val: "Southampton"
        string_val: "Southampton"
        string_val: "Cherbourg"
        string_val: "Southampton"
        string_val: "Southampton"
        string_val: "Cherbourg"
        string_val: "Queenstown"
        string_val: "Southampton"
        string_val: "Queenstown"
        string_val: "Southampton"
        string_val: "Cherbourg"
        string_val: "Cherbourg"
        string_val: "Cherbourg"
        string_val: "Cherbourg"
        string_val: "Cherbourg"
        string_val: "Cherbourg"
        string_val: "Southampton"
        string_val: "Southampton"
        string_val: "Southampton"
        string_val: "Southampton"
        string_val: "Southampton"
        string_val: "Cherbourg"
        string_val: "Southampton"
        string_val: "Southampton"
        string_val: "Southampton"
        string_val: "Southampton"
        string_val: "Cherbourg"
        string_val: "Southampton"
        string_val: "Southampton"
        string_val: "Queenstown"
        string_val: "Southampton"
        string_val: "Southampton"
        string_val: "Southampton"
        string_val: "Southampton"
        string_val: "Southampton"
        string_val: "Southampton"
        string_val: "Southampton"
        string_val: "Southampton"
        string_val: "Southampton"
        string_val: "Southampton"
        string_val: "Southampton"
        string_val: "Southampton"
        string_val: "Cherbourg"
        string_val: "Southampton"
        string_val: "Cherbourg"
        string_val: "Southampton"
        string_val: "Southampton"
        string_val: "Southampton"
        string_val: "Queenstown"
        string_val: "Queenstown"
        string_val: "Southampton"
        string_val: "Cherbourg"
        string_val: "Cherbourg"
        string_val: "Southampton"
        string_val: "Queenstown"
        string_val: "Cherbourg"
        string_val: "Cherbourg"
        string_val: "Queenstown"
        string_val: "Cherbourg"
        string_val: "Southampton"
        string_val: "Southampton"
        string_val: "Cherbourg"
        string_val: "Cherbourg"
        string_val: "Southampton"
        string_val: "Cherbourg"
        string_val: "Southampton"
        string_val: "Southampton"
        string_val: "Southampton"
        string_val: "Southampton"
        string_val: "Queenstown"
        string_val: "Cherbourg"
        string_val: "Southampton"
        string_val: "Southampton"
        string_val: "Cherbourg"
        string_val: "Southampton"
        string_val: "Southampton"
        string_val: "Southampton"
        string_val: "Southampton"
        string_val: "Southampton"
        string_val: "Southampton"
        string_val: "Southampton"
        string_val: "Southampton"
        string_val: "Southampton"
        string_val: "Southampton"
        string_val: "Southampton"
        string_val: "Southampton"
        string_val: "Southampton"
        string_val: "Queenstown"
        string_val: "Southampton"
        string_val: "Southampton"
        string_val: "Southampton"
        string_val: "Southampton"
        string_val: "Southampton"
        string_val: "Southampton"
        string_val: "Cherbourg"
        string_val: "Queenstown"
        string_val: "Southampton"
        string_val: "Southampton"
        string_val: "Queenstown"
        string_val: "Southampton"
        string_val: "Southampton"
        string_val: "Southampton"
        string_val: "Southampton"
        string_val: "Southampton"
        string_val: "Southampton"
        string_val: "Southampton"
        string_val: "Southampton"
        string_val: "Southampton"
        string_val: "Southampton"
        string_val: "Southampton"
        string_val: "Southampton"
        string_val: "Southampton"
        string_val: "Southampton"
        string_val: "Southampton"
        string_val: "Cherbourg"
        string_val: "Southampton"
        string_val: "Southampton"
        string_val: "Cherbourg"
        string_val: "Cherbourg"
        string_val: "Cherbourg"
        string_val: "Southampton"
        string_val: "Southampton"
        string_val: "Southampton"
        string_val: "Southampton"
        string_val: "Southampton"
        string_val: "Southampton"
        string_val: "Southampton"
        string_val: "Southampton"
        string_val: "Queenstown"
        string_val: "Cherbourg"
        string_val: "Southampton"
        string_val: "Southampton"
        string_val: "Cherbourg"
        string_val: "Southampton"
        string_val: "Southampton"
        string_val: "Southampton"
        string_val: "Southampton"
        string_val: "Southampton"
        string_val: "Southampton"
        string_val: "Southampton"
        string_val: "Cherbourg"
        string_val: "Southampton"
        string_val: "Southampton"
        string_val: "Cherbourg"
        string_val: "Southampton"
        string_val: "Southampton"
        string_val: "Cherbourg"
        string_val: "Southampton"
        string_val: "Southampton"
        string_val: "Southampton"
        string_val: "Queenstown"
        string_val: "Southampton"
        string_val: "Cherbourg"
        string_val: "Southampton"
        string_val: "Southampton"
        string_val: "Southampton"
        string_val: "Cherbourg"
        string_val: "Southampton"
        string_val: "Southampton"
        string_val: "Southampton"
        string_val: "Southampton"
        string_val: "Southampton"
        string_val: "Southampton"
        string_val: "Southampton"
        string_val: "Cherbourg"
        string_val: "Cherbourg"
        string_val: "Queenstown"
        string_val: "Southampton"
        string_val: "Southampton"
        string_val: "Southampton"
        string_val: "Southampton"
        string_val: "Cherbourg"
        string_val: "Cherbourg"
        string_val: "Southampton"
        string_val: "Southampton"
        string_val: "Southampton"
        string_val: "Cherbourg"
        string_val: "Cherbourg"
        string_val: "Southampton"
        string_val: "Southampton"
        string_val: "Southampton"
        string_val: "Cherbourg"
        string_val: "Southampton"
        string_val: "Cherbourg"
        string_val: "Southampton"
        string_val: "Cherbourg"
        string_val: "Southampton"
        string_val: "Queenstown"
        string_val: "Southampton"
        string_val: "Cherbourg"
        string_val: "Cherbourg"
        string_val: "Southampton"
        string_val: "Southampton"
        string_val: "Queenstown"
        string_val: "Southampton"
        string_val: "Southampton"
        string_val: "Southampton"
        string_val: "Southampton"
        string_val: "Southampton"
        string_val: "Southampton"
        string_val: "Southampton"
        string_val: "Southampton"
        string_val: "Southampton"
        string_val: "Southampton"
        string_val: "Southampton"
        string_val: "Southampton"
        string_val: "Cherbourg"
        string_val: "Southampton"
        string_val: "Cherbourg"
        string_val: "Southampton"
        string_val: "Southampton"
        string_val: "Cherbourg"
        string_val: "Southampton"
        string_val: "Queenstown"
        string_val: "Southampton"
        string_val: "Southampton"
        string_val: "Southampton"
        string_val: "Southampton"
        string_val: "Cherbourg"
        string_val: "Cherbourg"
        string_val: "Cherbourg"
        string_val: "Southampton"
        string_val: "Southampton"
        string_val: "Southampton"
        string_val: "Cherbourg"
        string_val: "Southampton"
        string_val: "Southampton"
        string_val: "Southampton"
        string_val: "Queenstown"
        string_val: "Southampton"
        string_val: "Southampton"
        string_val: "Southampton"
        string_val: "Southampton"
        string_val: "Cherbourg"
        string_val: "Southampton"
        string_val: "Queenstown"
        string_val: "Southampton"
        string_val: "Southampton"
        string_val: "Queenstown"
        string_val: "Southampton"
        string_val: "Southampton"
        string_val: "Cherbourg"
        string_val: "Southampton"
        string_val: "Southampton"
        string_val: "Southampton"
        string_val: "Southampton"
        string_val: "Southampton"
        string_val: "Southampton"
        string_val: "Southampton"
        string_val: "Cherbourg"
        string_val: "Cherbourg"
        string_val: "Southampton"
        string_val: "Southampton"
        string_val: "Southampton"
        string_val: "Southampton"
        string_val: "Southampton"
        string_val: "Southampton"
        string_val: "Southampton"
        string_val: "Queenstown"
        string_val: "Southampton"
        string_val: "Southampton"
        string_val: "Southampton"
        string_val: "Southampton"
        string_val: "Southampton"
        string_val: "Southampton"
        string_val: "Southampton"
        string_val: "Southampton"
        string_val: "Southampton"
        string_val: "Southampton"
        string_val: "Southampton"
        string_val: "Southampton"
        string_val: "Southampton"
        string_val: "Cherbourg"
        string_val: "Cherbourg"
        string_val: "Southampton"
        string_val: "Southampton"
        string_val: "Southampton"
        string_val: "Southampton"
        string_val: "Southampton"
        string_val: "Southampton"
        string_val: "Southampton"
        string_val: "Cherbourg"
        string_val: "Southampton"
        string_val: "Southampton"
        string_val: "Queenstown"
        string_val: "Cherbourg"
        string_val: "Southampton"
        string_val: "Queenstown"
        string_val: "Southampton"
        string_val: "Southampton"
        string_val: "Cherbourg"
        string_val: "Cherbourg"
        string_val: "Southampton"
        string_val: "Southampton"
        string_val: "Southampton"
        string_val: "Southampton"
        string_val: "Cherbourg"
        string_val: "Southampton"
        string_val: "Queenstown"
        string_val: "Southampton"
        string_val: "Southampton"
        string_val: "Southampton"
        string_val: "Southampton"
        string_val: "Southampton"
        string_val: "Southampton"
        string_val: "Southampton"
        string_val: "Southampton"
        string_val: "Cherbourg"
        string_val: "Southampton"
        string_val: "Southampton"
        string_val: "Southampton"
        string_val: "Cherbourg"
        string_val: "Southampton"
        string_val: "Southampton"
        string_val: "Southampton"
        string_val: "Cherbourg"
        string_val: "Southampton"
        string_val: "Southampton"
        string_val: "Southampton"
        string_val: "Southampton"
        string_val: "Southampton"
        string_val: "Southampton"
        string_val: "Southampton"
        string_val: "Southampton"
        string_val: "Southampton"
        string_val: "Southampton"
        string_val: "Southampton"
        string_val: "Cherbourg"
        string_val: "Southampton"
        string_val: "Cherbourg"
        string_val: "Queenstown"
        string_val: "Southampton"
        string_val: "Southampton"
        string_val: "Southampton"
        string_val: "Southampton"
        string_val: "Queenstown"
        string_val: "Southampton"
        string_val: "Southampton"
        string_val: "Southampton"
        string_val: "Southampton"
        string_val: "Southampton"
        string_val: "Southampton"
        string_val: "Cherbourg"
        string_val: "Queenstown"
        string_val: "Southampton"
        string_val: "Southampton"
        string_val: "Cherbourg"
        string_val: "Southampton"
        string_val: "Southampton"
        string_val: "Southampton"
        string_val: "Southampton"
        string_val: "Cherbourg"
        string_val: "Southampton"
        string_val: "Southampton"
        string_val: "Southampton"
        string_val: "Southampton"
        string_val: "Southampton"
        string_val: "Southampton"
        string_val: "Southampton"
        string_val: "Southampton"
        string_val: "Southampton"
        string_val: "Southampton"
        string_val: "Southampton"
        string_val: "Southampton"
        string_val: "Southampton"
        string_val: "Southampton"
        string_val: "Cherbourg"
        string_val: "Southampton"
        string_val: "Southampton"
        string_val: "Southampton"
        string_val: "Southampton"
        string_val: "Queenstown"
        string_val: "Southampton"
        string_val: "Queenstown"
        string_val: "Cherbourg"
        string_val: "Cherbourg"
        string_val: "Southampton"
        string_val: "Southampton"
        string_val: "Cherbourg"
        string_val: "Southampton"
        string_val: "Southampton"
        string_val: "Cherbourg"
        string_val: "Southampton"
        string_val: "Cherbourg"
        string_val: "Cherbourg"
        string_val: "Southampton"
        string_val: "Southampton"
        string_val: "Cherbourg"
        string_val: "Southampton"
        string_val: "Cherbourg"
        string_val: "Southampton"
        string_val: "Southampton"
        string_val: "Southampton"
        string_val: "Southampton"
        string_val: "Southampton"
        string_val: "Cherbourg"
        string_val: "Southampton"
        string_val: "Southampton"
        string_val: "Southampton"
        string_val: "Cherbourg"
        string_val: "Southampton"
        string_val: "Southampton"
        string_val: "Southampton"
        string_val: "Southampton"
        string_val: "Southampton"
        string_val: "Southampton"
        string_val: "Cherbourg"
        string_val: "Cherbourg"
        string_val: "Southampton"
        string_val: "Southampton"
        string_val: "Southampton"
        string_val: "Southampton"
        string_val: "Southampton"
        string_val: "Southampton"
        string_val: "Southampton"
        string_val: "Southampton"
        string_val: "Queenstown"
      }
    }
  }
}
node {
  name: "tensors/component_5"
  op: "Const"
  device: "/device:CPU:0"
  attr {
    key: "_output_shapes"
    value {
      list {
        shape {
          dim {
            size: 627
          }
        }
      }
    }
  }
  attr {
    key: "dtype"
    value {
      type: DT_DOUBLE
    }
  }
  attr {
    key: "value"
    value {
      tensor {
        dtype: DT_DOUBLE
        tensor_shape {
          dim {
            size: 627
          }
        }
        tensor_content: "…"
      }
    }
  }
}
node {
  name: "tensors/component_6"
  op: "Const"
  device: "/device:CPU:0"
  attr {
    key: "_output_shapes"
    value {
      list {
        shape {
          dim {
            size: 627
          }
        }
      }
    }
  }
  attr {
    key: "dtype"
    value {
      type: DT_INT64
    }
  }
  attr {
    key: "value"
    value {
      tensor {
        dtype: DT_INT64
        tensor_shape {
          dim {
            size: 627
          }
        }
        tensor_content: "…"
      }
    }
  }
}
node {
  name: "tensors/component_7"
  op: "Const"
  device: "/device:CPU:0"
  attr {
    key: "_output_shapes"
    value {
      list {
        shape {
          dim {
            size: 627
          }
        }
      }
    }
  }
  attr {
    key: "dtype"
    value {
      type: DT_INT64
    }
  }
  attr {
    key: "value"
    value {
      tensor {
        dtype: DT_INT64
        tensor_shape {
          dim {
            size: 627
          }
        }
        tensor_content: "…"
      }
    }
  }
}
node {
  name: "tensors/component_8"
  op: "Const"
  device: "/device:CPU:0"
  attr {
    key: "_output_shapes"
    value {
      list {
        shape {
          dim {
            size: 627
          }
        }
      }
    }
  }
  attr {
    key: "dtype"
    value {
      type: DT_STRING
    }
  }
  attr {
    key: "value"
    value {
      tensor {
        dtype: DT_STRING
        tensor_shape {
          dim {
            size: 627
          }
        }
        string_val: "male"
        string_val: "female"
        string_val: "female"
        string_val: "female"
        string_val: "male"
        string_val: "male"
        string_val: "female"
        string_val: "female"
        string_val: "female"
        string_val: "male"
        string_val: "male"
        string_val: "female"
        string_val: "male"
        string_val: "male"
        string_val: "female"
        string_val: "female"
        string_val: "male"
        string_val: "male"
        string_val: "female"
        string_val: "male"
        string_val: "male"
        string_val: "female"
        string_val: "male"
        string_val: "male"
        string_val: "female"
        string_val: "female"
        string_val: "male"
        string_val: "male"
        string_val: "male"
        string_val: "male"
        string_val: "female"
        string_val: "female"
        string_val: "female"
        string_val: "male"
        string_val: "female"
        string_val: "male"
        string_val: "male"
        string_val: "male"
        string_val: "female"
        string_val: "male"
        string_val: "female"
        string_val: "female"
        string_val: "male"
        string_val: "male"
        string_val: "female"
        string_val: "male"
        string_val: "male"
        string_val: "male"
        string_val: "female"
        string_val: "male"
        string_val: "male"
        string_val: "male"
        string_val: "male"
        string_val: "female"
        string_val: "male"
        string_val: "male"
        string_val: "male"
        string_val: "male"
        string_val: "male"
        string_val: "male"
        string_val: "male"
        string_val: "male"
        string_val: "female"
        string_val: "male"
        string_val: "male"
        string_val: "female"
        string_val: "male"
        string_val: "male"
        string_val: "male"
        string_val: "female"
        string_val: "male"
        string_val: "male"
        string_val: "male"
        string_val: "male"
        string_val: "male"
        string_val: "male"
        string_val: "female"
        string_val: "male"
        string_val: "female"
        string_val: "male"
        string_val: "male"
        string_val: "male"
        string_val: "male"
        string_val: "male"
        string_val: "male"
        string_val: "female"
        string_val: "male"
        string_val: "female"
        string_val: "male"
        string_val: "female"
        string_val: "male"
        string_val: "male"
        string_val: "male"
        string_val: "male"
        string_val: "male"
        string_val: "male"
        string_val: "female"
        string_val: "male"
        string_val: "male"
        string_val: "male"
        string_val: "male"
        string_val: "female"
        string_val: "male"
        string_val: "female"
        string_val: "male"
        string_val: "male"
        string_val: "male"
        string_val: "female"
        string_val: "female"
        string_val: "male"
        string_val: "male"
        string_val: "female"
        string_val: "male"
        string_val: "male"
        string_val: "male"
        string_val: "male"
        string_val: "male"
        string_val: "female"
        string_val: "male"
        string_val: "male"
        string_val: "male"
        string_val: "male"
        string_val: "male"
        string_val: "male"
        string_val: "female"
        string_val: "male"
        string_val: "male"
        string_val: "male"
        string_val: "male"
        string_val: "female"
        string_val: "male"
        string_val: "male"
        string_val: "female"
        string_val: "male"
        string_val: "male"
        string_val: "female"
        string_val: "female"
        string_val: "male"
        string_val: "male"
        string_val: "female"
        string_val: "female"
        string_val: "male"
        string_val: "female"
        string_val: "female"
        string_val: "male"
        string_val: "female"
        string_val: "female"
        string_val: "male"
        string_val: "male"
        string_val: "male"
        string_val: "female"
        string_val: "male"
        string_val: "male"
        string_val: "female"
        string_val: "male"
        string_val: "female"
        string_val: "male"
        string_val: "male"
        string_val: "female"
        string_val: "female"
        string_val: "male"
        string_val: "male"
        string_val: "male"
        string_val: "male"
        string_val: "male"
        string_val: "male"
        string_val: "male"
        string_val: "male"
        string_val: "female"
        string_val: "female"
        string_val: "male"
        string_val: "male"
        string_val: "female"
        string_val: "male"
        string_val: "male"
        string_val: "male"
        string_val: "female"
        string_val: "female"
        string_val: "male"
        string_val: "male"
        string_val: "male"
        string_val: "female"
        string_val: "male"
        string_val: "female"
        string_val: "male"
        string_val: "female"
        string_val: "female"
        string_val: "female"
        string_val: "female"
        string_val: "male"
        string_val: "male"
        string_val: "male"
        string_val: "female"
        string_val: "male"
        string_val: "male"
        string_val: "male"
        string_val: "female"
        string_val: "female"
        string_val: "male"
        string_val: "male"
        string_val: "female"
        string_val: "male"
        string_val: "female"
        string_val: "female"
        string_val: "female"
        string_val: "male"
        string_val: "male"
        string_val: "female"
        string_val: "male"
        string_val: "male"
        string_val: "male"
        string_val: "female"
        string_val: "male"
        string_val: "male"
        string_val: "male"
        string_val: "female"
        string_val: "female"
        string_val: "male"
        string_val: "female"
        string_val: "male"
        string_val: "female"
        string_val: "female"
        string_val: "male"
        string_val: "female"
        string_val: "female"
        string_val: "female"
        string_val: "female"
        string_val: "male"
        string_val: "male"
        string_val: "female"
        string_val: "female"
        string_val: "female"
        string_val: "male"
        string_val: "male"
        string_val: "female"
        string_val: "male"
        string_val: "female"
        string_val: "male"
        string_val: "female"
        string_val: "female"
        string_val: "male"
        string_val: "female"
        string_val: "male"
        string_val: "male"
        string_val: "male"
        string_val: "male"
        string_val: "male"
        string_val: "male"
        string_val: "male"
        string_val: "female"
        string_val: "female"
        string_val: "female"
        string_val: "male"
        string_val: "male"
        string_val: "male"
        string_val: "male"
        string_val: "female"
        string_val: "female"
        string_val: "female"
        string_val: "female"
        string_val: "male"
        string_val: "male"
        string_val: "female"
        string_val: "male"
        string_val: "male"
        string_val: "female"
        string_val: "female"
        string_val: "female"
        string_val: "female"
        string_val: "male"
        string_val: "male"
        string_val: "female"
        string_val: "male"
        string_val: "male"
        string_val: "female"
        string_val: "male"
        string_val: "male"
        string_val: "male"
        string_val: "male"
        string_val: "male"
        string_val: "female"
        string_val: "male"
        string_val: "male"
        string_val: "female"
        string_val: "female"
        string_val: "male"
        string_val: "female"
        string_val: "male"
        string_val: "male"
        string_val: "male"
        string_val: "male"
        string_val: "male"
        string_val: "male"
        string_val: "male"
        string_val: "male"
        string_val: "female"
        string_val: "male"
        string_val: "male"
        string_val: "male"
        string_val: "male"
        string_val: "female"
        string_val: "female"
        string_val: "female"
        string_val: "male"
        string_val: "male"
        string_val: "male"
        string_val: "male"
        string_val: "female"
        string_val: "male"
        string_val: "male"
        string_val: "male"
        string_val: "female"
        string_val: "female"
        string_val: "male"
        string_val: "male"
        string_val: "female"
        string_val: "female"
        string_val: "male"
        string_val: "male"
        string_val: "female"
        string_val: "male"
        string_val: "female"
        string_val: "male"
        string_val: "male"
        string_val: "female"
        string_val: "male"
        string_val: "male"
        string_val: "male"
        string_val: "male"
        string_val: "male"
        string_val: "male"
        string_val: "female"
        string_val: "male"
        string_val: "male"
        string_val: "male"
        string_val: "male"
        string_val: "male"
        string_val: "male"
        string_val: "male"
        string_val: "female"
        string_val: "male"
        string_val: "female"
        string_val: "female"
        string_val: "male"
        string_val: "male"
        string_val: "male"
        string_val: "female"
        string_val: "male"
        string_val: "male"
        string_val: "female"
        string_val: "male"
        string_val: "female"
        string_val: "female"
        string_val: "male"
        string_val: "male"
        string_val: "male"
        string_val: "male"
        string_val: "male"
        string_val: "female"
        string_val: "male"
        string_val: "female"
        string_val: "female"
        string_val: "male"
        string_val: "female"
        string_val: "male"
        string_val: "male"
        string_val: "female"
        string_val: "male"
        string_val: "male"
        string_val: "female"
        string_val: "female"
        string_val: "male"
        string_val: "female"
        string_val: "male"
        string_val: "female"
        string_val: "male"
        string_val: "male"
        string_val: "female"
        string_val: "male"
        string_val: "male"
        string_val: "female"
        string_val: "male"
        string_val: "female"
        string_val: "female"
        string_val: "female"
        string_val: "male"
        string_val: "female"
        string_val: "female"
        string_val: "female"
        string_val: "female"
        string_val: "female"
        string_val: "male"
        string_val: "female"
        string_val: "male"
        string_val: "male"
        string_val: "male"
        string_val: "male"
        string_val: "male"
        string_val: "female"
        string_val: "female"
        string_val: "male"
        string_val: "female"
        string_val: "female"
        string_val: "male"
        string_val: "male"
        string_val: "male"
        string_val: "male"
        string_val: "male"
        string_val: "female"
        string_val: "male"
        string_val: "male"
        string_val: "female"
        string_val: "male"
        string_val: "male"
        string_val: "female"
        string_val: "female"
        string_val: "male"
        string_val: "male"
        string_val: "male"
        string_val: "male"
        string_val: "male"
        string_val: "female"
        string_val: "male"
        string_val: "female"
        string_val: "male"
        string_val: "male"
        string_val: "female"
        string_val: "male"
        string_val: "male"
        string_val: "male"
        string_val: "male"
        string_val: "male"
        string_val: "male"
        string_val: "male"
        string_val: "female"
        string_val: "female"
        string_val: "female"
        string_val: "male"
        string_val: "female"
        string_val: "male"
        string_val: "female"
        string_val: "male"
        string_val: "male"
        string_val: "male"
        string_val: "male"
        string_val: "male"
        string_val: "female"
        string_val: "male"
        string_val: "male"
        string_val: "male"
        string_val: "male"
        string_val: "male"
        string_val: "female"
        string_val: "female"
        string_val: "male"
        string_val: "female"
        string_val: "male"
        string_val: "male"
        string_val: "male"
        string_val: "female"
        string_val: "male"
        string_val: "male"
        string_val: "female"
        string_val: "male"
        string_val: "female"
        string_val: "male"
        string_val: "male"
        string_val: "male"
        string_val: "female"
        string_val: "male"
        string_val: "male"
        string_val: "male"
        string_val: "male"
        string_val: "male"
        string_val: "male"
        string_val: "male"
        string_val: "female"
        string_val: "male"
        string_val: "male"
        string_val: "male"
        string_val: "male"
        string_val: "female"
        string_val: "male"
        string_val: "male"
        string_val: "male"
        string_val: "male"
        string_val: "male"
        string_val: "male"
        string_val: "male"
        string_val: "female"
        string_val: "male"
        string_val: "female"
        string_val: "male"
        string_val: "male"
        string_val: "female"
        string_val: "male"
        string_val: "male"
        string_val: "male"
        string_val: "male"
        string_val: "female"
        string_val: "male"
        string_val: "female"
        string_val: "male"
        string_val: "male"
        string_val: "male"
        string_val: "male"
        string_val: "female"
        string_val: "female"
        string_val: "male"
        string_val: "male"
        string_val: "female"
        string_val: "male"
        string_val: "male"
        string_val: "female"
        string_val: "male"
        string_val: "female"
        string_val: "female"
        string_val: "male"
        string_val: "male"
        string_val: "male"
        string_val: "male"
        string_val: "male"
        string_val: "male"
        string_val: "male"
        string_val: "male"
        string_val: "female"
        string_val: "male"
        string_val: "male"
        string_val: "female"
        string_val: "male"
        string_val: "male"
        string_val: "male"
        string_val: "female"
        string_val: "male"
        string_val: "male"
        string_val: "male"
        string_val: "male"
        string_val: "male"
        string_val: "female"
        string_val: "male"
        string_val: "male"
        string_val: "male"
        string_val: "male"
        string_val: "female"
        string_val: "male"
        string_val: "male"
        string_val: "female"
        string_val: "female"
        string_val: "male"
        string_val: "male"
        string_val: "male"
        string_val: "male"
        string_val: "male"
        string_val: "male"
        string_val: "male"
        string_val: "female"
        string_val: "male"
        string_val: "male"
        string_val: "male"
        string_val: "female"
        string_val: "female"
        string_val: "male"
        string_val: "female"
        string_val: "male"
        string_val: "female"
        string_val: "male"
        string_val: "male"
        string_val: "male"
        string_val: "male"
        string_val: "female"
        string_val: "male"
        string_val: "male"
        string_val: "male"
        string_val: "male"
        string_val: "male"
        string_val: "female"
        string_val: "male"
        string_val: "male"
        string_val: "female"
        string_val: "male"
        string_val: "male"
        string_val: "male"
        string_val: "male"
        string_val: "male"
        string_val: "female"
        string_val: "male"
        string_val: "male"
        string_val: "male"
        string_val: "female"
        string_val: "male"
        string_val: "male"
        string_val: "male"
        string_val: "male"
        string_val: "female"
        string_val: "male"
        string_val: "male"
        string_val: "male"
        string_val: "male"
        string_val: "male"
        string_val: "female"
        string_val: "male"
        string_val: "female"
        string_val: "female"
        string_val: "female"
        string_val: "male"
        string_val: "female"
        string_val: "male"
        string_val: "male"
        string_val: "female"
        string_val: "female"
        string_val: "male"
        string_val: "male"
        string_val: "male"
        string_val: "female"
        string_val: "male"
        string_val: "male"
        string_val: "female"
        string_val: "female"
        string_val: "male"
        string_val: "male"
        string_val: "male"
        string_val: "female"
        string_val: "male"
        string_val: "male"
        string_val: "female"
        string_val: "female"
        string_val: "male"
      }
    }
  }
}
node {
  name: "tensors/component_9"
  op: "Const"
  device: "/device:CPU:0"
  attr {
    key: "_output_shapes"
    value {
      list {
        shape {
          dim {
            size: 627
          }
        }
      }
    }
  }
  attr {
    key: "dtype"
    value {
      type: DT_INT64
    }
  }
  attr {
    key: "value"
    value {
      tensor {
        dtype: DT_INT64
        tensor_shape {
          dim {
            size: 627
          }
        }
        tensor_content: "…"
      }
    }
  }
}
node {
  name: "TensorSliceDataset"
  op: "TensorSliceDataset"
  input: "tensors/component_0"
  input: "tensors/component_1"
  input: "tensors/component_2"
  input: "tensors/component_3"
  input: "tensors/component_4"
  input: "tensors/component_5"
  input: "tensors/component_6"
  input: "tensors/component_7"
  input: "tensors/component_8"
  input: "tensors/component_9"
  device: "/device:CPU:0"
  attr {
    key: "Toutput_types"
    value {
      list {
        type: DT_DOUBLE
        type: DT_STRING
        type: DT_STRING
        type: DT_STRING
        type: DT_STRING
        type: DT_DOUBLE
        type: DT_INT64
        type: DT_INT64
        type: DT_STRING
        type: DT_INT64
      }
    }
  }
  attr {
    key: "_output_shapes"
    value {
      list {
        shape {
        }
      }
    }
  }
  attr {
    key: "output_shapes"
    value {
      list {
        shape {
        }
        shape {
        }
        shape {
        }
        shape {
        }
        shape {
        }
        shape {
        }
        shape {
        }
        shape {
        }
        shape {
        }
        shape {
        }
      }
    }
  }
}
node {
  name: "buffer_size"
  op: "Const"
  device: "/device:CPU:0"
  attr {
    key: "_output_shapes"
    value {
      list {
        shape {
        }
      }
    }
  }
  attr {
    key: "dtype"
    value {
      type: DT_INT64
    }
  }
  attr {
    key: "value"
    value {
      tensor {
        dtype: DT_INT64
        tensor_shape {
        }
        int64_val: 10000
      }
    }
  }
}
node {
  name: "seed"
  op: "Const"
  device: "/device:CPU:0"
  attr {
    key: "_output_shapes"
    value {
      list {
        shape {
        }
      }
    }
  }
  attr {
    key: "dtype"
    value {
      type: DT_INT64
    }
  }
  attr {
    key: "value"
    value {
      tensor {
        dtype: DT_INT64
        tensor_shape {
        }
        int64_val: 0
      }
    }
  }
}
node {
  name: "seed2"
  op: "Const"
  device: "/device:CPU:0"
  attr {
    key: "_output_shapes"
    value {
      list {
        shape {
        }
      }
    }
  }
  attr {
    key: "dtype"
    value {
      type: DT_INT64
    }
  }
  attr {
    key: "value"
    value {
      tensor {
        dtype: DT_INT64
        tensor_shape {
        }
        int64_val: 0
      }
    }
  }
}
node {
  name: "ShuffleDataset"
  op: "ShuffleDataset"
  input: "TensorSliceDataset"
  input: "buffer_size"
  input: "seed"
  input: "seed2"
  device: "/device:CPU:0"
  attr {
    key: "_output_shapes"
    value {
      list {
        shape {
        }
      }
    }
  }
  attr {
    key: "output_shapes"
    value {
      list {
        shape {
        }
        shape {
        }
        shape {
        }
        shape {
        }
        shape {
        }
        shape {
        }
        shape {
        }
        shape {
        }
        shape {
        }
        shape {
        }
      }
    }
  }
  attr {
    key: "output_types"
    value {
      list {
        type: DT_DOUBLE
        type: DT_STRING
        type: DT_STRING
        type: DT_STRING
        type: DT_STRING
        type: DT_DOUBLE
        type: DT_INT64
        type: DT_INT64
        type: DT_STRING
        type: DT_INT64
      }
    }
  }
  attr {
    key: "reshuffle_each_iteration"
    value {
      b: true
    }
  }
}
node {
  name: "count"
  op: "Const"
  device: "/device:CPU:0"
  attr {
    key: "_output_shapes"
    value {
      list {
        shape {
        }
      }
    }
  }
  attr {
    key: "dtype"
    value {
      type: DT_INT64
    }
  }
  attr {
    key: "value"
    value {
      tensor {
        dtype: DT_INT64
        tensor_shape {
        }
        int64_val: 100
      }
    }
  }
}
node {
  name: "RepeatDataset"
  op: "RepeatDataset"
  input: "ShuffleDataset"
  input: "count"
  device: "/device:CPU:0"
  attr {
    key: "_output_shapes"
    value {
      list {
        shape {
        }
      }
    }
  }
  attr {
    key: "output_shapes"
    value {
      list {
        shape {
        }
        shape {
        }
        shape {
        }
        shape {
        }
        shape {
        }
        shape {
        }
        shape {
        }
        shape {
        }
        shape {
        }
        shape {
        }
      }
    }
  }
  attr {
    key: "output_types"
    value {
      list {
        type: DT_DOUBLE
        type: DT_STRING
        type: DT_STRING
        type: DT_STRING
        type: DT_STRING
        type: DT_DOUBLE
        type: DT_INT64
        type: DT_INT64
        type: DT_STRING
        type: DT_INT64
      }
    }
  }
}
node {
  name: "batch_size"
  op: "Const"
  device: "/device:CPU:0"
  attr {
    key: "_output_shapes"
    value {
      list {
        shape {
        }
      }
    }
  }
  attr {
    key: "dtype"
    value {
      type: DT_INT64
    }
  }
  attr {
    key: "value"
    value {
      tensor {
        dtype: DT_INT64
        tensor_shape {
        }
        int64_val: 32
      }
    }
  }
}
node {
  name: "drop_remainder"
  op: "Const"
  device: "/device:CPU:0"
  attr {
    key: "_output_shapes"
    value {
      list {
        shape {
        }
      }
    }
  }
  attr {
    key: "dtype"
    value {
      type: DT_BOOL
    }
  }
  attr {
    key: "value"
    value {
      tensor {
        dtype: DT_BOOL
        tensor_shape {
        }
        bool_val: false
      }
    }
  }
}
node {
  name: "BatchDatasetV2"
  op: "BatchDatasetV2"
  input: "RepeatDataset"
  input: "batch_size"
  input: "drop_remainder"
  device: "/device:CPU:0"
  attr {
    key: "_output_shapes"
    value {
      list {
        shape {
        }
      }
    }
  }
  attr {
    key: "output_shapes"
    value {
      list {
        shape {
          dim {
            size: -1
          }
        }
        shape {
          dim {
            size: -1
          }
        }
        shape {
          dim {
            size: -1
          }
        }
        shape {
          dim {
            size: -1
          }
        }
        shape {
          dim {
            size: -1
          }
        }
        shape {
          dim {
            size: -1
          }
        }
        shape {
          dim {
            size: -1
          }
        }
        shape {
          dim {
            size: -1
          }
        }
        shape {
          dim {
            size: -1
          }
        }
        shape {
          dim {
            size: -1
          }
        }
      }
    }
  }
  attr {
    key: "output_types"
    value {
      list {
        type: DT_DOUBLE
        type: DT_STRING
        type: DT_STRING
        type: DT_STRING
        type: DT_STRING
        type: DT_DOUBLE
        type: DT_INT64
        type: DT_INT64
        type: DT_STRING
        type: DT_INT64
      }
    }
  }
}
node {
  name: "optimizations"
  op: "Const"
  attr {
    key: "_output_shapes"
    value {
      list {
        shape {
          dim {
            size: 3
          }
        }
      }
    }
  }
  attr {
    key: "dtype"
    value {
      type: DT_STRING
    }
  }
  attr {
    key: "value"
    value {
      tensor {
        dtype: DT_STRING
        tensor_shape {
          dim {
            size: 3
          }
        }
        string_val: "map_and_batch_fusion"
        string_val: "noop_elimination"
        string_val: "shuffle_and_repeat_fusion"
      }
    }
  }
}
node {
  name: "OptimizeDataset"
  op: "OptimizeDataset"
  input: "BatchDatasetV2"
  input: "optimizations"
  attr {
    key: "_output_shapes"
    value {
      list {
        shape {
        }
      }
    }
  }
  attr {
    key: "output_shapes"
    value {
      list {
        shape {
          dim {
            size: -1
          }
        }
        shape {
          dim {
            size: -1
          }
        }
        shape {
          dim {
            size: -1
          }
        }
        shape {
          dim {
            size: -1
          }
        }
        shape {
          dim {
            size: -1
          }
        }
        shape {
          dim {
            size: -1
          }
        }
        shape {
          dim {
            size: -1
          }
        }
        shape {
          dim {
            size: -1
          }
        }
        shape {
          dim {
            size: -1
          }
        }
        shape {
          dim {
            size: -1
          }
        }
      }
    }
  }
  attr {
    key: "output_types"
    value {
      list {
        type: DT_DOUBLE
        type: DT_STRING
        type: DT_STRING
        type: DT_STRING
        type: DT_STRING
        type: DT_DOUBLE
        type: DT_INT64
        type: DT_INT64
        type: DT_STRING
        type: DT_INT64
      }
    }
  }
}
node {
  name: "ModelDataset"
  op: "ModelDataset"
  input: "OptimizeDataset"
  attr {
    key: "_output_shapes"
    value {
      list {
        shape {
        }
      }
    }
  }
  attr {
    key: "output_shapes"
    value {
      list {
        shape {
          dim {
            size: -1
          }
        }
        shape {
          dim {
            size: -1
          }
        }
        shape {
          dim {
            size: -1
          }
        }
        shape {
          dim {
            size: -1
          }
        }
        shape {
          dim {
            size: -1
          }
        }
        shape {
          dim {
            size: -1
          }
        }
        shape {
          dim {
            size: -1
          }
        }
        shape {
          dim {
            size: -1
          }
        }
        shape {
          dim {
            size: -1
          }
        }
        shape {
          dim {
            size: -1
          }
        }
      }
    }
  }
  attr {
    key: "output_types"
    value {
      list {
        type: DT_DOUBLE
        type: DT_STRING
        type: DT_STRING
        type: DT_STRING
        type: DT_STRING
        type: DT_DOUBLE
        type: DT_INT64
        type: DT_INT64
        type: DT_STRING
        type: DT_INT64
      }
    }
  }
}
node {
  name: "IteratorV2"
  op: "IteratorV2"
  attr {
    key: "_output_shapes"
    value {
      list {
        shape {
        }
      }
    }
  }
  attr {
    key: "container"
    value {
      s: ""
    }
  }
  attr {
    key: "output_shapes"
    value {
      list {
        shape {
          dim {
            size: -1
          }
        }
        shape {
          dim {
            size: -1
          }
        }
        shape {
          dim {
            size: -1
          }
        }
        shape {
          dim {
            size: -1
          }
        }
        shape {
          dim {
            size: -1
          }
        }
        shape {
          dim {
            size: -1
          }
        }
        shape {
          dim {
            size: -1
          }
        }
        shape {
          dim {
            size: -1
          }
        }
        shape {
          dim {
            size: -1
          }
        }
        shape {
          dim {
            size: -1
          }
        }
      }
    }
  }
  attr {
    key: "output_types"
    value {
      list {
        type: DT_DOUBLE
        type: DT_STRING
        type: DT_STRING
        type: DT_STRING
        type: DT_STRING
        type: DT_DOUBLE
        type: DT_INT64
        type: DT_INT64
        type: DT_STRING
        type: DT_INT64
      }
    }
  }
  attr {
    key: "shared_name"
    value {
      s: ""
    }
  }
}
node {
  name: "MakeIterator"
  op: "MakeIterator"
  input: "ModelDataset"
  input: "IteratorV2"
  attr {
    key: "_class"
    value {
      list {
        s: "loc:@IteratorV2"
      }
    }
  }
}
node {
  name: "IteratorToStringHandle"
  op: "IteratorToStringHandle"
  input: "IteratorV2"
  attr {
    key: "_output_shapes"
    value {
      list {
        shape {
        }
      }
    }
  }
}
node {
  name: "IteratorGetNext"
  op: "IteratorGetNext"
  input: "IteratorV2"
  attr {
    key: "_output_shapes"
    value {
      list {
        shape {
          dim {
            size: -1
          }
        }
        shape {
          dim {
            size: -1
          }
        }
        shape {
          dim {
            size: -1
          }
        }
        shape {
          dim {
            size: -1
          }
        }
        shape {
          dim {
            size: -1
          }
        }
        shape {
          dim {
            size: -1
          }
        }
        shape {
          dim {
            size: -1
          }
        }
        shape {
          dim {
            size: -1
          }
        }
        shape {
          dim {
            size: -1
          }
        }
        shape {
          dim {
            size: -1
          }
        }
      }
    }
  }
  attr {
    key: "output_shapes"
    value {
      list {
        shape {
          dim {
            size: -1
          }
        }
        shape {
          dim {
            size: -1
          }
        }
        shape {
          dim {
            size: -1
          }
        }
        shape {
          dim {
            size: -1
          }
        }
        shape {
          dim {
            size: -1
          }
        }
        shape {
          dim {
            size: -1
          }
        }
        shape {
          dim {
            size: -1
          }
        }
        shape {
          dim {
            size: -1
          }
        }
        shape {
          dim {
            size: -1
          }
        }
        shape {
          dim {
            size: -1
          }
        }
      }
    }
  }
  attr {
    key: "output_types"
    value {
      list {
        type: DT_DOUBLE
        type: DT_STRING
        type: DT_STRING
        type: DT_STRING
        type: DT_STRING
        type: DT_DOUBLE
        type: DT_INT64
        type: DT_INT64
        type: DT_STRING
        type: DT_INT64
      }
    }
  }
}
node {
  name: "linear/linear_model/age/weights/part_0/Initializer/zeros"
  op: "Const"
  attr {
    key: "_class"
    value {
      list {
        s: "loc:@linear/linear_model/age/weights/part_0"
      }
    }
  }
  attr {
    key: "_output_shapes"
    value {
      list {
        shape {
          dim {
            size: 1
          }
          dim {
            size: 1
          }
        }
      }
    }
  }
  attr {
    key: "dtype"
    value {
      type: DT_FLOAT
    }
  }
  attr {
    key: "value"
    value {
      tensor {
        dtype: DT_FLOAT
        tensor_shape {
          dim {
            size: 1
          }
          dim {
            size: 1
          }
        }
        float_val: 0.0
      }
    }
  }
}
node {
  name: "linear/linear_model/age/weights/part_0"
  op: "VarHandleOp"
  attr {
    key: "_class"
    value {
      list {
        s: "loc:@linear/linear_model/age/weights/part_0"
      }
    }
  }
  attr {
    key: "_output_shapes"
    value {
      list {
        shape {
        }
      }
    }
  }
  attr {
    key: "container"
    value {
      s: ""
    }
  }
  attr {
    key: "dtype"
    value {
      type: DT_FLOAT
    }
  }
  attr {
    key: "shape"
    value {
      shape {
        dim {
          size: 1
        }
        dim {
          size: 1
        }
      }
    }
  }
  attr {
    key: "shared_name"
    value {
      s: "linear/linear_model/age/weights/part_0"
    }
  }
}
node {
  name: "linear/linear_model/age/weights/part_0/IsInitialized/VarIsInitializedOp"
  op: "VarIsInitializedOp"
  input: "linear/linear_model/age/weights/part_0"
  attr {
    key: "_output_shapes"
    value {
      list {
        shape {
        }
      }
    }
  }
}
node {
  name: "linear/linear_model/age/weights/part_0/Assign"
  op: "AssignVariableOp"
  input: "linear/linear_model/age/weights/part_0"
  input: "linear/linear_model/age/weights/part_0/Initializer/zeros"
  attr {
    key: "_class"
    value {
      list {
        s: "loc:@linear/linear_model/age/weights/part_0"
      }
    }
  }
  attr {
    key: "dtype"
    value {
      type: DT_FLOAT
    }
  }
}
node {
  name: "linear/linear_model/age/weights/part_0/Read/ReadVariableOp"
  op: "ReadVariableOp"
  input: "linear/linear_model/age/weights/part_0"
  attr {
    key: "_class"
    value {
      list {
        s: "loc:@linear/linear_model/age/weights/part_0"
      }
    }
  }
  attr {
    key: "_output_shapes"
    value {
      list {
        shape {
          dim {
            size: 1
          }
          dim {
            size: 1
          }
        }
      }
    }
  }
  attr {
    key: "dtype"
    value {
      type: DT_FLOAT
    }
  }
}
node {
  name: "linear/linear_model/alone_indicator/weights/part_0/Initializer/zeros"
  op: "Const"
  attr {
    key: "_class"
    value {
      list {
        s: "loc:@linear/linear_model/alone_indicator/weights/part_0"
      }
    }
  }
  attr {
    key: "_output_shapes"
    value {
      list {
        shape {
          dim {
            size: 2
          }
          dim {
            size: 1
          }
        }
      }
    }
  }
  attr {
    key: "dtype"
    value {
      type: DT_FLOAT
    }
  }
  attr {
    key: "value"
    value {
      tensor {
        dtype: DT_FLOAT
        tensor_shape {
          dim {
            size: 2
          }
          dim {
            size: 1
          }
        }
        float_val: 0.0
      }
    }
  }
}
node {
  name: "linear/linear_model/alone_indicator/weights/part_0"
  op: "VarHandleOp"
  attr {
    key: "_class"
    value {
      list {
        s: "loc:@linear/linear_model/alone_indicator/weights/part_0"
      }
    }
  }
  attr {
    key: "_output_shapes"
    value {
      list {
        shape {
        }
      }
    }
  }
  attr {
    key: "container"
    value {
      s: ""
    }
  }
  attr {
    key: "dtype"
    value {
      type: DT_FLOAT
    }
  }
  attr {
    key: "shape"
    value {
      shape {
        dim {
          size: 2
        }
        dim {
          size: 1
        }
      }
    }
  }
  attr {
    key: "shared_name"
    value {
      s: "linear/linear_model/alone_indicator/weights/part_0"
    }
  }
}
node {
  name: "linear/linear_model/alone_indicator/weights/part_0/IsInitialized/VarIsInitializedOp"
  op: "VarIsInitializedOp"
  input: "linear/linear_model/alone_indicator/weights/part_0"
  attr {
    key: "_output_shapes"
    value {
      list {
        shape {
        }
      }
    }
  }
}
node {
  name: "linear/linear_model/alone_indicator/weights/part_0/Assign"
  op: "AssignVariableOp"
  input: "linear/linear_model/alone_indicator/weights/part_0"
  input: "linear/linear_model/alone_indicator/weights/part_0/Initializer/zeros"
  attr {
    key: "_class"
    value {
      list {
        s: "loc:@linear/linear_model/alone_indicator/weights/part_0"
      }
    }
  }
  attr {
    key: "dtype"
    value {
      type: DT_FLOAT
    }
  }
}
node {
  name: "linear/linear_model/alone_indicator/weights/part_0/Read/ReadVariableOp"
  op: "ReadVariableOp"
  input: "linear/linear_model/alone_indicator/weights/part_0"
  attr {
    key: "_class"
    value {
      list {
        s: "loc:@linear/linear_model/alone_indicator/weights/part_0"
      }
    }
  }
  attr {
    key: "_output_shapes"
    value {
      list {
        shape {
          dim {
            size: 2
          }
          dim {
            size: 1
          }
        }
      }
    }
  }
  attr {
    key: "dtype"
    value {
      type: DT_FLOAT
    }
  }
}
node {
  name: "linear/linear_model/class_indicator/weights/part_0/Initializer/zeros"
  op: "Const"
  attr {
    key: "_class"
    value {
      list {
        s: "loc:@linear/linear_model/class_indicator/weights/part_0"
      }
    }
  }
  attr {
    key: "_output_shapes"
    value {
      list {
        shape {
          dim {
            size: 3
          }
          dim {
            size: 1
          }
        }
      }
    }
  }
  attr {
    key: "dtype"
    value {
      type: DT_FLOAT
    }
  }
  attr {
    key: "value"
    value {
      tensor {
        dtype: DT_FLOAT
        tensor_shape {
          dim {
            size: 3
          }
          dim {
            size: 1
          }
        }
        float_val: 0.0
      }
    }
  }
}
node {
  name: "linear/linear_model/class_indicator/weights/part_0"
  op: "VarHandleOp"
  attr {
    key: "_class"
    value {
      list {
        s: "loc:@linear/linear_model/class_indicator/weights/part_0"
      }
    }
  }
  attr {
    key: "_output_shapes"
    value {
      list {
        shape {
        }
      }
    }
  }
  attr {
    key: "container"
    value {
      s: ""
    }
  }
  attr {
    key: "dtype"
    value {
      type: DT_FLOAT
    }
  }
  attr {
    key: "shape"
    value {
      shape {
        dim {
          size: 3
        }
        dim {
          size: 1
        }
      }
    }
  }
  attr {
    key: "shared_name"
    value {
      s: "linear/linear_model/class_indicator/weights/part_0"
    }
  }
}
node {
  name: "linear/linear_model/class_indicator/weights/part_0/IsInitialized/VarIsInitializedOp"
  op: "VarIsInitializedOp"
  input: "linear/linear_model/class_indicator/weights/part_0"
  attr {
    key: "_output_shapes"
    value {
      list {
        shape {
        }
      }
    }
  }
}
node {
  name: "linear/linear_model/class_indicator/weights/part_0/Assign"
  op: "AssignVariableOp"
  input: "linear/linear_model/class_indicator/weights/part_0"
  input: "linear/linear_model/class_indicator/weights/part_0/Initializer/zeros"
  attr {
    key: "_class"
    value {
      list {
        s: "loc:@linear/linear_model/class_indicator/weights/part_0"
      }
    }
  }
  attr {
    key: "dtype"
    value {
      type: DT_FLOAT
    }
  }
}
node {
  name: "linear/linear_model/class_indicator/weights/part_0/Read/ReadVariableOp"
  op: "ReadVariableOp"
  input: "linear/linear_model/class_indicator/weights/part_0"
  attr {
    key: "_class"
    value {
      list {
        s: "loc:@linear/linear_model/class_indicator/weights/part_0"
      }
    }
  }
  attr {
    key: "_output_shapes"
    value {
      list {
        shape {
          dim {
            size: 3
          }
          dim {
            size: 1
          }
        }
      }
    }
  }
  attr {
    key: "dtype"
    value {
      type: DT_FLOAT
    }
  }
}
node {
  name: "linear/linear_model/deck_indicator/weights/part_0/Initializer/zeros"
  op: "Const"
  attr {
    key: "_class"
    value {
      list {
        s: "loc:@linear/linear_model/deck_indicator/weights/part_0"
      }
    }
  }
  attr {
    key: "_output_shapes"
    value {
      list {
        shape {
          dim {
            size: 8
          }
          dim {
            size: 1
          }
        }
      }
    }
  }
  attr {
    key: "dtype"
    value {
      type: DT_FLOAT
    }
  }
  attr {
    key: "value"
    value {
      tensor {
        dtype: DT_FLOAT
        tensor_shape {
          dim {
            size: 8
          }
          dim {
            size: 1
          }
        }
        float_val: 0.0
      }
    }
  }
}
node {
  name: "linear/linear_model/deck_indicator/weights/part_0"
  op: "VarHandleOp"
  attr {
    key: "_class"
    value {
      list {
        s: "loc:@linear/linear_model/deck_indicator/weights/part_0"
      }
    }
  }
  attr {
    key: "_output_shapes"
    value {
      list {
        shape {
        }
      }
    }
  }
  attr {
    key: "container"
    value {
      s: ""
    }
  }
  attr {
    key: "dtype"
    value {
      type: DT_FLOAT
    }
  }
  attr {
    key: "shape"
    value {
      shape {
        dim {
          size: 8
        }
        dim {
          size: 1
        }
      }
    }
  }
  attr {
    key: "shared_name"
    value {
      s: "linear/linear_model/deck_indicator/weights/part_0"
    }
  }
}
node {
  name: "linear/linear_model/deck_indicator/weights/part_0/IsInitialized/VarIsInitializedOp"
  op: "VarIsInitializedOp"
  input: "linear/linear_model/deck_indicator/weights/part_0"
  attr {
    key: "_output_shapes"
    value {
      list {
        shape {
        }
      }
    }
  }
}
node {
  name: "linear/linear_model/deck_indicator/weights/part_0/Assign"
  op: "AssignVariableOp"
  input: "linear/linear_model/deck_indicator/weights/part_0"
  input: "linear/linear_model/deck_indicator/weights/part_0/Initializer/zeros"
  attr {
    key: "_class"
    value {
      list {
        s: "loc:@linear/linear_model/deck_indicator/weights/part_0"
      }
    }
  }
  attr {
    key: "dtype"
    value {
      type: DT_FLOAT
    }
  }
}
node {
  name: "linear/linear_model/deck_indicator/weights/part_0/Read/ReadVariableOp"
  op: "ReadVariableOp"
  input: "linear/linear_model/deck_indicator/weights/part_0"
  attr {
    key: "_class"
    value {
      list {
        s: "loc:@linear/linear_model/deck_indicator/weights/part_0"
      }
    }
  }
  attr {
    key: "_output_shapes"
    value {
      list {
        shape {
          dim {
            size: 8
          }
          dim {
            size: 1
          }
        }
      }
    }
  }
  attr {
    key: "dtype"
    value {
      type: DT_FLOAT
    }
  }
}
node {
  name: "linear/linear_model/embark_town_indicator/weights/part_0/Initializer/zeros"
  op: "Const"
  attr {
    key: "_class"
    value {
      list {
        s: "loc:@linear/linear_model/embark_town_indicator/weights/part_0"
      }
    }
  }
  attr {
    key: "_output_shapes"
    value {
      list {
        shape {
          dim {
            size: 4
          }
          dim {
            size: 1
          }
        }
      }
    }
  }
  attr {
    key: "dtype"
    value {
      type: DT_FLOAT
    }
  }
  attr {
    key: "value"
    value {
      tensor {
        dtype: DT_FLOAT
        tensor_shape {
          dim {
            size: 4
          }
          dim {
            size: 1
          }
        }
        float_val: 0.0
      }
    }
  }
}
node {
  name: "linear/linear_model/embark_town_indicator/weights/part_0"
  op: "VarHandleOp"
  attr {
    key: "_class"
    value {
      list {
        s: "loc:@linear/linear_model/embark_town_indicator/weights/part_0"
      }
    }
  }
  attr {
    key: "_output_shapes"
    value {
      list {
        shape {
        }
      }
    }
  }
  attr {
    key: "container"
    value {
      s: ""
    }
  }
  attr {
    key: "dtype"
    value {
      type: DT_FLOAT
    }
  }
  attr {
    key: "shape"
    value {
      shape {
        dim {
          size: 4
        }
        dim {
          size: 1
        }
      }
    }
  }
  attr {
    key: "shared_name"
    value {
      s: "linear/linear_model/embark_town_indicator/weights/part_0"
    }
  }
}
node {
  name: "linear/linear_model/embark_town_indicator/weights/part_0/IsInitialized/VarIsInitializedOp"
  op: "VarIsInitializedOp"
  input: "linear/linear_model/embark_town_indicator/weights/part_0"
  attr {
    key: "_output_shapes"
    value {
      list {
        shape {
        }
      }
    }
  }
}
node {
  name: "linear/linear_model/embark_town_indicator/weights/part_0/Assign"
  op: "AssignVariableOp"
  input: "linear/linear_model/embark_town_indicator/weights/part_0"
  input: "linear/linear_model/embark_town_indicator/weights/part_0/Initializer/zeros"
  attr {
    key: "_class"
    value {
      list {
        s: "loc:@linear/linear_model/embark_town_indicator/weights/part_0"
      }
    }
  }
  attr {
    key: "dtype"
    value {
      type: DT_FLOAT
    }
  }
}
node {
  name: "linear/linear_model/embark_town_indicator/weights/part_0/Read/ReadVariableOp"
  op: "ReadVariableOp"
  input: "linear/linear_model/embark_town_indicator/weights/part_0"
  attr {
    key: "_class"
    value {
      list {
        s: "loc:@linear/linear_model/embark_town_indicator/weights/part_0"
      }
    }
  }
  attr {
    key: "_output_shapes"
    value {
      list {
        shape {
          dim {
            size: 4
          }
          dim {
            size: 1
          }
        }
      }
    }
  }
  attr {
    key: "dtype"
    value {
      type: DT_FLOAT
    }
  }
}
node {
  name: "linear/linear_model/fare/weights/part_0/Initializer/zeros"
  op: "Const"
  attr {
    key: "_class"
    value {
      list {
        s: "loc:@linear/linear_model/fare/weights/part_0"
      }
    }
  }
  attr {
    key: "_output_shapes"
    value {
      list {
        shape {
          dim {
            size: 1
          }
          dim {
            size: 1
          }
        }
      }
    }
  }
  attr {
    key: "dtype"
    value {
      type: DT_FLOAT
    }
  }
  attr {
    key: "value"
    value {
      tensor {
        dtype: DT_FLOAT
        tensor_shape {
          dim {
            size: 1
          }
          dim {
            size: 1
          }
        }
        float_val: 0.0
      }
    }
  }
}
node {
  name: "linear/linear_model/fare/weights/part_0"
  op: "VarHandleOp"
  attr {
    key: "_class"
    value {
      list {
        s: "loc:@linear/linear_model/fare/weights/part_0"
      }
    }
  }
  attr {
    key: "_output_shapes"
    value {
      list {
        shape {
        }
      }
    }
  }
  attr {
    key: "container"
    value {
      s: ""
    }
  }
  attr {
    key: "dtype"
    value {
      type: DT_FLOAT
    }
  }
  attr {
    key: "shape"
    value {
      shape {
        dim {
          size: 1
        }
        dim {
          size: 1
        }
      }
    }
  }
  attr {
    key: "shared_name"
    value {
      s: "linear/linear_model/fare/weights/part_0"
    }
  }
}
node {
  name: "linear/linear_model/fare/weights/part_0/IsInitialized/VarIsInitializedOp"
  op: "VarIsInitializedOp"
  input: "linear/linear_model/fare/weights/part_0"
  attr {
    key: "_output_shapes"
    value {
      list {
        shape {
        }
      }
    }
  }
}
node {
  name: "linear/linear_model/fare/weights/part_0/Assign"
  op: "AssignVariableOp"
  input: "linear/linear_model/fare/weights/part_0"
  input: "linear/linear_model/fare/weights/part_0/Initializer/zeros"
  attr {
    key: "_class"
    value {
      list {
        s: "loc:@linear/linear_model/fare/weights/part_0"
      }
    }
  }
  attr {
    key: "dtype"
    value {
      type: DT_FLOAT
    }
  }
}
node {
  name: "linear/linear_model/fare/weights/part_0/Read/ReadVariableOp"
  op: "ReadVariableOp"
  input: "linear/linear_model/fare/weights/part_0"
  attr {
    key: "_class"
    value {
      list {
        s: "loc:@linear/linear_model/fare/weights/part_0"
      }
    }
  }
  attr {
    key: "_output_shapes"
    value {
      list {
        shape {
          dim {
            size: 1
          }
          dim {
            size: 1
          }
        }
      }
    }
  }
  attr {
    key: "dtype"
    value {
      type: DT_FLOAT
    }
  }
}
node {
  name: "linear/linear_model/n_siblings_spouses_indicator/weights/part_0/Initializer/zeros"
  op: "Const"
  attr {
    key: "_class"
    value {
      list {
        s: "loc:@linear/linear_model/n_siblings_spouses_indicator/weights/part_0"
      }
    }
  }
  attr {
    key: "_output_shapes"
    value {
      list {
        shape {
          dim {
            size: 7
          }
          dim {
            size: 1
          }
        }
      }
    }
  }
  attr {
    key: "dtype"
    value {
      type: DT_FLOAT
    }
  }
  attr {
    key: "value"
    value {
      tensor {
        dtype: DT_FLOAT
        tensor_shape {
          dim {
            size: 7
          }
          dim {
            size: 1
          }
        }
        float_val: 0.0
      }
    }
  }
}
node {
  name: "linear/linear_model/n_siblings_spouses_indicator/weights/part_0"
  op: "VarHandleOp"
  attr {
    key: "_class"
    value {
      list {
        s: "loc:@linear/linear_model/n_siblings_spouses_indicator/weights/part_0"
      }
    }
  }
  attr {
    key: "_output_shapes"
    value {
      list {
        shape {
        }
      }
    }
  }
  attr {
    key: "container"
    value {
      s: ""
    }
  }
  attr {
    key: "dtype"
    value {
      type: DT_FLOAT
    }
  }
  attr {
    key: "shape"
    value {
      shape {
        dim {
          size: 7
        }
        dim {
          size: 1
        }
      }
    }
  }
  attr {
    key: "shared_name"
    value {
      s: "linear/linear_model/n_siblings_spouses_indicator/weights/part_0"
    }
  }
}
node {
  name: "linear/linear_model/n_siblings_spouses_indicator/weights/part_0/IsInitialized/VarIsInitializedOp"
  op: "VarIsInitializedOp"
  input: "linear/linear_model/n_siblings_spouses_indicator/weights/part_0"
  attr {
    key: "_output_shapes"
    value {
      list {
        shape {
        }
      }
    }
  }
}
node {
  name: "linear/linear_model/n_siblings_spouses_indicator/weights/part_0/Assign"
  op: "AssignVariableOp"
  input: "linear/linear_model/n_siblings_spouses_indicator/weights/part_0"
  input: "linear/linear_model/n_siblings_spouses_indicator/weights/part_0/Initializer/zeros"
  attr {
    key: "_class"
    value {
      list {
        s: "loc:@linear/linear_model/n_siblings_spouses_indicator/weights/part_0"
      }
    }
  }
  attr {
    key: "dtype"
    value {
      type: DT_FLOAT
    }
  }
}
node {
  name: "linear/linear_model/n_siblings_spouses_indicator/weights/part_0/Read/ReadVariableOp"
  op: "ReadVariableOp"
  input: "linear/linear_model/n_siblings_spouses_indicator/weights/part_0"
  attr {
    key: "_class"
    value {
      list {
        s: "loc:@linear/linear_model/n_siblings_spouses_indicator/weights/part_0"
      }
    }
  }
  attr {
    key: "_output_shapes"
    value {
      list {
        shape {
          dim {
            size: 7
          }
          dim {
            size: 1
          }
        }
      }
    }
  }
  attr {
    key: "dtype"
    value {
      type: DT_FLOAT
    }
  }
}
node {
  name: "linear/linear_model/parch_indicator/weights/part_0/Initializer/zeros"
  op: "Const"
  attr {
    key: "_class"
    value {
      list {
        s: "loc:@linear/linear_model/parch_indicator/weights/part_0"
      }
    }
  }
  attr {
    key: "_output_shapes"
    value {
      list {
        shape {
          dim {
            size: 6
          }
          dim {
            size: 1
          }
        }
      }
    }
  }
  attr {
    key: "dtype"
    value {
      type: DT_FLOAT
    }
  }
  attr {
    key: "value"
    value {
      tensor {
        dtype: DT_FLOAT
        tensor_shape {
          dim {
            size: 6
          }
          dim {
            size: 1
          }
        }
        float_val: 0.0
      }
    }
  }
}
node {
  name: "linear/linear_model/parch_indicator/weights/part_0"
  op: "VarHandleOp"
  attr {
    key: "_class"
    value {
      list {
        s: "loc:@linear/linear_model/parch_indicator/weights/part_0"
      }
    }
  }
  attr {
    key: "_output_shapes"
    value {
      list {
        shape {
        }
      }
    }
  }
  attr {
    key: "container"
    value {
      s: ""
    }
  }
  attr {
    key: "dtype"
    value {
      type: DT_FLOAT
    }
  }
  attr {
    key: "shape"
    value {
      shape {
        dim {
          size: 6
        }
        dim {
          size: 1
        }
      }
    }
  }
  attr {
    key: "shared_name"
    value {
      s: "linear/linear_model/parch_indicator/weights/part_0"
    }
  }
}
node {
  name: "linear/linear_model/parch_indicator/weights/part_0/IsInitialized/VarIsInitializedOp"
  op: "VarIsInitializedOp"
  input: "linear/linear_model/parch_indicator/weights/part_0"
  attr {
    key: "_output_shapes"
    value {
      list {
        shape {
        }
      }
    }
  }
}
node {
  name: "linear/linear_model/parch_indicator/weights/part_0/Assign"
  op: "AssignVariableOp"
  input: "linear/linear_model/parch_indicator/weights/part_0"
  input: "linear/linear_model/parch_indicator/weights/part_0/Initializer/zeros"
  attr {
    key: "_class"
    value {
      list {
        s: "loc:@linear/linear_model/parch_indicator/weights/part_0"
      }
    }
  }
  attr {
    key: "dtype"
    value {
      type: DT_FLOAT
    }
  }
}
node {
  name: "linear/linear_model/parch_indicator/weights/part_0/Read/ReadVariableOp"
  op: "ReadVariableOp"
  input: "linear/linear_model/parch_indicator/weights/part_0"
  attr {
    key: "_class"
    value {
      list {
        s: "loc:@linear/linear_model/parch_indicator/weights/part_0"
      }
    }
  }
  attr {
    key: "_output_shapes"
    value {
      list {
        shape {
          dim {
            size: 6
          }
          dim {
            size: 1
          }
        }
      }
    }
  }
  attr {
    key: "dtype"
    value {
      type: DT_FLOAT
    }
  }
}
node {
  name: "linear/linear_model/sex_indicator/weights/part_0/Initializer/zeros"
  op: "Const"
  attr {
    key: "_class"
    value {
      list {
        s: "loc:@linear/linear_model/sex_indicator/weights/part_0"
      }
    }
  }
  attr {
    key: "_output_shapes"
    value {
      list {
        shape {
          dim {
            size: 2
          }
          dim {
            size: 1
          }
        }
      }
    }
  }
  attr {
    key: "dtype"
    value {
      type: DT_FLOAT
    }
  }
  attr {
    key: "value"
    value {
      tensor {
        dtype: DT_FLOAT
        tensor_shape {
          dim {
            size: 2
          }
          dim {
            size: 1
          }
        }
        float_val: 0.0
      }
    }
  }
}
node {
  name: "linear/linear_model/sex_indicator/weights/part_0"
  op: "VarHandleOp"
  attr {
    key: "_class"
    value {
      list {
        s: "loc:@linear/linear_model/sex_indicator/weights/part_0"
      }
    }
  }
  attr {
    key: "_output_shapes"
    value {
      list {
        shape {
        }
      }
    }
  }
  attr {
    key: "container"
    value {
      s: ""
    }
  }
  attr {
    key: "dtype"
    value {
      type: DT_FLOAT
    }
  }
  attr {
    key: "shape"
    value {
      shape {
        dim {
          size: 2
        }
        dim {
          size: 1
        }
      }
    }
  }
  attr {
    key: "shared_name"
    value {
      s: "linear/linear_model/sex_indicator/weights/part_0"
    }
  }
}
node {
  name: "linear/linear_model/sex_indicator/weights/part_0/IsInitialized/VarIsInitializedOp"
  op: "VarIsInitializedOp"
  input: "linear/linear_model/sex_indicator/weights/part_0"
  attr {
    key: "_output_shapes"
    value {
      list {
        shape {
        }
      }
    }
  }
}
node {
  name: "linear/linear_model/sex_indicator/weights/part_0/Assign"
  op: "AssignVariableOp"
  input: "linear/linear_model/sex_indicator/weights/part_0"
  input: "linear/linear_model/sex_indicator/weights/part_0/Initializer/zeros"
  attr {
    key: "_class"
    value {
      list {
        s: "loc:@linear/linear_model/sex_indicator/weights/part_0"
      }
    }
  }
  attr {
    key: "dtype"
    value {
      type: DT_FLOAT
    }
  }
}
node {
  name: "linear/linear_model/sex_indicator/weights/part_0/Read/ReadVariableOp"
  op: "ReadVariableOp"
  input: "linear/linear_model/sex_indicator/weights/part_0"
  attr {
    key: "_class"
    value {
      list {
        s: "loc:@linear/linear_model/sex_indicator/weights/part_0"
      }
    }
  }
  attr {
    key: "_output_shapes"
    value {
      list {
        shape {
          dim {
            size: 2
          }
          dim {
            size: 1
          }
        }
      }
    }
  }
  attr {
    key: "dtype"
    value {
      type: DT_FLOAT
    }
  }
}
node {
  name: "linear/linear_model/bias_weights/part_0/Initializer/zeros"
  op: "Const"
  attr {
    key: "_class"
    value {
      list {
        s: "loc:@linear/linear_model/bias_weights/part_0"
      }
    }
  }
  attr {
    key: "_output_shapes"
    value {
      list {
        shape {
          dim {
            size: 1
          }
        }
      }
    }
  }
  attr {
    key: "dtype"
    value {
      type: DT_FLOAT
    }
  }
  attr {
    key: "value"
    value {
      tensor {
        dtype: DT_FLOAT
        tensor_shape {
          dim {
            size: 1
          }
        }
        float_val: 0.0
      }
    }
  }
}
node {
  name: "linear/linear_model/bias_weights/part_0"
  op: "VarHandleOp"
  attr {
    key: "_class"
    value {
      list {
        s: "loc:@linear/linear_model/bias_weights/part_0"
      }
    }
  }
  attr {
    key: "_output_shapes"
    value {
      list {
        shape {
        }
      }
    }
  }
  attr {
    key: "container"
    value {
      s: ""
    }
  }
  attr {
    key: "dtype"
    value {
      type: DT_FLOAT
    }
  }
  attr {
    key: "shape"
    value {
      shape {
        dim {
          size: 1
        }
      }
    }
  }
  attr {
    key: "shared_name"
    value {
      s: "linear/linear_model/bias_weights/part_0"
    }
  }
}
node {
  name: "linear/linear_model/bias_weights/part_0/IsInitialized/VarIsInitializedOp"
  op: "VarIsInitializedOp"
  input: "linear/linear_model/bias_weights/part_0"
  attr {
    key: "_output_shapes"
    value {
      list {
        shape {
        }
      }
    }
  }
}
node {
  name: "linear/linear_model/bias_weights/part_0/Assign"
  op: "AssignVariableOp"
  input: "linear/linear_model/bias_weights/part_0"
  input: "linear/linear_model/bias_weights/part_0/Initializer/zeros"
  attr {
    key: "_class"
    value {
      list {
        s: "loc:@linear/linear_model/bias_weights/part_0"
      }
    }
  }
  attr {
    key: "dtype"
    value {
      type: DT_FLOAT
    }
  }
}
node {
  name: "linear/linear_model/bias_weights/part_0/Read/ReadVariableOp"
  op: "ReadVariableOp"
  input: "linear/linear_model/bias_weights/part_0"
  attr {
    key: "_class"
    value {
      list {
        s: "loc:@linear/linear_model/bias_weights/part_0"
      }
    }
  }
  attr {
    key: "_output_shapes"
    value {
      list {
        shape {
          dim {
            size: 1
          }
        }
      }
    }
  }
  attr {
    key: "dtype"
    value {
      type: DT_FLOAT
    }
  }
}
node {
  name: "linear/linear_model/linear_model/linear_model/age/ExpandDims/dim"
  op: "Const"
  attr {
    key: "_output_shapes"
    value {
      list {
        shape {
        }
      }
    }
  }
  attr {
    key: "dtype"
    value {
      type: DT_INT32
    }
  }
  attr {
    key: "value"
    value {
      tensor {
        dtype: DT_INT32
        tensor_shape {
        }
        int_val: -1
      }
    }
  }
}
node {
  name: "linear/linear_model/linear_model/linear_model/age/ExpandDims"
  op: "ExpandDims"
  input: "IteratorGetNext"
  input: "linear/linear_model/linear_model/linear_model/age/ExpandDims/dim"
  attr {
    key: "T"
    value {
      type: DT_DOUBLE
    }
  }
  attr {
    key: "Tdim"
    value {
      type: DT_INT32
    }
  }
  attr {
    key: "_output_shapes"
    value {
      list {
        shape {
          dim {
            size: -1
          }
          dim {
            size: 1
          }
        }
      }
    }
  }
}
node {
  name: "linear/linear_model/linear_model/linear_model/age/ToFloat"
  op: "Cast"
  input: "linear/linear_model/linear_model/linear_model/age/ExpandDims"
  attr {
    key: "DstT"
    value {
      type: DT_FLOAT
    }
  }
  attr {
    key: "SrcT"
    value {
      type: DT_DOUBLE
    }
  }
  attr {
    key: "Truncate"
    value {
      b: false
    }
  }
  attr {
    key: "_output_shapes"
    value {
      list {
        shape {
          dim {
            size: -1
          }
          dim {
            size: 1
          }
        }
      }
    }
  }
}
node {
  name: "linear/linear_model/linear_model/linear_model/age/Shape"
  op: "Shape"
  input: "linear/linear_model/linear_model/linear_model/age/ToFloat"
  attr {
    key: "T"
    value {
      type: DT_FLOAT
    }
  }
  attr {
    key: "_output_shapes"
    value {
      list {
        shape {
          dim {
            size: 2
          }
        }
      }
    }
  }
  attr {
    key: "out_type"
    value {
      type: DT_INT32
    }
  }
}
node {
  name: "linear/linear_model/linear_model/linear_model/age/strided_slice/stack"
  op: "Const"
  attr {
    key: "_output_shapes"
    value {
      list {
        shape {
          dim {
            size: 1
          }
        }
      }
    }
  }
  attr {
    key: "dtype"
    value {
      type: DT_INT32
    }
  }
  attr {
    key: "value"
    value {
      tensor {
        dtype: DT_INT32
        tensor_shape {
          dim {
            size: 1
          }
        }
        int_val: 0
      }
    }
  }
}
node {
  name: "linear/linear_model/linear_model/linear_model/age/strided_slice/stack_1"
  op: "Const"
  attr {
    key: "_output_shapes"
    value {
      list {
        shape {
          dim {
            size: 1
          }
        }
      }
    }
  }
  attr {
    key: "dtype"
    value {
      type: DT_INT32
    }
  }
  attr {
    key: "value"
    value {
      tensor {
        dtype: DT_INT32
        tensor_shape {
          dim {
            size: 1
          }
        }
        int_val: 1
      }
    }
  }
}
node {
  name: "linear/linear_model/linear_model/linear_model/age/strided_slice/stack_2"
  op: "Const"
  attr {
    key: "_output_shapes"
    value {
      list {
        shape {
          dim {
            size: 1
          }
        }
      }
    }
  }
  attr {
    key: "dtype"
    value {
      type: DT_INT32
    }
  }
  attr {
    key: "value"
    value {
      tensor {
        dtype: DT_INT32
        tensor_shape {
          dim {
            size: 1
          }
        }
        int_val: 1
      }
    }
  }
}
node {
  name: "linear/linear_model/linear_model/linear_model/age/strided_slice"
  op: "StridedSlice"
  input: "linear/linear_model/linear_model/linear_model/age/Shape"
  input: "linear/linear_model/linear_model/linear_model/age/strided_slice/stack"
  input: "linear/linear_model/linear_model/linear_model/age/strided_slice/stack_1"
  input: "linear/linear_model/linear_model/linear_model/age/strided_slice/stack_2"
  attr {
    key: "Index"
    value {
      type: DT_INT32
    }
  }
  attr {
    key: "T"
    value {
      type: DT_INT32
    }
  }
  attr {
    key: "_output_shapes"
    value {
      list {
        shape {
        }
      }
    }
  }
  attr {
    key: "begin_mask"
    value {
      i: 0
    }
  }
  attr {
    key: "ellipsis_mask"
    value {
      i: 0
    }
  }
  attr {
    key: "end_mask"
    value {
      i: 0
    }
  }
  attr {
    key: "new_axis_mask"
    value {
      i: 0
    }
  }
  attr {
    key: "shrink_axis_mask"
    value {
      i: 1
    }
  }
}
node {
  name: "linear/linear_model/linear_model/linear_model/age/Reshape/shape/1"
  op: "Const"
  attr {
    key: "_output_shapes"
    value {
      list {
        shape {
        }
      }
    }
  }
  attr {
    key: "dtype"
    value {
      type: DT_INT32
    }
  }
  attr {
    key: "value"
    value {
      tensor {
        dtype: DT_INT32
        tensor_shape {
        }
        int_val: 1
      }
    }
  }
}
node {
  name: "linear/linear_model/linear_model/linear_model/age/Reshape/shape"
  op: "Pack"
  input: "linear/linear_model/linear_model/linear_model/age/strided_slice"
  input: "linear/linear_model/linear_model/linear_model/age/Reshape/shape/1"
  attr {
    key: "N"
    value {
      i: 2
    }
  }
  attr {
    key: "T"
    value {
      type: DT_INT32
    }
  }
  attr {
    key: "_output_shapes"
    value {
      list {
        shape {
          dim {
            size: 2
          }
        }
      }
    }
  }
  attr {
    key: "axis"
    value {
      i: 0
    }
  }
}
node {
  name: "linear/linear_model/linear_model/linear_model/age/Reshape"
  op: "Reshape"
  input: "linear/linear_model/linear_model/linear_model/age/ToFloat"
  input: "linear/linear_model/linear_model/linear_model/age/Reshape/shape"
  attr {
    key: "T"
    value {
      type: DT_FLOAT
    }
  }
  attr {
    key: "Tshape"
    value {
      type: DT_INT32
    }
  }
  attr {
    key: "_output_shapes"
    value {
      list {
        shape {
          dim {
            size: -1
          }
          dim {
            size: 1
          }
        }
      }
    }
  }
}
node {
  name: "linear/linear_model/age/weights/ReadVariableOp"
  op: "ReadVariableOp"
  input: "linear/linear_model/age/weights/part_0"
  attr {
    key: "_output_shapes"
    value {
      list {
        shape {
          dim {
            size: 1
          }
          dim {
            size: 1
          }
        }
      }
    }
  }
  attr {
    key: "dtype"
    value {
      type: DT_FLOAT
    }
  }
}
node {
  name: "linear/linear_model/age/weights"
  op: "Identity"
  input: "linear/linear_model/age/weights/ReadVariableOp"
  attr {
    key: "T"
    value {
      type: DT_FLOAT
    }
  }
  attr {
    key: "_output_shapes"
    value {
      list {
        shape {
          dim {
            size: 1
          }
          dim {
            size: 1
          }
        }
      }
    }
  }
}
node {
  name: "linear/linear_model/linear_model/linear_model/age/weighted_sum"
  op: "MatMul"
  input: "linear/linear_model/linear_model/linear_model/age/Reshape"
  input: "linear/linear_model/age/weights"
  attr {
    key: "T"
    value {
      type: DT_FLOAT
    }
  }
  attr {
    key: "_output_shapes"
    value {
      list {
        shape {
          dim {
            size: -1
          }
          dim {
            size: 1
          }
        }
      }
    }
  }
  attr {
    key: "transpose_a"
    value {
      b: false
    }
  }
  attr {
    key: "transpose_b"
    value {
      b: false
    }
  }
}
node {
  name: "linear/linear_model/linear_model/linear_model/alone_indicator/ExpandDims/dim"
  op: "Const"
  attr {
    key: "_output_shapes"
    value {
      list {
        shape {
        }
      }
    }
  }
  attr {
    key: "dtype"
    value {
      type: DT_INT32
    }
  }
  attr {
    key: "value"
    value {
      tensor {
        dtype: DT_INT32
        tensor_shape {
        }
        int_val: -1
      }
    }
  }
}
node {
  name: "linear/linear_model/linear_model/linear_model/alone_indicator/ExpandDims"
  op: "ExpandDims"
  input: "IteratorGetNext:1"
  input: "linear/linear_model/linear_model/linear_model/alone_indicator/ExpandDims/dim"
  attr {
    key: "T"
    value {
      type: DT_STRING
    }
  }
  attr {
    key: "Tdim"
    value {
      type: DT_INT32
    }
  }
  attr {
    key: "_output_shapes"
    value {
      list {
        shape {
          dim {
            size: -1
          }
          dim {
            size: 1
          }
        }
      }
    }
  }
}
node {
…
            size: 1
          }
        }
      }
    }
  }
}
node {
  name: "save/Identity_101"
  op: "Identity"
  input: "save/Identity_100"
  device: "/device:CPU:0"
  attr {
    key: "T"
    value {
      type: DT_FLOAT
    }
  }
  attr {
    key: "_output_shapes"
    value {
      list {
        shape {
          dim {
            size: 1
          }
          dim {
            size: 1
          }
        }
      }
    }
  }
}
node {
  name: "save/Read_51/ReadVariableOp"
  op: "ReadVariableOp"
  input: "linear/linear_model/n_siblings_spouses_indicator/weights/part_0"
  device: "/device:CPU:0"
  attr {
    key: "_output_shapes"
    value {
      list {
        shape {
          dim {
            size: 7
          }
          dim {
            size: 1
          }
        }
      }
    }
  }
  attr {
    key: "dtype"
    value {
      type: DT_FLOAT
    }
  }
}
node {
  name: "save/Identity_102"
  op: "Identity"
  input: "save/Read_51/ReadVariableOp"
  device: "/device:CPU:0"
  attr {
    key: "T"
    value {
      type: DT_FLOAT
    }
  }
  attr {
    key: "_output_shapes"
    value {
      list {
        shape {
          dim {
            size: 7
          }
          dim {
            size: 1
          }
        }
      }
    }
  }
}
node {
  name: "save/Identity_103"
  op: "Identity"
  input: "save/Identity_102"
  device: "/device:CPU:0"
  attr {
    key: "T"
    value {
      type: DT_FLOAT
    }
  }
  attr {
    key: "_output_shapes"
    value {
      list {
        shape {
          dim {
            size: 7
          }
          dim {
            size: 1
          }
        }
      }
    }
  }
}
node {
  name: "save/Read_52/ReadVariableOp"
  op: "ReadVariableOp"
  input: "linear/linear/linear_model/n_siblings_spouses_indicator/weights/part_0/Ftrl"
  device: "/device:CPU:0"
  attr {
    key: "_output_shapes"
    value {
      list {
        shape {
          dim {
            size: 7
          }
          dim {
            size: 1
          }
        }
      }
    }
  }
  attr {
    key: "dtype"
    value {
      type: DT_FLOAT
    }
  }
}
node {
  name: "save/Identity_104"
  op: "Identity"
  input: "save/Read_52/ReadVariableOp"
  device: "/device:CPU:0"
  attr {
    key: "T"
    value {
      type: DT_FLOAT
    }
  }
  attr {
    key: "_output_shapes"
    value {
      list {
        shape {
          dim {
            size: 7
          }
          dim {
            size: 1
          }
        }
      }
    }
  }
}
node {
  name: "save/Identity_105"
  op: "Identity"
  input: "save/Identity_104"
  device: "/device:CPU:0"
  attr {
    key: "T"
    value {
      type: DT_FLOAT
    }
  }
  attr {
    key: "_output_shapes"
    value {
      list {
        shape {
          dim {
            size: 7
          }
          dim {
            size: 1
          }
        }
      }
    }
  }
}
node {
  name: "save/Read_53/ReadVariableOp"
  op: "ReadVariableOp"
  input: "linear/linear/linear_model/n_siblings_spouses_indicator/weights/part_0/Ftrl_1"
  device: "/device:CPU:0"
  attr {
    key: "_output_shapes"
    value {
      list {
        shape {
          dim {
            size: 7
          }
          dim {
            size: 1
          }
        }
      }
    }
  }
  attr {
    key: "dtype"
    value {
      type: DT_FLOAT
    }
  }
}
node {
  name: "save/Identity_106"
  op: "Identity"
  input: "save/Read_53/ReadVariableOp"
  device: "/device:CPU:0"
  attr {
    key: "T"
    value {
      type: DT_FLOAT
    }
  }
  attr {
    key: "_output_shapes"
    value {
      list {
        shape {
          dim {
            size: 7
          }
          dim {
            size: 1
          }
        }
      }
    }
  }
}
node {
  name: "save/Identity_107"
  op: "Identity"
  input: "save/Identity_106"
  device: "/device:CPU:0"
  attr {
    key: "T"
    value {
      type: DT_FLOAT
    }
  }
  attr {
    key: "_output_shapes"
    value {
      list {
        shape {
          dim {
            size: 7
          }
          dim {
            size: 1
          }
        }
      }
    }
  }
}
node {
  name: "save/Read_54/ReadVariableOp"
  op: "ReadVariableOp"
  input: "linear/linear_model/parch_indicator/weights/part_0"
  device: "/device:CPU:0"
  attr {
    key: "_output_shapes"
    value {
      list {
        shape {
          dim {
            size: 6
          }
          dim {
            size: 1
          }
        }
      }
    }
  }
  attr {
    key: "dtype"
    value {
      type: DT_FLOAT
    }
  }
}
node {
  name: "save/Identity_108"
  op: "Identity"
  input: "save/Read_54/ReadVariableOp"
  device: "/device:CPU:0"
  attr {
    key: "T"
    value {
      type: DT_FLOAT
    }
  }
  attr {
    key: "_output_shapes"
    value {
      list {
        shape {
          dim {
            size: 6
          }
          dim {
            size: 1
          }
        }
      }
    }
  }
}
node {
  name: "save/Identity_109"
  op: "Identity"
  input: "save/Identity_108"
  device: "/device:CPU:0"
  attr {
    key: "T"
    value {
      type: DT_FLOAT
    }
  }
  attr {
    key: "_output_shapes"
    value {
      list {
        shape {
          dim {
            size: 6
          }
          dim {
            size: 1
          }
        }
      }
    }
  }
}
node {
  name: "save/Read_55/ReadVariableOp"
  op: "ReadVariableOp"
  input: "linear/linear/linear_model/parch_indicator/weights/part_0/Ftrl"
  device: "/device:CPU:0"
  attr {
    key: "_output_shapes"
    value {
      list {
        shape {
          dim {
            size: 6
          }
          dim {
            size: 1
          }
        }
      }
    }
  }
  attr {
    key: "dtype"
    value {
      type: DT_FLOAT
    }
  }
}
node {
  name: "save/Identity_110"
  op: "Identity"
  input: "save/Read_55/ReadVariableOp"
  device: "/device:CPU:0"
  attr {
    key: "T"
    value {
      type: DT_FLOAT
    }
  }
  attr {
    key: "_output_shapes"
    value {
      list {
        shape {
          dim {
            size: 6
          }
          dim {
            size: 1
          }
        }
      }
    }
  }
}
node {
  name: "save/Identity_111"
  op: "Identity"
  input: "save/Identity_110"
  device: "/device:CPU:0"
  attr {
    key: "T"
    value {
      type: DT_FLOAT
    }
  }
  attr {
    key: "_output_shapes"
    value {
      list {
        shape {
          dim {
            size: 6
          }
          dim {
            size: 1
          }
        }
      }
    }
  }
}
node {
  name: "save/Read_56/ReadVariableOp"
  op: "ReadVariableOp"
  input: "linear/linear/linear_model/parch_indicator/weights/part_0/Ftrl_1"
  device: "/device:CPU:0"
  attr {
    key: "_output_shapes"
    value {
      list {
        shape {
          dim {
            size: 6
          }
          dim {
            size: 1
          }
        }
      }
    }
  }
  attr {
    key: "dtype"
    value {
      type: DT_FLOAT
    }
  }
}
node {
  name: "save/Identity_112"
  op: "Identity"
  input: "save/Read_56/ReadVariableOp"
  device: "/device:CPU:0"
  attr {
    key: "T"
    value {
      type: DT_FLOAT
    }
  }
  attr {
    key: "_output_shapes"
    value {
      list {
        shape {
          dim {
            size: 6
          }
          dim {
            size: 1
          }
        }
      }
    }
  }
}
node {
  name: "save/Identity_113"
  op: "Identity"
  input: "save/Identity_112"
  device: "/device:CPU:0"
  attr {
    key: "T"
    value {
      type: DT_FLOAT
    }
  }
  attr {
    key: "_output_shapes"
    value {
      list {
        shape {
          dim {
            size: 6
          }
          dim {
            size: 1
          }
        }
      }
    }
  }
}
node {
  name: "save/Read_57/ReadVariableOp"
  op: "ReadVariableOp"
  input: "linear/linear_model/sex_indicator/weights/part_0"
  device: "/device:CPU:0"
  attr {
    key: "_output_shapes"
    value {
      list {
        shape {
          dim {
            size: 2
          }
          dim {
            size: 1
          }
        }
      }
    }
  }
  attr {
    key: "dtype"
    value {
      type: DT_FLOAT
    }
  }
}
node {
  name: "save/Identity_114"
  op: "Identity"
  input: "save/Read_57/ReadVariableOp"
  device: "/device:CPU:0"
  attr {
    key: "T"
    value {
      type: DT_FLOAT
    }
  }
  attr {
    key: "_output_shapes"
    value {
      list {
        shape {
          dim {
            size: 2
          }
          dim {
            size: 1
          }
        }
      }
    }
  }
}
node {
  name: "save/Identity_115"
  op: "Identity"
  input: "save/Identity_114"
  device: "/device:CPU:0"
  attr {
    key: "T"
    value {
      type: DT_FLOAT
    }
  }
  attr {
    key: "_output_shapes"
    value {
      list {
        shape {
          dim {
            size: 2
          }
          dim {
            size: 1
          }
        }
      }
    }
  }
}
node {
  name: "save/Read_58/ReadVariableOp"
  op: "ReadVariableOp"
  input: "linear/linear/linear_model/sex_indicator/weights/part_0/Ftrl"
  device: "/device:CPU:0"
  attr {
    key: "_output_shapes"
    value {
      list {
        shape {
          dim {
            size: 2
          }
          dim {
            size: 1
          }
        }
      }
    }
  }
  attr {
    key: "dtype"
    value {
      type: DT_FLOAT
    }
  }
}
node {
  name: "save/Identity_116"
  op: "Identity"
  input: "save/Read_58/ReadVariableOp"
  device: "/device:CPU:0"
  attr {
    key: "T"
    value {
      type: DT_FLOAT
    }
  }
  attr {
    key: "_output_shapes"
    value {
      list {
        shape {
          dim {
            size: 2
          }
          dim {
            size: 1
          }
        }
      }
    }
  }
}
node {
  name: "save/Identity_117"
  op: "Identity"
  input: "save/Identity_116"
  device: "/device:CPU:0"
  attr {
    key: "T"
    value {
      type: DT_FLOAT
    }
  }
  attr {
    key: "_output_shapes"
    value {
      list {
        shape {
          dim {
            size: 2
          }
          dim {
            size: 1
          }
        }
      }
    }
  }
}
node {
  name: "save/Read_59/ReadVariableOp"
  op: "ReadVariableOp"
  input: "linear/linear/linear_model/sex_indicator/weights/part_0/Ftrl_1"
  device: "/device:CPU:0"
  attr {
    key: "_output_shapes"
    value {
      list {
        shape {
          dim {
            size: 2
          }
          dim {
            size: 1
          }
        }
      }
    }
  }
  attr {
    key: "dtype"
    value {
      type: DT_FLOAT
    }
  }
}
node {
  name: "save/Identity_118"
  op: "Identity"
  input: "save/Read_59/ReadVariableOp"
  device: "/device:CPU:0"
  attr {
    key: "T"
    value {
      type: DT_FLOAT
    }
  }
  attr {
    key: "_output_shapes"
    value {
      list {
        shape {
          dim {
            size: 2
          }
          dim {
            size: 1
          }
        }
      }
    }
  }
}
node {
  name: "save/Identity_119"
  op: "Identity"
  input: "save/Identity_118"
  device: "/device:CPU:0"
  attr {
    key: "T"
    value {
      type: DT_FLOAT
    }
  }
  attr {
    key: "_output_shapes"
    value {
      list {
        shape {
          dim {
            size: 2
          }
          dim {
            size: 1
          }
        }
      }
    }
  }
}
node {
  name: "save/SaveV2_1/tensor_names"
  op: "Const"
  device: "/device:CPU:0"
  attr {
    key: "_output_shapes"
    value {
      list {
        shape {
          dim {
            size: 30
          }
        }
      }
    }
  }
  attr {
    key: "dtype"
    value {
      type: DT_STRING
    }
  }
  attr {
    key: "value"
    value {
      tensor {
        dtype: DT_STRING
        tensor_shape {
          dim {
            size: 30
          }
        }
        string_val: "linear/linear_model/age/weights"
        string_val: "linear/linear_model/age/weights/part_0/Ftrl"
        string_val: "linear/linear_model/age/weights/part_0/Ftrl_1"
        string_val: "linear/linear_model/alone_indicator/weights"
        string_val: "linear/linear_model/alone_indicator/weights/part_0/Ftrl"
        string_val: "linear/linear_model/alone_indicator/weights/part_0/Ftrl_1"
        string_val: "linear/linear_model/bias_weights"
        string_val: "linear/linear_model/bias_weights/part_0/Ftrl"
        string_val: "linear/linear_model/bias_weights/part_0/Ftrl_1"
        string_val: "linear/linear_model/class_indicator/weights"
        string_val: "linear/linear_model/class_indicator/weights/part_0/Ftrl"
        string_val: "linear/linear_model/class_indicator/weights/part_0/Ftrl_1"
        string_val: "linear/linear_model/deck_indicator/weights"
        string_val: "linear/linear_model/deck_indicator/weights/part_0/Ftrl"
        string_val: "linear/linear_model/deck_indicator/weights/part_0/Ftrl_1"
        string_val: "linear/linear_model/embark_town_indicator/weights"
        string_val: "linear/linear_model/embark_town_indicator/weights/part_0/Ftrl"
        string_val: "linear/linear_model/embark_town_indicator/weights/part_0/Ftrl_1"
        string_val: "linear/linear_model/fare/weights"
        string_val: "linear/linear_model/fare/weights/part_0/Ftrl"
        string_val: "linear/linear_model/fare/weights/part_0/Ftrl_1"
        string_val: "linear/linear_model/n_siblings_spouses_indicator/weights"
        string_val: "linear/linear_model/n_siblings_spouses_indicator/weights/part_0/Ftrl"
        string_val: "linear/linear_model/n_siblings_spouses_indicator/weights/part_0/Ftrl_1"
        string_val: "linear/linear_model/parch_indicator/weights"
        string_val: "linear/linear_model/parch_indicator/weights/part_0/Ftrl"
        string_val: "linear/linear_model/parch_indicator/weights/part_0/Ftrl_1"
        string_val: "linear/linear_model/sex_indicator/weights"
        string_val: "linear/linear_model/sex_indicator/weights/part_0/Ftrl"
        string_val: "linear/linear_model/sex_indicator/weights/part_0/Ftrl_1"
      }
    }
  }
}
node {
  name: "save/SaveV2_1/shape_and_slices"
  op: "Const"
  device: "/device:CPU:0"
  attr {
    key: "_output_shapes"
    value {
      list {
        shape {
          dim {
            size: 30
          }
        }
      }
    }
  }
  attr {
    key: "dtype"
    value {
      type: DT_STRING
    }
  }
  attr {
    key: "value"
    value {
      tensor {
        dtype: DT_STRING
        tensor_shape {
          dim {
            size: 30
          }
        }
        string_val: "1 1 0,1:0,1"
        string_val: "1 1 0,1:0,1"
        string_val: "1 1 0,1:0,1"
        string_val: "2 1 0,2:0,1"
        string_val: "2 1 0,2:0,1"
        string_val: "2 1 0,2:0,1"
        string_val: "1 0,1"
        string_val: "1 0,1"
        string_val: "1 0,1"
        string_val: "3 1 0,3:0,1"
        string_val: "3 1 0,3:0,1"
        string_val: "3 1 0,3:0,1"
        string_val: "8 1 0,8:0,1"
        string_val: "8 1 0,8:0,1"
        string_val: "8 1 0,8:0,1"
        string_val: "4 1 0,4:0,1"
        string_val: "4 1 0,4:0,1"
        string_val: "4 1 0,4:0,1"
        string_val: "1 1 0,1:0,1"
        string_val: "1 1 0,1:0,1"
        string_val: "1 1 0,1:0,1"
        string_val: "7 1 0,7:0,1"
        string_val: "7 1 0,7:0,1"
        string_val: "7 1 0,7:0,1"
        string_val: "6 1 0,6:0,1"
        string_val: "6 1 0,6:0,1"
        string_val: "6 1 0,6:0,1"
        string_val: "2 1 0,2:0,1"
        string_val: "2 1 0,2:0,1"
        string_val: "2 1 0,2:0,1"
      }
    }
  }
}
node {
  name: "save/SaveV2_1"
  op: "SaveV2"
  input: "save/ShardedFilename_1"
  input: "save/SaveV2_1/tensor_names"
  input: "save/SaveV2_1/shape_and_slices"
  input: "save/Identity_61"
  input: "save/Identity_63"
  input: "save/Identity_65"
  input: "save/Identity_67"
  input: "save/Identity_69"
  input: "save/Identity_71"
  input: "save/Identity_73"
  input: "save/Identity_75"
  input: "save/Identity_77"
  input: "save/Identity_79"
  input: "save/Identity_81"
  input: "save/Identity_83"
  input: "save/Identity_85"
  input: "save/Identity_87"
  input: "save/Identity_89"
  input: "save/Identity_91"
  input: "save/Identity_93"
  input: "save/Identity_95"
  input: "save/Identity_97"
  input: "save/Identity_99"
  input: "save/Identity_101"
  input: "save/Identity_103"
  input: "save/Identity_105"
  input: "save/Identity_107"
  input: "save/Identity_109"
  input: "save/Identity_111"
  input: "save/Identity_113"
  input: "save/Identity_115"
  input: "save/Identity_117"
  input: "save/Identity_119"
  device: "/device:CPU:0"
  attr {
    key: "dtypes"
    value {
      list {
        type: DT_FLOAT
        type: DT_FLOAT
        type: DT_FLOAT
        type: DT_FLOAT
        type: DT_FLOAT
        type: DT_FLOAT
        type: DT_FLOAT
        type: DT_FLOAT
        type: DT_FLOAT
        type: DT_FLOAT
        type: DT_FLOAT
        type: DT_FLOAT
        type: DT_FLOAT
        type: DT_FLOAT
        type: DT_FLOAT
        type: DT_FLOAT
        type: DT_FLOAT
        type: DT_FLOAT
        type: DT_FLOAT
        type: DT_FLOAT
        type: DT_FLOAT
        type: DT_FLOAT
        type: DT_FLOAT
        type: DT_FLOAT
        type: DT_FLOAT
        type: DT_FLOAT
        type: DT_FLOAT
        type: DT_FLOAT
        type: DT_FLOAT
        type: DT_FLOAT
      }
    }
  }
}
node {
  name: "save/control_dependency_1"
  op: "Identity"
  input: "save/ShardedFilename_1"
  input: "^save/SaveV2_1"
  device: "/device:CPU:0"
  attr {
    key: "T"
    value {
      type: DT_STRING
    }
  }
  attr {
    key: "_class"
    value {
      list {
        s: "loc:@save/ShardedFilename_1"
      }
    }
  }
  attr {
    key: "_output_shapes"
    value {
      list {
        shape {
        }
      }
    }
  }
}
node {
  name: "save/MergeV2Checkpoints/checkpoint_prefixes"
  op: "Pack"
  input: "save/ShardedFilename"
  input: "save/ShardedFilename_1"
  input: "^save/control_dependency"
  input: "^save/control_dependency_1"
  device: "/device:CPU:0"
  attr {
    key: "N"
    value {
      i: 2
    }
  }
  attr {
    key: "T"
    value {
      type: DT_STRING
    }
  }
  attr {
    key: "_output_shapes"
    value {
      list {
        shape {
          dim {
            size: 2
          }
        }
      }
    }
  }
  attr {
    key: "axis"
    value {
      i: 0
    }
  }
}
node {
  name: "save/MergeV2Checkpoints"
  op: "MergeV2Checkpoints"
  input: "save/MergeV2Checkpoints/checkpoint_prefixes"
  input: "save/Const"
  device: "/device:CPU:0"
  attr {
    key: "delete_old_dirs"
    value {
      b: true
    }
  }
}
node {
  name: "save/Identity_120"
  op: "Identity"
  input: "save/Const"
  input: "^save/MergeV2Checkpoints"
  input: "^save/control_dependency"
  input: "^save/control_dependency_1"
  device: "/device:CPU:0"
  attr {
    key: "T"
    value {
      type: DT_STRING
    }
  }
  attr {
    key: "_output_shapes"
    value {
      list {
        shape {
        }
      }
    }
  }
}
node {
  name: "save/RestoreV2/tensor_names"
  op: "Const"
  device: "/device:CPU:0"
  attr {
    key: "_output_shapes"
    value {
      list {
        shape {
          dim {
            size: 1
          }
        }
      }
    }
  }
  attr {
    key: "dtype"
    value {
      type: DT_STRING
    }
  }
  attr {
    key: "value"
    value {
      tensor {
        dtype: DT_STRING
        tensor_shape {
          dim {
            size: 1
          }
        }
        string_val: "global_step"
      }
    }
  }
}
node {
  name: "save/RestoreV2/shape_and_slices"
  op: "Const"
  device: "/device:CPU:0"
  attr {
    key: "_output_shapes"
    value {
      list {
        shape {
          dim {
            size: 1
          }
        }
      }
    }
  }
  attr {
    key: "dtype"
    value {
      type: DT_STRING
    }
  }
  attr {
    key: "value"
    value {
      tensor {
        dtype: DT_STRING
        tensor_shape {
          dim {
            size: 1
          }
        }
        string_val: ""
      }
    }
  }
}
node {
  name: "save/RestoreV2"
  op: "RestoreV2"
  input: "save/Const"
  input: "save/RestoreV2/tensor_names"
  input: "save/RestoreV2/shape_and_slices"
  device: "/device:CPU:0"
  attr {
    key: "_output_shapes"
    value {
      list {
        shape {
          unknown_rank: true
        }
      }
    }
  }
  attr {
    key: "dtypes"
    value {
      list {
        type: DT_INT64
      }
    }
  }
}
node {
  name: "save/Identity_121"
  op: "Identity"
  input: "save/RestoreV2"
  attr {
    key: "T"
    value {
      type: DT_INT64
    }
  }
  attr {
    key: "_output_shapes"
    value {
      list {
        shape {
          unknown_rank: true
        }
      }
    }
  }
}
node {
  name: "save/AssignVariableOp"
  op: "AssignVariableOp"
  input: "global_step"
  input: "save/Identity_121"
  attr {
    key: "dtype"
    value {
      type: DT_INT64
    }
  }
}
node {
  name: "save/restore_shard"
  op: "NoOp"
  input: "^save/AssignVariableOp"
}
node {
  name: "save/RestoreV2_1/tensor_names"
  op: "Const"
  device: "/device:CPU:0"
  attr {
    key: "_output_shapes"
    value {
      list {
        shape {
          dim {
            size: 30
          }
        }
      }
    }
  }
  attr {
    key: "dtype"
    value {
      type: DT_STRING
    }
  }
  attr {
    key: "value"
    value {
      tensor {
        dtype: DT_STRING
        tensor_shape {
          dim {
            size: 30
          }
        }
        string_val: "linear/linear_model/age/weights"
        string_val: "linear/linear_model/age/weights/part_0/Ftrl"
        string_val: "linear/linear_model/age/weights/part_0/Ftrl_1"
        string_val: "linear/linear_model/alone_indicator/weights"
        string_val: "linear/linear_model/alone_indicator/weights/part_0/Ftrl"
        string_val: "linear/linear_model/alone_indicator/weights/part_0/Ftrl_1"
        string_val: "linear/linear_model/bias_weights"
        string_val: "linear/linear_model/bias_weights/part_0/Ftrl"
        string_val: "linear/linear_model/bias_weights/part_0/Ftrl_1"
        string_val: "linear/linear_model/class_indicator/weights"
        string_val: "linear/linear_model/class_indicator/weights/part_0/Ftrl"
        string_val: "linear/linear_model/class_indicator/weights/part_0/Ftrl_1"
        string_val: "linear/linear_model/deck_indicator/weights"
        string_val: "linear/linear_model/deck_indicator/weights/part_0/Ftrl"
        string_val: "linear/linear_model/deck_indicator/weights/part_0/Ftrl_1"
        string_val: "linear/linear_model/embark_town_indicator/weights"
        string_val: "linear/linear_model/embark_town_indicator/weights/part_0/Ftrl"
        string_val: "linear/linear_model/embark_town_indicator/weights/part_0/Ftrl_1"
        string_val: "linear/linear_model/fare/weights"
        string_val: "linear/linear_model/fare/weights/part_0/Ftrl"
        string_val: "linear/linear_model/fare/weights/part_0/Ftrl_1"
        string_val: "linear/linear_model/n_siblings_spouses_indicator/weights"
        string_val: "linear/linear_model/n_siblings_spouses_indicator/weights/part_0/Ftrl"
        string_val: "linear/linear_model/n_siblings_spouses_indicator/weights/part_0/Ftrl_1"
        string_val: "linear/linear_model/parch_indicator/weights"
        string_val: "linear/linear_model/parch_indicator/weights/part_0/Ftrl"
        string_val: "linear/linear_model/parch_indicator/weights/part_0/Ftrl_1"
        string_val: "linear/linear_model/sex_indicator/weights"
        string_val: "linear/linear_model/sex_indicator/weights/part_0/Ftrl"
        string_val: "linear/linear_model/sex_indicator/weights/part_0/Ftrl_1"
      }
    }
  }
}
node {
  name: "save/RestoreV2_1/shape_and_slices"
  op: "Const"
  device: "/device:CPU:0"
  attr {
    key: "_output_shapes"
    value {
      list {
        shape {
          dim {
            size: 30
          }
        }
      }
    }
  }
  attr {
    key: "dtype"
    value {
      type: DT_STRING
    }
  }
  attr {
    key: "value"
    value {
      tensor {
        dtype: DT_STRING
        tensor_shape {
          dim {
            size: 30
          }
        }
        string_val: "1 1 0,1:0,1"
        string_val: "1 1 0,1:0,1"
        string_val: "1 1 0,1:0,1"
        string_val: "2 1 0,2:0,1"
        string_val: "2 1 0,2:0,1"
        string_val: "2 1 0,2:0,1"
        string_val: "1 0,1"
        string_val: "1 0,1"
        string_val: "1 0,1"
        string_val: "3 1 0,3:0,1"
        string_val: "3 1 0,3:0,1"
        string_val: "3 1 0,3:0,1"
        string_val: "8 1 0,8:0,1"
        string_val: "8 1 0,8:0,1"
        string_val: "8 1 0,8:0,1"
        string_val: "4 1 0,4:0,1"
        string_val: "4 1 0,4:0,1"
        string_val: "4 1 0,4:0,1"
        string_val: "1 1 0,1:0,1"
        string_val: "1 1 0,1:0,1"
        string_val: "1 1 0,1:0,1"
        string_val: "7 1 0,7:0,1"
        string_val: "7 1 0,7:0,1"
        string_val: "7 1 0,7:0,1"
        string_val: "6 1 0,6:0,1"
        string_val: "6 1 0,6:0,1"
        string_val: "6 1 0,6:0,1"
        string_val: "2 1 0,2:0,1"
        string_val: "2 1 0,2:0,1"
        string_val: "2 1 0,2:0,1"
      }
    }
  }
}
node {
  name: "save/RestoreV2_1"
  op: "RestoreV2"
  input: "save/Const"
  input: "save/RestoreV2_1/tensor_names"
  input: "save/RestoreV2_1/shape_and_slices"
  device: "/device:CPU:0"
  attr {
    key: "_output_shapes"
    value {
      list {
        shape {
          dim {
            size: 1
          }
          dim {
            size: 1
          }
        }
        shape {
          dim {
            size: 1
          }
          dim {
            size: 1
          }
        }
        shape {
          dim {
            size: 1
          }
          dim {
            size: 1
          }
        }
        shape {
          dim {
            size: 2
          }
          dim {
            size: 1
          }
        }
        shape {
          dim {
            size: 2
          }
          dim {
            size: 1
          }
        }
        shape {
          dim {
            size: 2
          }
          dim {
            size: 1
          }
        }
        shape {
          dim {
            size: 1
          }
        }
        shape {
          dim {
            size: 1
          }
        }
        shape {
          dim {
            size: 1
          }
        }
        shape {
          dim {
            size: 3
          }
          dim {
            size: 1
          }
        }
        shape {
          dim {
            size: 3
          }
          dim {
            size: 1
          }
        }
        shape {
          dim {
            size: 3
          }
          dim {
            size: 1
          }
        }
        shape {
          dim {
            size: 8
          }
          dim {
            size: 1
          }
        }
        shape {
          dim {
            size: 8
          }
          dim {
            size: 1
          }
        }
        shape {
          dim {
            size: 8
          }
          dim {
            size: 1
          }
        }
        shape {
          dim {
            size: 4
          }
          dim {
            size: 1
          }
        }
        shape {
          dim {
            size: 4
          }
          dim {
            size: 1
          }
        }
        shape {
          dim {
            size: 4
          }
          dim {
            size: 1
          }
        }
        shape {
          dim {
            size: 1
          }
          dim {
            size: 1
          }
        }
        shape {
          dim {
            size: 1
          }
          dim {
            size: 1
          }
        }
        shape {
          dim {
            size: 1
          }
          dim {
            size: 1
          }
        }
        shape {
          dim {
            size: 7
          }
          dim {
            size: 1
          }
        }
        shape {
          dim {
            size: 7
          }
          dim {
            size: 1
          }
        }
        shape {
          dim {
            size: 7
          }
          dim {
            size: 1
          }
        }
        shape {
          dim {
            size: 6
          }
          dim {
            size: 1
          }
        }
        shape {
          dim {
            size: 6
          }
          dim {
            size: 1
          }
        }
        shape {
          dim {
            size: 6
          }
          dim {
            size: 1
          }
        }
        shape {
          dim {
            size: 2
          }
          dim {
            size: 1
          }
        }
        shape {
          dim {
            size: 2
          }
          dim {
            size: 1
          }
        }
        shape {
          dim {
            size: 2
          }
          dim {
            size: 1
          }
        }
      }
    }
  }
  attr {
    key: "dtypes"
    value {
      list {
        type: DT_FLOAT
        type: DT_FLOAT
        type: DT_FLOAT
        type: DT_FLOAT
        type: DT_FLOAT
        type: DT_FLOAT
        type: DT_FLOAT
        type: DT_FLOAT
        type: DT_FLOAT
        type: DT_FLOAT
        type: DT_FLOAT
        type: DT_FLOAT
        type: DT_FLOAT
        type: DT_FLOAT
        type: DT_FLOAT
        type: DT_FLOAT
        type: DT_FLOAT
        type: DT_FLOAT
        type: DT_FLOAT
        type: DT_FLOAT
        type: DT_FLOAT
        type: DT_FLOAT
        type: DT_FLOAT
        type: DT_FLOAT
        type: DT_FLOAT
        type: DT_FLOAT
        type: DT_FLOAT
        type: DT_FLOAT
        type: DT_FLOAT
        type: DT_FLOAT
      }
    }
  }
}
node {
  name: "save/Identity_122"
  op: "Identity"
  input: "save/RestoreV2_1"
  device: "/device:CPU:0"
  attr {
    key: "T"
    value {
      type: DT_FLOAT
    }
  }
  attr {
    key: "_output_shapes"
    value {
      list {
        shape {
          dim {
            size: 1
          }
          dim {
            size: 1
          }
        }
      }
    }
  }
}
node {
  name: "save/AssignVariableOp_1"
  op: "AssignVariableOp"
  input: "linear/linear_model/age/weights/part_0"
  input: "save/Identity_122"
  device: "/device:CPU:0"
  attr {
    key: "dtype"
    value {
      type: DT_FLOAT
    }
  }
}
node {
  name: "save/Identity_123"
  op: "Identity"
  input: "save/RestoreV2_1:1"
  device: "/device:CPU:0"
  attr {
    key: "T"
    value {
      type: DT_FLOAT
    }
  }
  attr {
    key: "_output_shapes"
    value {
      list {
        shape {
          dim {
            size: 1
          }
          dim {
            size: 1
          }
        }
      }
    }
  }
}
node {
  name: "save/AssignVariableOp_2"
  op: "AssignVariableOp"
  input: "linear/linear/linear_model/age/weights/part_0/Ftrl"
  input: "save/Identity_123"
  device: "/device:CPU:0"
  attr {
    key: "dtype"
    value {
      type: DT_FLOAT
    }
  }
}
node {
  name: "save/Identity_124"
  op: "Identity"
  input: "save/RestoreV2_1:2"
  device: "/device:CPU:0"
  attr {
    key: "T"
    value {
      type: DT_FLOAT
    }
  }
  attr {
    key: "_output_shapes"
    value {
      list {
        shape {
          dim {
            size: 1
          }
          dim {
            size: 1
          }
        }
      }
    }
  }
}
node {
  name: "save/AssignVariableOp_3"
  op: "AssignVariableOp"
  input: "linear/linear/linear_model/age/weights/part_0/Ftrl_1"
  input: "save/Identity_124"
  device: "/device:CPU:0"
  attr {
    key: "dtype"
    value {
      type: DT_FLOAT
    }
  }
}
node {
  name: "save/Identity_125"
  op: "Identity"
  input: "save/RestoreV2_1:3"
  device: "/device:CPU:0"
  attr {
    key: "T"
    value {
      type: DT_FLOAT
    }
  }
  attr {
    key: "_output_shapes"
    value {
      list {
        shape {
          dim {
            size: 2
          }
          dim {
            size: 1
          }
        }
      }
    }
  }
}
node {
  name: "save/AssignVariableOp_4"
  op: "AssignVariableOp"
  input: "linear/linear_model/alone_indicator/weights/part_0"
  input: "save/Identity_125"
  device: "/device:CPU:0"
  attr {
    key: "dtype"
    value {
      type: DT_FLOAT
    }
  }
}
node {
  name: "save/Identity_126"
  op: "Identity"
  input: "save/RestoreV2_1:4"
  device: "/device:CPU:0"
  attr {
    key: "T"
    value {
      type: DT_FLOAT
    }
  }
  attr {
    key: "_output_shapes"
    value {
      list {
        shape {
          dim {
            size: 2
          }
          dim {
            size: 1
          }
        }
      }
    }
  }
}
node {
  name: "save/AssignVariableOp_5"
  op: "AssignVariableOp"
  input: "linear/linear/linear_model/alone_indicator/weights/part_0/Ftrl"
  input: "save/Identity_126"
  device: "/device:CPU:0"
  attr {
    key: "dtype"
    value {
      type: DT_FLOAT
    }
  }
}
node {
  name: "save/Identity_127"
  op: "Identity"
  input: "save/RestoreV2_1:5"
  device: "/device:CPU:0"
  attr {
    key: "T"
    value {
      type: DT_FLOAT
    }
  }
  attr {
    key: "_output_shapes"
    value {
      list {
        shape {
          dim {
            size: 2
          }
          dim {
            size: 1
          }
        }
      }
    }
  }
}
node {
  name: "save/AssignVariableOp_6"
  op: "AssignVariableOp"
  input: "linear/linear/linear_model/alone_indicator/weights/part_0/Ftrl_1"
  input: "save/Identity_127"
  device: "/device:CPU:0"
  attr {
    key: "dtype"
    value {
      type: DT_FLOAT
    }
  }
}
node {
  name: "save/Identity_128"
  op: "Identity"
  input: "save/RestoreV2_1:6"
  device: "/device:CPU:0"
  attr {
    key: "T"
    value {
      type: DT_FLOAT
    }
  }
  attr {
    key: "_output_shapes"
    value {
      list {
        shape {
          dim {
            size: 1
          }
        }
      }
    }
  }
}
node {
  name: "save/AssignVariableOp_7"
  op: "AssignVariableOp"
  input: "linear/linear_model/bias_weights/part_0"
  input: "save/Identity_128"
  device: "/device:CPU:0"
  attr {
    key: "dtype"
    value {
      type: DT_FLOAT
    }
  }
}
node {
  name: "save/Identity_129"
  op: "Identity"
  input: "save/RestoreV2_1:7"
  device: "/device:CPU:0"
  attr {
    key: "T"
    value {
      type: DT_FLOAT
    }
  }
  attr {
    key: "_output_shapes"
    value {
      list {
        shape {
          dim {
            size: 1
          }
        }
      }
    }
  }
}
node {
  name: "save/AssignVariableOp_8"
  op: "AssignVariableOp"
  input: "linear/linear/linear_model/bias_weights/part_0/Ftrl"
  input: "save/Identity_129"
  device: "/device:CPU:0"
  attr {
    key: "dtype"
    value {
      type: DT_FLOAT
    }
  }
}
node {
  name: "save/Identity_130"
  op: "Identity"
  input: "save/RestoreV2_1:8"
  device: "/device:CPU:0"
  attr {
    key: "T"
    value {
      type: DT_FLOAT
    }
  }
  attr {
    key: "_output_shapes"
    value {
      list {
        shape {
          dim {
            size: 1
          }
        }
      }
    }
  }
}
node {
  name: "save/AssignVariableOp_9"
  op: "AssignVariableOp"
  input: "linear/linear/linear_model/bias_weights/part_0/Ftrl_1"
  input: "save/Identity_130"
  device: "/device:CPU:0"
  attr {
    key: "dtype"
    value {
      type: DT_FLOAT
    }
  }
}
node {
  name: "save/Identity_131"
  op: "Identity"
  input: "save/RestoreV2_1:9"
  device: "/device:CPU:0"
  attr {
    key: "T"
    value {
      type: DT_FLOAT
    }
  }
  attr {
    key: "_output_shapes"
    value {
      list {
        shape {
          dim {
            size: 3
          }
          dim {
            size: 1
          }
        }
      }
    }
  }
}
node {
  name: "save/AssignVariableOp_10"
  op: "AssignVariableOp"
  input: "linear/linear_model/class_indicator/weights/part_0"
  input: "save/Identity_131"
  device: "/device:CPU:0"
  attr {
    key: "dtype"
    value {
      type: DT_FLOAT
    }
  }
}
node {
  name: "save/Identity_132"
  op: "Identity"
  input: "save/RestoreV2_1:10"
  device: "/device:CPU:0"
  attr {
    key: "T"
    value {
      type: DT_FLOAT
    }
  }
  attr {
    key: "_output_shapes"
    value {
      list {
        shape {
          dim {
            size: 3
          }
          dim {
            size: 1
          }
        }
      }
    }
  }
}
node {
  name: "save/AssignVariableOp_11"
  op: "AssignVariableOp"
  input: "linear/linear/linear_model/class_indicator/weights/part_0/Ftrl"
  input: "save/Identity_132"
  device: "/device:CPU:0"
  attr {
    key: "dtype"
    value {
      type: DT_FLOAT
    }
  }
}
node {
  name: "save/Identity_133"
  op: "Identity"
  input: "save/RestoreV2_1:11"
  device: "/device:CPU:0"
  attr {
    key: "T"
    value {
      type: DT_FLOAT
    }
  }
  attr {
    key: "_output_shapes"
    value {
      list {
        shape {
          dim {
            size: 3
          }
          dim {
            size: 1
          }
        }
      }
    }
  }
}
node {
  name: "save/AssignVariableOp_12"
  op: "AssignVariableOp"
  input: "linear/linear/linear_model/class_indicator/weights/part_0/Ftrl_1"
  input: "save/Identity_133"
  device: "/device:CPU:0"
  attr {
    key: "dtype"
    value {
      type: DT_FLOAT
    }
  }
}
node {
  name: "save/Identity_134"
  op: "Identity"
  input: "save/RestoreV2_1:12"
  device: "/device:CPU:0"
  attr {
    key: "T"
    value {
      type: DT_FLOAT
    }
  }
  attr {
    key: "_output_shapes"
    value {
      list {
        shape {
          dim {
            size: 8
          }
          dim {
            size: 1
          }
        }
      }
    }
  }
}
node {
  name: "save/AssignVariableOp_13"
  op: "AssignVariableOp"
  input: "linear/linear_model/deck_indicator/weights/part_0"
  input: "save/Identity_134"
  device: "/device:CPU:0"
  attr {
    key: "dtype"
    value {
      type: DT_FLOAT
    }
  }
}
node {
  name: "save/Identity_135"
  op: "Identity"
  input: "save/RestoreV2_1:13"
  device: "/device:CPU:0"
  attr {
    key: "T"
    value {
      type: DT_FLOAT
    }
  }
  attr {
    key: "_output_shapes"
    value {
      list {
        shape {
          dim {
            size: 8
          }
          dim {
            size: 1
          }
        }
      }
    }
  }
}
node {
  name: "save/AssignVariableOp_14"
  op: "AssignVariableOp"
  input: "linear/linear/linear_model/deck_indicator/weights/part_0/Ftrl"
  input: "save/Identity_135"
  device: "/device:CPU:0"
  attr {
    key: "dtype"
    value {
      type: DT_FLOAT
    }
  }
}
node {
  name: "save/Identity_136"
  op: "Identity"
  input: "save/RestoreV2_1:14"
  device: "/device:CPU:0"
  attr {
    key: "T"
    value {
      type: DT_FLOAT
    }
  }
  attr {
    key: "_output_shapes"
    value {
      list {
        shape {
          dim {
            size: 8
          }
          dim {
            size: 1
          }
        }
      }
    }
  }
}
node {
  name: "save/AssignVariableOp_15"
  op: "AssignVariableOp"
  input: "linear/linear/linear_model/deck_indicator/weights/part_0/Ftrl_1"
  input: "save/Identity_136"
  device: "/device:CPU:0"
  attr {
    key: "dtype"
    value {
      type: DT_FLOAT
    }
  }
}
node {
  name: "save/Identity_137"
  op: "Identity"
  input: "save/RestoreV2_1:15"
  device: "/device:CPU:0"
  attr {
    key: "T"
    value {
      type: DT_FLOAT
    }
  }
  attr {
    key: "_output_shapes"
    value {
      list {
        shape {
          dim {
            size: 4
          }
          dim {
            size: 1
          }
        }
      }
    }
  }
}
node {
  name: "save/AssignVariableOp_16"
  op: "AssignVariableOp"
  input: "linear/linear_model/embark_town_indicator/weights/part_0"
  input: "save/Identity_137"
  device: "/device:CPU:0"
  attr {
    key: "dtype"
    value {
      type: DT_FLOAT
    }
  }
}
node {
  name: "save/Identity_138"
  op: "Identity"
  input: "save/RestoreV2_1:16"
  device: "/device:CPU:0"
  attr {
    key: "T"
    value {
      type: DT_FLOAT
    }
  }
  attr {
    key: "_output_shapes"
    value {
      list {
        shape {
          dim {
            size: 4
          }
          dim {
            size: 1
          }
        }
      }
    }
  }
}
node {
  name: "save/AssignVariableOp_17"
  op: "AssignVariableOp"
  input: "linear/linear/linear_model/embark_town_indicator/weights/part_0/Ftrl"
  input: "save/Identity_138"
  device: "/device:CPU:0"
  attr {
    key: "dtype"
    value {
      type: DT_FLOAT
    }
  }
}
node {
  name: "save/Identity_139"
  op: "Identity"
  input: "save/RestoreV2_1:17"
  device: "/device:CPU:0"
  attr {
    key: "T"
    value {
      type: DT_FLOAT
    }
  }
  attr {
    key: "_output_shapes"
    value {
      list {
        shape {
          dim {
            size: 4
          }
          dim {
            size: 1
          }
        }
      }
    }
  }
}
node {
  name: "save/AssignVariableOp_18"
  op: "AssignVariableOp"
  input: "linear/linear/linear_model/embark_town_indicator/weights/part_0/Ftrl_1"
  input: "save/Identity_139"
  device: "/device:CPU:0"
  attr {
    key: "dtype"
    value {
      type: DT_FLOAT
    }
  }
}
node {
  name: "save/Identity_140"
  op: "Identity"
  input: "save/RestoreV2_1:18"
  device: "/device:CPU:0"
  attr {
    key: "T"
    value {
      type: DT_FLOAT
    }
  }
  attr {
    key: "_output_shapes"
    value {
      list {
        shape {
          dim {
            size: 1
          }
          dim {
            size: 1
          }
        }
      }
    }
  }
}
node {
  name: "save/AssignVariableOp_19"
  op: "AssignVariableOp"
  input: "linear/linear_model/fare/weights/part_0"
  input: "save/Identity_140"
  device: "/device:CPU:0"
  attr {
    key: "dtype"
    value {
      type: DT_FLOAT
    }
  }
}
node {
  name: "save/Identity_141"
  op: "Identity"
  input: "save/RestoreV2_1:19"
  device: "/device:CPU:0"
  attr {
    key: "T"
    value {
      type: DT_FLOAT
    }
  }
  attr {
    key: "_output_shapes"
    value {
      list {
        shape {
          dim {
            size: 1
          }
          dim {
            size: 1
          }
        }
      }
    }
  }
}
node {
  name: "save/AssignVariableOp_20"
  op: "AssignVariableOp"
  input: "linear/linear/linear_model/fare/weights/part_0/Ftrl"
  input: "save/Identity_141"
  device: "/device:CPU:0"
  attr {
    key: "dtype"
    value {
      type: DT_FLOAT
    }
  }
}
node {
  name: "save/Identity_142"
  op: "Identity"
  input: "save/RestoreV2_1:20"
  device: "/device:CPU:0"
  attr {
    key: "T"
    value {
      type: DT_FLOAT
    }
  }
  attr {
    key: "_output_shapes"
    value {
      list {
        shape {
          dim {
            size: 1
          }
          dim {
            size: 1
          }
        }
      }
    }
  }
}
node {
  name: "save/AssignVariableOp_21"
  op: "AssignVariableOp"
  input: "linear/linear/linear_model/fare/weights/part_0/Ftrl_1"
  input: "save/Identity_142"
  device: "/device:CPU:0"
  attr {
    key: "dtype"
    value {
      type: DT_FLOAT
    }
  }
}
node {
  name: "save/Identity_143"
  op: "Identity"
  input: "save/RestoreV2_1:21"
  device: "/device:CPU:0"
  attr {
    key: "T"
    value {
      type: DT_FLOAT
    }
  }
  attr {
    key: "_output_shapes"
    value {
      list {
        shape {
          dim {
            size: 7
          }
          dim {
            size: 1
          }
        }
      }
    }
  }
}
node {
  name: "save/AssignVariableOp_22"
  op: "AssignVariableOp"
  input: "linear/linear_model/n_siblings_spouses_indicator/weights/part_0"
  input: "save/Identity_143"
  device: "/device:CPU:0"
  attr {
    key: "dtype"
    value {
      type: DT_FLOAT
    }
  }
}
node {
  name: "save/Identity_144"
  op: "Identity"
  input: "save/RestoreV2_1:22"
  device: "/device:CPU:0"
  attr {
    key: "T"
    value {
      type: DT_FLOAT
    }
  }
  attr {
    key: "_output_shapes"
    value {
      list {
        shape {
          dim {
            size: 7
          }
          dim {
            size: 1
          }
        }
      }
    }
  }
}
node {
  name: "save/AssignVariableOp_23"
  op: "AssignVariableOp"
  input: "linear/linear/linear_model/n_siblings_spouses_indicator/weights/part_0/Ftrl"
  input: "save/Identity_144"
  device: "/device:CPU:0"
  attr {
    key: "dtype"
    value {
      type: DT_FLOAT
    }
  }
}
node {
  name: "save/Identity_145"
  op: "Identity"
  input: "save/RestoreV2_1:23"
  device: "/device:CPU:0"
  attr {
    key: "T"
    value {
      type: DT_FLOAT
    }
  }
  attr {
    key: "_output_shapes"
    value {
      list {
        shape {
          dim {
            size: 7
          }
          dim {
            size: 1
          }
        }
      }
    }
  }
}
node {
  name: "save/AssignVariableOp_24"
  op: "AssignVariableOp"
  input: "linear/linear/linear_model/n_siblings_spouses_indicator/weights/part_0/Ftrl_1"
  input: "save/Identity_145"
  device: "/device:CPU:0"
  attr {
    key: "dtype"
    value {
      type: DT_FLOAT
    }
  }
}
node {
  name: "save/Identity_146"
  op: "Identity"
  input: "save/RestoreV2_1:24"
  device: "/device:CPU:0"
  attr {
    key: "T"
    value {
      type: DT_FLOAT
    }
  }
  attr {
    key: "_output_shapes"
    value {
      list {
        shape {
          dim {
            size: 6
          }
          dim {
            size: 1
          }
        }
      }
    }
  }
}
node {
  name: "save/AssignVariableOp_25"
  op: "AssignVariableOp"
  input: "linear/linear_model/parch_indicator/weights/part_0"
  input: "save/Identity_146"
  device: "/device:CPU:0"
  attr {
    key: "dtype"
    value {
      type: DT_FLOAT
    }
  }
}
node {
  name: "save/Identity_147"
  op: "Identity"
  input: "save/RestoreV2_1:25"
  device: "/device:CPU:0"
  attr {
    key: "T"
    value {
      type: DT_FLOAT
    }
  }
  attr {
    key: "_output_shapes"
    value {
      list {
        shape {
          dim {
            size: 6
          }
          dim {
            size: 1
          }
        }
      }
    }
  }
}
node {
  name: "save/AssignVariableOp_26"
  op: "AssignVariableOp"
  input: "linear/linear/linear_model/parch_indicator/weights/part_0/Ftrl"
  input: "save/Identity_147"
  device: "/device:CPU:0"
  attr {
    key: "dtype"
    value {
      type: DT_FLOAT
    }
  }
}
node {
  name: "save/Identity_148"
  op: "Identity"
  input: "save/RestoreV2_1:26"
  device: "/device:CPU:0"
  attr {
    key: "T"
    value {
      type: DT_FLOAT
    }
  }
  attr {
    key: "_output_shapes"
    value {
      list {
        shape {
          dim {
            size: 6
          }
          dim {
            size: 1
          }
        }
      }
    }
  }
}
node {
  name: "save/AssignVariableOp_27"
  op: "AssignVariableOp"
  input: "linear/linear/linear_model/parch_indicator/weights/part_0/Ftrl_1"
  input: "save/Identity_148"
  device: "/device:CPU:0"
  attr {
    key: "dtype"
    value {
      type: DT_FLOAT
    }
  }
}
node {
  name: "save/Identity_149"
  op: "Identity"
  input: "save/RestoreV2_1:27"
  device: "/device:CPU:0"
  attr {
    key: "T"
    value {
      type: DT_FLOAT
    }
  }
  attr {
    key: "_output_shapes"
    value {
      list {
        shape {
          dim {
            size: 2
          }
          dim {
            size: 1
          }
        }
      }
    }
  }
}
node {
  name: "save/AssignVariableOp_28"
  op: "AssignVariableOp"
  input: "linear/linear_model/sex_indicator/weights/part_0"
  input: "save/Identity_149"
  device: "/device:CPU:0"
  attr {
    key: "dtype"
    value {
      type: DT_FLOAT
    }
  }
}
node {
  name: "save/Identity_150"
  op: "Identity"
  input: "save/RestoreV2_1:28"
  device: "/device:CPU:0"
  attr {
    key: "T"
    value {
      type: DT_FLOAT
    }
  }
  attr {
    key: "_output_shapes"
    value {
      list {
        shape {
          dim {
            size: 2
          }
          dim {
            size: 1
          }
        }
      }
    }
  }
}
node {
  name: "save/AssignVariableOp_29"
  op: "AssignVariableOp"
  input: "linear/linear/linear_model/sex_indicator/weights/part_0/Ftrl"
  input: "save/Identity_150"
  device: "/device:CPU:0"
  attr {
    key: "dtype"
    value {
      type: DT_FLOAT
    }
  }
}
node {
  name: "save/Identity_151"
  op: "Identity"
  input: "save/RestoreV2_1:29"
  device: "/device:CPU:0"
  attr {
    key: "T"
    value {
      type: DT_FLOAT
    }
  }
  attr {
    key: "_output_shapes"
    value {
      list {
        shape {
          dim {
            size: 2
          }
          dim {
            size: 1
          }
        }
      }
    }
  }
}
node {
  name: "save/AssignVariableOp_30"
  op: "AssignVariableOp"
  input: "linear/linear/linear_model/sex_indicator/weights/part_0/Ftrl_1"
  input: "save/Identity_151"
  device: "/device:CPU:0"
  attr {
    key: "dtype"
    value {
      type: DT_FLOAT
    }
  }
}
node {
  name: "save/restore_shard_1"
  op: "NoOp"
  input: "^save/AssignVariableOp_1"
  input: "^save/AssignVariableOp_10"
  input: "^save/AssignVariableOp_11"
  input: "^save/AssignVariableOp_12"
  input: "^save/AssignVariableOp_13"
  input: "^save/AssignVariableOp_14"
  input: "^save/AssignVariableOp_15"
  input: "^save/AssignVariableOp_16"
  input: "^save/AssignVariableOp_17"
  input: "^save/AssignVariableOp_18"
  input: "^save/AssignVariableOp_19"
  input: "^save/AssignVariableOp_2"
  input: "^save/AssignVariableOp_20"
  input: "^save/AssignVariableOp_21"
  input: "^save/AssignVariableOp_22"
  input: "^save/AssignVariableOp_23"
  input: "^save/AssignVariableOp_24"
  input: "^save/AssignVariableOp_25"
  input: "^save/AssignVariableOp_26"
  input: "^save/AssignVariableOp_27"
  input: "^save/AssignVariableOp_28"
  input: "^save/AssignVariableOp_29"
  input: "^save/AssignVariableOp_3"
  input: "^save/AssignVariableOp_30"
  input: "^save/AssignVariableOp_4"
  input: "^save/AssignVariableOp_5"
  input: "^save/AssignVariableOp_6"
  input: "^save/AssignVariableOp_7"
  input: "^save/AssignVariableOp_8"
  input: "^save/AssignVariableOp_9"
  device: "/device:CPU:0"
}
node {
  name: "save/restore_all/NoOp"
  op: "NoOp"
  input: "^save/restore_shard"
}
node {
  name: "save/restore_all/NoOp_1"
  op: "NoOp"
  input: "^save/restore_shard_1"
  device: "/device:CPU:0"
}
node {
  name: "save/restore_all"
  op: "NoOp"
  input: "^save/restore_all/NoOp"
  input: "^save/restore_all/NoOp_1"
}
versions {
  producer: 27
}
