node {
  name: "global_step/Initializer/zeros"
  op: "Const"
  attr {
    key: "_class"
    value {
      list {
        s: "loc:@global_step"
      }
    }
  }
  attr {
    key: "_output_shapes"
    value {
      list {
        shape {
        }
      }
    }
  }
  attr {
    key: "dtype"
    value {
      type: DT_INT64
    }
  }
  attr {
    key: "value"
    value {
      tensor {
        dtype: DT_INT64
        tensor_shape {
        }
        int64_val: 0
      }
    }
  }
}
node {
  name: "global_step"
  op: "VarHandleOp"
  attr {
    key: "_class"
    value {
      list {
        s: "loc:@global_step"
      }
    }
  }
  attr {
    key: "_output_shapes"
    value {
      list {
        shape {
        }
      }
    }
  }
  attr {
    key: "container"
    value {
      s: ""
    }
  }
  attr {
    key: "dtype"
    value {
      type: DT_INT64
    }
  }
  attr {
    key: "shape"
    value {
      shape {
      }
    }
  }
  attr {
    key: "shared_name"
    value {
      s: "global_step"
    }
  }
}
node {
  name: "global_step/IsInitialized/VarIsInitializedOp"
  op: "VarIsInitializedOp"
  input: "global_step"
  attr {
    key: "_output_shapes"
    value {
      list {
        shape {
        }
      }
    }
  }
}
node {
  name: "global_step/Assign"
  op: "AssignVariableOp"
  input: "global_step"
  input: "global_step/Initializer/zeros"
  attr {
    key: "_class"
    value {
      list {
        s: "loc:@global_step"
      }
    }
  }
  attr {
    key: "dtype"
    value {
      type: DT_INT64
    }
  }
}
node {
  name: "global_step/Read/ReadVariableOp"
  op: "ReadVariableOp"
  input: "global_step"
  attr {
    key: "_class"
    value {
      list {
        s: "loc:@global_step"
      }
    }
  }
  attr {
    key: "_output_shapes"
    value {
      list {
        shape {
        }
      }
    }
  }
  attr {
    key: "dtype"
    value {
      type: DT_INT64
    }
  }
}
node {
  name: "global_step/VarIsInitializedOp"
  op: "VarIsInitializedOp"
  input: "global_step"
  attr {
    key: "_output_shapes"
    value {
      list {
        shape {
        }
      }
    }
  }
}
node {
  name: "global_step/cond/Switch"
  op: "Switch"
  input: "global_step/VarIsInitializedOp"
  input: "global_step/VarIsInitializedOp"
  attr {
    key: "T"
    value {
      type: DT_BOOL
    }
  }
  attr {
    key: "_output_shapes"
    value {
      list {
        shape {
        }
        shape {
        }
      }
    }
  }
}
node {
  name: "global_step/cond/switch_t"
  op: "Identity"
  input: "global_step/cond/Switch:1"
  attr {
    key: "T"
    value {
      type: DT_BOOL
    }
  }
  attr {
    key: "_output_shapes"
    value {
      list {
        shape {
        }
      }
    }
  }
}
node {
  name: "global_step/cond/switch_f"
  op: "Identity"
  input: "global_step/cond/Switch"
  attr {
    key: "T"
    value {
      type: DT_BOOL
    }
  }
  attr {
    key: "_output_shapes"
    value {
      list {
        shape {
        }
      }
    }
  }
}
node {
  name: "global_step/cond/pred_id"
  op: "Identity"
  input: "global_step/VarIsInitializedOp"
  attr {
    key: "T"
    value {
      type: DT_BOOL
    }
  }
  attr {
    key: "_output_shapes"
    value {
      list {
        shape {
        }
      }
    }
  }
}
node {
  name: "global_step/cond/Read/ReadVariableOp"
  op: "ReadVariableOp"
  input: "global_step/cond/Read/ReadVariableOp/Switch:1"
  attr {
    key: "_output_shapes"
    value {
      list {
        shape {
        }
      }
    }
  }
  attr {
    key: "dtype"
    value {
      type: DT_INT64
    }
  }
}
node {
  name: "global_step/cond/Read/ReadVariableOp/Switch"
  op: "Switch"
  input: "global_step"
  input: "global_step/cond/pred_id"
  attr {
    key: "T"
    value {
      type: DT_RESOURCE
    }
  }
  attr {
    key: "_class"
    value {
      list {
        s: "loc:@global_step"
      }
    }
  }
  attr {
    key: "_output_shapes"
    value {
      list {
        shape {
        }
        shape {
        }
      }
    }
  }
}
node {
  name: "global_step/cond/Identity"
  op: "Identity"
  input: "global_step/cond/Read/ReadVariableOp"
  attr {
    key: "T"
    value {
      type: DT_INT64
    }
  }
  attr {
    key: "_output_shapes"
    value {
      list {
        shape {
        }
      }
    }
  }
}
node {
  name: "global_step/cond/Switch_1"
  op: "Switch"
  input: "global_step/Initializer/zeros"
  input: "global_step/cond/pred_id"
  attr {
    key: "T"
    value {
      type: DT_INT64
    }
  }
  attr {
    key: "_class"
    value {
      list {
        s: "loc:@global_step"
      }
    }
  }
  attr {
    key: "_output_shapes"
    value {
      list {
        shape {
        }
        shape {
        }
      }
    }
  }
}
node {
  name: "global_step/cond/Merge"
  op: "Merge"
  input: "global_step/cond/Switch_1"
  input: "global_step/cond/Identity"
  attr {
    key: "N"
    value {
      i: 2
    }
  }
  attr {
    key: "T"
    value {
      type: DT_INT64
    }
  }
  attr {
    key: "_output_shapes"
    value {
      list {
        shape {
        }
        shape {
        }
      }
    }
  }
}
node {
  name: "global_step/add/y"
  op: "Const"
  attr {
    key: "_output_shapes"
    value {
      list {
        shape {
        }
      }
    }
  }
  attr {
    key: "dtype"
    value {
      type: DT_INT64
    }
  }
  attr {
    key: "value"
    value {
      tensor {
        dtype: DT_INT64
        tensor_shape {
        }
        int64_val: 0
      }
    }
  }
}
node {
  name: "global_step/add"
  op: "Add"
  input: "global_step/cond/Merge"
  input: "global_step/add/y"
  attr {
    key: "T"
    value {
      type: DT_INT64
    }
  }
  attr {
    key: "_output_shapes"
    value {
      list {
        shape {
        }
      }
    }
  }
}
node {
  name: "tensors/component_0"
  op: "Const"
  device: "/device:CPU:0"
  attr {
    key: "_output_shapes"
    value {
      list {
        shape {
          dim {
            size: 627
          }
        }
      }
    }
  }
  attr {
    key: "dtype"
    value {
      type: DT_DOUBLE
    }
  }
  attr {
    key: "value"
    value {
      tensor {
        dtype: DT_DOUBLE
        tensor_shape {
          dim {
            size: 627
          }
        }
        tensor_content: "…"
      }
    }
  }
}
node {
  name: "tensors/component_1"
  op: "Const"
  device: "/device:CPU:0"
  attr {
    key: "_output_shapes"
    value {
      list {
        shape {
          dim {
            size: 627
          }
        }
      }
    }
  }
  attr {
    key: "dtype"
    value {
      type: DT_STRING
    }
  }
  attr {
    key: "value"
    value {
      tensor {
        dtype: DT_STRING
        tensor_shape {
          dim {
            size: 627
          }
        }
        string_val: "n"
        string_val: "n"
        string_val: "y"
        string_val: "n"
        string_val: "y"
        string_val: "n"
        string_val: "n"
        string_val: "n"
        string_val: "n"
        string_val: "y"
        string_val: "n"
        string_val: "y"
        string_val: "n"
        string_val: "y"
        string_val: "n"
        string_val: "y"
        string_val: "y"
        string_val: "y"
        string_val: "n"
        string_val: "y"
        string_val: "n"
        string_val: "y"
        string_val: "y"
        string_val: "y"
        string_val: "n"
        string_val: "y"
        string_val: "y"
        string_val: "n"
        string_val: "n"
        string_val: "y"
        string_val: "n"
        string_val: "n"
        string_val: "n"
        string_val: "y"
        string_val: "n"
        string_val: "y"
        string_val: "n"
        string_val: "n"
        string_val: "n"
        string_val: "n"
        string_val: "n"
        string_val: "n"
        string_val: "n"
        string_val: "y"
        string_val: "y"
        string_val: "y"
        string_val: "n"
        string_val: "y"
        string_val: "y"
        string_val: "n"
        string_val: "n"
        string_val: "n"
        string_val: "y"
        string_val: "n"
        string_val: "n"
        string_val: "y"
        string_val: "y"
        string_val: "y"
        string_val: "y"
        string_val: "y"
        string_val: "y"
        string_val: "n"
        string_val: "y"
        string_val: "y"
        string_val: "y"
        string_val: "y"
        string_val: "y"
        string_val: "n"
        string_val: "y"
        string_val: "n"
        string_val: "y"
        string_val: "n"
        string_val: "y"
        string_val: "y"
        string_val: "y"
        string_val: "n"
        string_val: "n"
        string_val: "n"
        string_val: "y"
        string_val: "y"
        string_val: "n"
        string_val: "y"
        string_val: "n"
        string_val: "y"
        string_val: "y"
        string_val: "n"
        string_val: "y"
        string_val: "n"
        string_val: "y"
        string_val: "y"
        string_val: "y"
        string_val: "y"
        string_val: "n"
        string_val: "n"
        string_val: "y"
        string_val: "n"
        string_val: "y"
        string_val: "y"
        string_val: "y"
        string_val: "y"
        string_val: "y"
        string_val: "n"
        string_val: "y"
        string_val: "n"
        string_val: "n"
        string_val: "y"
        string_val: "y"
        string_val: "n"
        string_val: "y"
        string_val: "y"
        string_val: "y"
        string_val: "n"
        string_val: "y"
        string_val: "y"
        string_val: "n"
        string_val: "y"
        string_val: "n"
        string_val: "y"
        string_val: "y"
        string_val: "n"
        string_val: "n"
        string_val: "y"
        string_val: "y"
        string_val: "n"
        string_val: "n"
        string_val: "y"
        string_val: "n"
        string_val: "n"
        string_val: "n"
        string_val: "y"
        string_val: "y"
        string_val: "y"
        string_val: "n"
        string_val: "y"
        string_val: "n"
        string_val: "n"
        string_val: "n"
        string_val: "y"
        string_val: "y"
        string_val: "y"
        string_val: "n"
        string_val: "n"
        string_val: "y"
        string_val: "y"
        string_val: "y"
        string_val: "y"
        string_val: "y"
        string_val: "y"
        string_val: "n"
        string_val: "y"
        string_val: "n"
        string_val: "n"
        string_val: "y"
        string_val: "y"
        string_val: "y"
        string_val: "y"
        string_val: "y"
        string_val: "n"
        string_val: "n"
        string_val: "y"
        string_val: "n"
        string_val: "y"
        string_val: "y"
        string_val: "y"
        string_val: "y"
        string_val: "y"
        string_val: "y"
        string_val: "y"
        string_val: "n"
        string_val: "n"
        string_val: "y"
        string_val: "y"
        string_val: "y"
        string_val: "n"
        string_val: "y"
        string_val: "y"
        string_val: "n"
        string_val: "n"
        string_val: "y"
        string_val: "y"
        string_val: "n"
        string_val: "n"
        string_val: "y"
        string_val: "n"
        string_val: "n"
        string_val: "n"
        string_val: "y"
        string_val: "y"
        string_val: "n"
        string_val: "y"
        string_val: "n"
        string_val: "y"
        string_val: "y"
        string_val: "y"
        string_val: "n"
        string_val: "n"
        string_val: "n"
        string_val: "y"
        string_val: "y"
        string_val: "y"
        string_val: "n"
        string_val: "n"
        string_val: "y"
        string_val: "n"
        string_val: "y"
        string_val: "y"
        string_val: "n"
        string_val: "n"
        string_val: "y"
        string_val: "y"
        string_val: "y"
        string_val: "y"
        string_val: "y"
        string_val: "y"
        string_val: "y"
        string_val: "n"
        string_val: "y"
        string_val: "y"
        string_val: "y"
        string_val: "y"
        string_val: "y"
        string_val: "n"
        string_val: "n"
        string_val: "y"
        string_val: "y"
        string_val: "n"
        string_val: "n"
        string_val: "y"
        string_val: "n"
        string_val: "n"
        string_val: "n"
        string_val: "n"
        string_val: "y"
        string_val: "y"
        string_val: "n"
        string_val: "n"
        string_val: "y"
        string_val: "y"
        string_val: "n"
        string_val: "n"
        string_val: "n"
        string_val: "n"
        string_val: "y"
        string_val: "n"
        string_val: "y"
        string_val: "y"
        string_val: "y"
        string_val: "y"
        string_val: "y"
        string_val: "y"
        string_val: "y"
        string_val: "n"
        string_val: "n"
        string_val: "n"
        string_val: "y"
        string_val: "y"
        string_val: "n"
        string_val: "y"
        string_val: "y"
        string_val: "y"
        string_val: "n"
        string_val: "n"
        string_val: "n"
        string_val: "y"
        string_val: "n"
        string_val: "n"
        string_val: "y"
        string_val: "y"
        string_val: "y"
        string_val: "n"
        string_val: "y"
        string_val: "n"
        string_val: "n"
        string_val: "y"
        string_val: "y"
        string_val: "y"
        string_val: "y"
        string_val: "y"
        string_val: "n"
        string_val: "y"
        string_val: "y"
        string_val: "n"
        string_val: "y"
        string_val: "n"
        string_val: "n"
        string_val: "y"
        string_val: "y"
        string_val: "y"
        string_val: "y"
        string_val: "y"
        string_val: "y"
        string_val: "n"
        string_val: "n"
        string_val: "n"
        string_val: "y"
        string_val: "n"
        string_val: "y"
        string_val: "y"
        string_val: "y"
        string_val: "y"
        string_val: "y"
        string_val: "n"
        string_val: "n"
        string_val: "y"
        string_val: "y"
        string_val: "y"
        string_val: "n"
        string_val: "y"
        string_val: "y"
        string_val: "y"
        string_val: "y"
        string_val: "n"
        string_val: "n"
        string_val: "y"
        string_val: "n"
        string_val: "n"
        string_val: "n"
        string_val: "n"
        string_val: "y"
        string_val: "n"
        string_val: "y"
        string_val: "y"
        string_val: "y"
        string_val: "y"
        string_val: "n"
        string_val: "y"
        string_val: "n"
        string_val: "y"
        string_val: "n"
        string_val: "y"
        string_val: "y"
        string_val: "n"
        string_val: "y"
        string_val: "y"
        string_val: "y"
        string_val: "y"
        string_val: "y"
        string_val: "y"
        string_val: "y"
        string_val: "n"
        string_val: "y"
        string_val: "n"
        string_val: "y"
        string_val: "y"
        string_val: "n"
        string_val: "n"
        string_val: "n"
        string_val: "n"
        string_val: "y"
        string_val: "y"
        string_val: "n"
        string_val: "n"
        string_val: "n"
        string_val: "y"
        string_val: "n"
        string_val: "n"
        string_val: "y"
        string_val: "y"
        string_val: "n"
        string_val: "y"
        string_val: "y"
        string_val: "y"
        string_val: "n"
        string_val: "n"
        string_val: "y"
        string_val: "y"
        string_val: "n"
        string_val: "y"
        string_val: "y"
        string_val: "y"
        string_val: "n"
        string_val: "y"
        string_val: "y"
        string_val: "y"
        string_val: "n"
        string_val: "y"
        string_val: "y"
        string_val: "y"
        string_val: "y"
        string_val: "n"
        string_val: "n"
        string_val: "n"
        string_val: "n"
        string_val: "y"
        string_val: "n"
        string_val: "y"
        string_val: "y"
        string_val: "n"
        string_val: "n"
        string_val: "n"
        string_val: "n"
        string_val: "n"
        string_val: "n"
        string_val: "y"
        string_val: "n"
        string_val: "n"
        string_val: "y"
        string_val: "y"
        string_val: "y"
        string_val: "n"
        string_val: "y"
        string_val: "n"
        string_val: "n"
        string_val: "y"
        string_val: "y"
        string_val: "y"
        string_val: "n"
        string_val: "y"
        string_val: "n"
        string_val: "y"
        string_val: "y"
        string_val: "n"
        string_val: "y"
        string_val: "y"
        string_val: "y"
        string_val: "n"
        string_val: "y"
        string_val: "y"
        string_val: "n"
        string_val: "y"
        string_val: "y"
        string_val: "n"
        string_val: "y"
        string_val: "n"
        string_val: "n"
        string_val: "n"
        string_val: "y"
        string_val: "y"
        string_val: "y"
        string_val: "n"
        string_val: "y"
        string_val: "n"
        string_val: "y"
        string_val: "y"
        string_val: "n"
        string_val: "y"
        string_val: "n"
        string_val: "y"
        string_val: "n"
        string_val: "y"
        string_val: "n"
        string_val: "n"
        string_val: "y"
        string_val: "n"
        string_val: "y"
        string_val: "y"
        string_val: "y"
        string_val: "y"
        string_val: "y"
        string_val: "y"
        string_val: "y"
        string_val: "y"
        string_val: "n"
        string_val: "y"
        string_val: "y"
        string_val: "n"
        string_val: "n"
        string_val: "y"
        string_val: "y"
        string_val: "n"
        string_val: "n"
        string_val: "y"
        string_val: "y"
        string_val: "y"
        string_val: "n"
        string_val: "y"
        string_val: "n"
        string_val: "y"
        string_val: "n"
        string_val: "n"
        string_val: "y"
        string_val: "y"
        string_val: "n"
        string_val: "y"
        string_val: "y"
        string_val: "y"
        string_val: "n"
        string_val: "n"
        string_val: "y"
        string_val: "y"
        string_val: "y"
        string_val: "y"
        string_val: "n"
        string_val: "y"
        string_val: "y"
        string_val: "n"
        string_val: "n"
        string_val: "y"
        string_val: "y"
        string_val: "n"
        string_val: "n"
        string_val: "n"
        string_val: "y"
        string_val: "y"
        string_val: "y"
        string_val: "n"
        string_val: "y"
        string_val: "y"
        string_val: "y"
        string_val: "y"
        string_val: "n"
        string_val: "y"
        string_val: "y"
        string_val: "n"
        string_val: "y"
        string_val: "y"
        string_val: "y"
        string_val: "y"
        string_val: "y"
        string_val: "y"
        string_val: "n"
        string_val: "y"
        string_val: "n"
        string_val: "n"
        string_val: "n"
        string_val: "n"
        string_val: "y"
        string_val: "y"
        string_val: "y"
        string_val: "y"
        string_val: "y"
        string_val: "y"
        string_val: "y"
        string_val: "y"
        string_val: "n"
        string_val: "n"
        string_val: "n"
        string_val: "n"
        string_val: "n"
        string_val: "n"
        string_val: "y"
        string_val: "y"
        string_val: "n"
        string_val: "y"
        string_val: "y"
        string_val: "y"
        string_val: "y"
        string_val: "y"
        string_val: "n"
        string_val: "y"
        string_val: "n"
        string_val: "y"
        string_val: "y"
        string_val: "y"
        string_val: "y"
        string_val: "y"
        string_val: "y"
        string_val: "n"
        string_val: "y"
        string_val: "n"
        string_val: "y"
        string_val: "n"
        string_val: "y"
        string_val: "y"
        string_val: "y"
        string_val: "n"
        string_val: "y"
        string_val: "y"
        string_val: "y"
        string_val: "y"
        string_val: "y"
        string_val: "y"
        string_val: "n"
        string_val: "y"
        string_val: "n"
        string_val: "n"
        string_val: "y"
        string_val: "y"
        string_val: "y"
        string_val: "n"
        string_val: "y"
        string_val: "y"
        string_val: "y"
        string_val: "y"
        string_val: "y"
        string_val: "y"
        string_val: "n"
        string_val: "n"
        string_val: "n"
        string_val: "y"
        string_val: "n"
        string_val: "y"
        string_val: "y"
        string_val: "y"
        string_val: "n"
        string_val: "y"
        string_val: "y"
        string_val: "y"
        string_val: "n"
        string_val: "y"
        string_val: "y"
        string_val: "y"
        string_val: "y"
        string_val: "y"
        string_val: "y"
        string_val: "y"
        string_val: "n"
        string_val: "y"
        string_val: "n"
        string_val: "n"
        string_val: "n"
        string_val: "n"
        string_val: "n"
        string_val: "n"
        string_val: "y"
        string_val: "n"
        string_val: "n"
        string_val: "y"
        string_val: "y"
        string_val: "n"
        string_val: "y"
        string_val: "n"
        string_val: "y"
        string_val: "n"
        string_val: "y"
        string_val: "y"
        string_val: "n"
        string_val: "y"
        string_val: "y"
        string_val: "y"
        string_val: "y"
        string_val: "y"
        string_val: "y"
        string_val: "y"
        string_val: "y"
        string_val: "n"
        string_val: "y"
      }
    }
  }
}
node {
  name: "tensors/component_2"
  op: "Const"
  device: "/device:CPU:0"
  attr {
    key: "_output_shapes"
    value {
      list {
        shape {
          dim {
            size: 627
          }
        }
      }
    }
  }
  attr {
    key: "dtype"
    value {
      type: DT_STRING
    }
  }
  attr {
    key: "value"
    value {
      tensor {
        dtype: DT_STRING
        tensor_shape {
          dim {
            size: 627
          }
        }
        string_val: "Third"
        string_val: "First"
        string_val: "Third"
        string_val: "First"
        string_val: "Third"
        string_val: "Third"
        string_val: "Third"
        string_val: "Second"
        string_val: "Third"
        string_val: "Third"
        string_val: "Third"
        string_val: "Third"
        string_val: "Third"
        string_val: "Second"
        string_val: "Third"
        string_val: "Third"
        string_val: "Second"
        string_val: "First"
        string_val: "Third"
        string_val: "Third"
        string_val: "First"
        string_val: "Third"
        string_val: "Third"
        string_val: "First"
        string_val: "First"
        string_val: "Third"
        string_val: "Second"
        string_val: "First"
        string_val: "First"
        string_val: "Third"
        string_val: "Third"
        string_val: "Third"
        string_val: "Second"
        string_val: "Third"
        string_val: "Second"
        string_val: "Third"
        string_val: "Third"
        string_val: "Third"
        string_val: "Third"
        string_val: "Third"
        string_val: "First"
        string_val: "Second"
        string_val: "First"
        string_val: "First"
        string_val: "Second"
        string_val: "Third"
        string_val: "Third"
        string_val: "Third"
        string_val: "First"
        string_val: "First"
        string_val: "Third"
        string_val: "Third"
        string_val: "Third"
        string_val: "Third"
        string_val: "Third"
        string_val: "Second"
        string_val: "Second"
        string_val: "Third"
        string_val: "Third"
        string_val: "Third"
        string_val: "Third"
        string_val: "Second"
        string_val: "Third"
        string_val: "Third"
        string_val: "Third"
        string_val: "Third"
        string_val: "First"
        string_val: "Third"
        string_val: "Third"
        string_val: "First"
        string_val: "Third"
        string_val: "First"
        string_val: "Third"
        string_val: "Third"
        string_val: "First"
        string_val: "First"
        string_val: "Second"
        string_val: "Second"
        string_val: "Third"
        string_val: "Third"
        string_val: "First"
        string_val: "Third"
        string_val: "Third"
        string_val: "Third"
        string_val: "Third"
        string_val: "Third"
        string_val: "First"
        string_val: "Third"
        string_val: "Third"
        string_val: "Third"
        string_val: "Third"
        string_val: "Third"
        string_val: "Second"
        string_val: "First"
        string_val: "Third"
        string_val: "Second"
        string_val: "Second"
        string_val: "Third"
        string_val: "Third"
        string_val: "Third"
        string_val: "Third"
        string_val: "Third"
        string_val: "Second"
        string_val: "First"
        string_val: "First"
        string_val: "Third"
        string_val: "First"
        string_val: "Third"
        string_val: "Third"
        string_val: "Third"
        string_val: "Second"
        string_val: "Third"
        string_val: "Second"
        string_val: "Third"
        string_val: "Third"
        string_val: "Third"
        string_val: "First"
        string_val: "Third"
        string_val: "Third"
        string_val: "Third"
        string_val: "Third"
        string_val: "Third"
        string_val: "Third"
        string_val: "Third"
        string_val: "First"
        string_val: "Third"
        string_val: "Third"
        string_val: "Third"
        string_val: "Third"
        string_val: "First"
        string_val: "Second"
        string_val: "Third"
        string_val: "Third"
        string_val: "Second"
        string_val: "Third"
        string_val: "Third"
        string_val: "Third"
        string_val: "First"
        string_val: "Third"
        string_val: "Second"
        string_val: "Third"
        string_val: "Second"
        string_val: "First"
        string_val: "First"
        string_val: "Third"
        string_val: "Third"
        string_val: "Second"
        string_val: "Third"
        string_val: "Third"
        string_val: "Third"
        string_val: "Third"
        string_val: "Third"
        string_val: "Third"
        string_val: "Third"
        string_val: "First"
        string_val: "Second"
        string_val: "Third"
        string_val: "Third"
        string_val: "First"
        string_val: "Third"
        string_val: "Second"
        string_val: "Second"
        string_val: "Third"
        string_val: "Third"
        string_val: "Third"
        string_val: "Second"
        string_val: "Third"
        string_val: "Second"
        string_val: "Third"
        string_val: "First"
        string_val: "Third"
        string_val: "Second"
        string_val: "Third"
        string_val: "Second"
        string_val: "Second"
        string_val: "Second"
        string_val: "Third"
        string_val: "Third"
        string_val: "Third"
        string_val: "Third"
        string_val: "First"
        string_val: "Second"
        string_val: "Third"
        string_val: "Third"
        string_val: "Third"
        string_val: "Third"
        string_val: "First"
        string_val: "First"
        string_val: "Second"
        string_val: "Third"
        string_val: "Third"
        string_val: "First"
        string_val: "Third"
        string_val: "Second"
        string_val: "Third"
        string_val: "Third"
        string_val: "First"
        string_val: "First"
        string_val: "First"
        string_val: "Third"
        string_val: "Second"
        string_val: "First"
        string_val: "Third"
        string_val: "First"
        string_val: "Third"
        string_val: "Second"
        string_val: "Third"
        string_val: "Third"
        string_val: "Third"
        string_val: "Third"
        string_val: "First"
        string_val: "First"
        string_val: "Second"
        string_val: "Third"
        string_val: "First"
        string_val: "First"
        string_val: "Third"
        string_val: "Third"
        string_val: "Second"
        string_val: "Third"
        string_val: "First"
        string_val: "First"
        string_val: "Second"
        string_val: "First"
        string_val: "First"
        string_val: "First"
        string_val: "Second"
        string_val: "Third"
        string_val: "Second"
        string_val: "Second"
        string_val: "First"
        string_val: "First"
        string_val: "Third"
        string_val: "Third"
        string_val: "Second"
        string_val: "Third"
        string_val: "First"
        string_val: "Third"
        string_val: "Third"
        string_val: "Third"
        string_val: "First"
        string_val: "First"
        string_val: "Third"
        string_val: "First"
        string_val: "Third"
        string_val: "First"
        string_val: "Second"
        string_val: "Second"
        string_val: "Second"
        string_val: "Second"
        string_val: "Second"
        string_val: "Third"
        string_val: "Third"
        string_val: "Third"
        string_val: "Third"
        string_val: "Third"
        string_val: "First"
        string_val: "Second"
        string_val: "Third"
        string_val: "Third"
        string_val: "Third"
        string_val: "Second"
        string_val: "Third"
        string_val: "Third"
        string_val: "Third"
        string_val: "First"
        string_val: "Third"
        string_val: "Third"
        string_val: "First"
        string_val: "Third"
        string_val: "Third"
        string_val: "First"
        string_val: "First"
        string_val: "Third"
        string_val: "First"
        string_val: "Third"
        string_val: "Third"
        string_val: "Second"
        string_val: "Third"
        string_val: "Third"
        string_val: "Second"
        string_val: "First"
        string_val: "Third"
        string_val: "First"
        string_val: "Third"
        string_val: "Third"
        string_val: "Third"
        string_val: "Second"
        string_val: "Second"
        string_val: "Third"
        string_val: "Third"
        string_val: "Third"
        string_val: "Second"
        string_val: "Second"
        string_val: "Third"
        string_val: "Third"
        string_val: "Third"
        string_val: "Third"
        string_val: "Second"
        string_val: "Third"
        string_val: "Third"
        string_val: "Second"
        string_val: "Second"
        string_val: "Second"
        string_val: "Third"
        string_val: "Third"
        string_val: "Third"
        string_val: "Second"
        string_val: "Third"
        string_val: "Third"
        string_val: "First"
        string_val: "Third"
        string_val: "Second"
        string_val: "Third"
        string_val: "First"
        string_val: "First"
        string_val: "Second"
        string_val: "First"
        string_val: "Second"
        string_val: "Second"
        string_val: "Third"
        string_val: "Second"
        string_val: "Third"
        string_val: "First"
        string_val: "Third"
        string_val: "First"
        string_val: "Second"
        string_val: "First"
        string_val: "First"
        string_val: "Third"
        string_val: "First"
        string_val: "First"
        string_val: "First"
        string_val: "Third"
        string_val: "First"
        string_val: "Third"
        string_val: "Third"
        string_val: "First"
        string_val: "Third"
        string_val: "Third"
        string_val: "Third"
        string_val: "Second"
        string_val: "Second"
        string_val: "First"
        string_val: "Second"
        string_val: "Third"
        string_val: "Third"
        string_val: "Third"
        string_val: "Second"
        string_val: "Third"
        string_val: "First"
        string_val: "Third"
        string_val: "First"
        string_val: "First"
        string_val: "Third"
        string_val: "Third"
        string_val: "First"
        string_val: "Third"
        string_val: "First"
        string_val: "Third"
        string_val: "Third"
        string_val: "Third"
        string_val: "First"
        string_val: "Second"
        string_val: "First"
        string_val: "Third"
        string_val: "First"
        string_val: "Third"
        string_val: "First"
        string_val: "Second"
        string_val: "Second"
        string_val: "Third"
        string_val: "First"
        string_val: "Third"
        string_val: "First"
        string_val: "Third"
        string_val: "Third"
        string_val: "Second"
        string_val: "First"
        string_val: "Second"
        string_val: "Second"
        string_val: "Third"
        string_val: "Third"
        string_val: "Third"
        string_val: "Second"
        string_val: "First"
        string_val: "First"
        string_val: "First"
        string_val: "First"
        string_val: "Third"
        string_val: "Third"
        string_val: "First"
        string_val: "Second"
        string_val: "Second"
        string_val: "Third"
        string_val: "First"
        string_val: "Second"
        string_val: "Third"
        string_val: "Third"
        string_val: "First"
        string_val: "First"
        string_val: "First"
        string_val: "Third"
        string_val: "Third"
        string_val: "Third"
        string_val: "Third"
        string_val: "Third"
        string_val: "Third"
        string_val: "Third"
        string_val: "Third"
        string_val: "Second"
        string_val: "First"
        string_val: "First"
        string_val: "Third"
        string_val: "Second"
        string_val: "Second"
        string_val: "First"
        string_val: "Second"
        string_val: "First"
        string_val: "Third"
        string_val: "Third"
        string_val: "First"
        string_val: "Third"
        string_val: "Third"
        string_val: "Second"
        string_val: "Third"
        string_val: "Second"
        string_val: "Third"
        string_val: "Third"
        string_val: "First"
        string_val: "First"
        string_val: "Third"
        string_val: "Third"
        string_val: "First"
        string_val: "Second"
        string_val: "First"
        string_val: "Third"
        string_val: "Third"
        string_val: "Third"
        string_val: "Third"
        string_val: "Second"
        string_val: "Third"
        string_val: "Second"
        string_val: "Third"
        string_val: "First"
        string_val: "Second"
        string_val: "First"
        string_val: "Third"
        string_val: "Third"
        string_val: "First"
        string_val: "Third"
        string_val: "First"
        string_val: "Third"
        string_val: "Second"
        string_val: "Third"
        string_val: "Third"
        string_val: "Third"
        string_val: "Third"
        string_val: "Third"
        string_val: "Third"
        string_val: "First"
        string_val: "Third"
        string_val: "Third"
        string_val: "Third"
        string_val: "Second"
        string_val: "Third"
        string_val: "Second"
        string_val: "Third"
        string_val: "Third"
        string_val: "First"
        string_val: "First"
        string_val: "Third"
        string_val: "Third"
        string_val: "Second"
        string_val: "Third"
        string_val: "Third"
        string_val: "Second"
        string_val: "First"
        string_val: "Second"
        string_val: "Second"
        string_val: "Third"
        string_val: "Third"
        string_val: "First"
        string_val: "First"
        string_val: "Third"
        string_val: "Third"
        string_val: "Second"
        string_val: "Third"
        string_val: "Third"
        string_val: "First"
        string_val: "First"
        string_val: "Third"
        string_val: "Third"
        string_val: "First"
        string_val: "Third"
        string_val: "First"
        string_val: "First"
        string_val: "Third"
        string_val: "Second"
        string_val: "First"
        string_val: "Third"
        string_val: "First"
        string_val: "First"
        string_val: "First"
        string_val: "Third"
        string_val: "Third"
        string_val: "First"
        string_val: "Second"
        string_val: "Third"
        string_val: "Third"
        string_val: "Second"
        string_val: "Second"
        string_val: "First"
        string_val: "Second"
        string_val: "Second"
        string_val: "Third"
        string_val: "First"
        string_val: "Third"
        string_val: "Second"
        string_val: "Second"
        string_val: "Second"
        string_val: "First"
        string_val: "Third"
        string_val: "Third"
        string_val: "First"
        string_val: "First"
        string_val: "Third"
        string_val: "First"
        string_val: "Second"
        string_val: "Third"
        string_val: "Third"
        string_val: "Third"
        string_val: "Second"
        string_val: "Third"
        string_val: "Third"
        string_val: "Third"
        string_val: "Third"
        string_val: "Third"
        string_val: "First"
        string_val: "First"
        string_val: "Third"
        string_val: "Third"
        string_val: "Third"
        string_val: "Second"
        string_val: "Third"
        string_val: "Third"
        string_val: "Third"
        string_val: "First"
        string_val: "First"
        string_val: "Third"
        string_val: "Third"
        string_val: "Third"
        string_val: "First"
        string_val: "Third"
        string_val: "Second"
        string_val: "Third"
        string_val: "First"
        string_val: "Third"
        string_val: "Second"
        string_val: "First"
        string_val: "Third"
        string_val: "Third"
        string_val: "Third"
        string_val: "Second"
        string_val: "Second"
        string_val: "First"
        string_val: "Third"
        string_val: "First"
        string_val: "Second"
        string_val: "First"
        string_val: "Third"
        string_val: "Third"
        string_val: "Second"
        string_val: "Third"
        string_val: "First"
        string_val: "Third"
        string_val: "Second"
        string_val: "Third"
        string_val: "First"
        string_val: "Third"
        string_val: "Third"
        string_val: "Third"
        string_val: "Third"
        string_val: "Third"
        string_val: "Third"
        string_val: "Third"
        string_val: "Third"
        string_val: "Third"
        string_val: "First"
        string_val: "Third"
        string_val: "Third"
        string_val: "First"
        string_val: "Second"
        string_val: "First"
        string_val: "Third"
        string_val: "Third"
        string_val: "Third"
        string_val: "Third"
        string_val: "Second"
        string_val: "First"
        string_val: "Third"
        string_val: "First"
        string_val: "Third"
        string_val: "First"
        string_val: "First"
        string_val: "Third"
        string_val: "Third"
        string_val: "Second"
        string_val: "Second"
        string_val: "Second"
        string_val: "First"
        string_val: "Third"
        string_val: "Third"
        string_val: "First"
        string_val: "First"
        string_val: "Third"
        string_val: "Second"
        string_val: "Third"
        string_val: "Third"
        string_val: "Third"
        string_val: "Third"
        string_val: "Third"
        string_val: "Second"
        string_val: "Third"
        string_val: "First"
        string_val: "Third"
        string_val: "Third"
      }
    }
  }
}
node {
  name: "tensors/component_3"
  op: "Const"
  device: "/device:CPU:0"
  attr {
    key: "_output_shapes"
    value {
      list {
        shape {
          dim {
            size: 627
          }
        }
      }
    }
  }
  attr {
    key: "dtype"
    value {
      type: DT_STRING
    }
  }
  attr {
    key: "value"
    value {
      tensor {
        dtype: DT_STRING
        tensor_shape {
          dim {
            size: 627
          }
        }
        string_val: "unknown"
        string_val: "C"
        string_val: "unknown"
        string_val: "C"
        string_val: "unknown"
        string_val: "unknown"
        string_val: "unknown"
        string_val: "unknown"
        string_val: "G"
        string_val: "unknown"
        string_val: "unknown"
        string_val: "unknown"
        string_val: "unknown"
        string_val: "unknown"
        string_val: "unknown"
        string_val: "unknown"
        string_val: "unknown"
        string_val: "A"
        string_val: "unknown"
        string_val: "unknown"
        string_val: "C"
        string_val: "unknown"
        string_val: "unknown"
        string_val: "unknown"
        string_val: "B"
        string_val: "unknown"
        string_val: "unknown"
        string_val: "unknown"
        string_val: "unknown"
        string_val: "unknown"
        string_val: "unknown"
        string_val: "unknown"
        string_val: "unknown"
        string_val: "unknown"
        string_val: "unknown"
        string_val: "unknown"
        string_val: "unknown"
        string_val: "unknown"
        string_val: "unknown"
        string_val: "unknown"
        string_val: "D"
        string_val: "unknown"
        string_val: "B"
        string_val: "C"
        string_val: "unknown"
        string_val: "unknown"
        string_val: "unknown"
        string_val: "unknown"
        string_val: "B"
        string_val: "C"
        string_val: "unknown"
        string_val: "unknown"
        string_val: "unknown"
        string_val: "unknown"
        string_val: "unknown"
        string_val: "unknown"
        string_val: "unknown"
        string_val: "unknown"
        string_val: "F"
        string_val: "unknown"
        string_val: "unknown"
        string_val: "unknown"
        string_val: "unknown"
        string_val: "unknown"
        string_val: "unknown"
        string_val: "unknown"
        string_val: "unknown"
        string_val: "unknown"
        string_val: "unknown"
        string_val: "C"
        string_val: "unknown"
        string_val: "E"
        string_val: "unknown"
        string_val: "unknown"
        string_val: "A"
        string_val: "D"
        string_val: "unknown"
        string_val: "unknown"
        string_val: "unknown"
        string_val: "unknown"
        string_val: "D"
        string_val: "unknown"
        string_val: "unknown"
        string_val: "unknown"
        string_val: "unknown"
        string_val: "unknown"
        string_val: "C"
        string_val: "unknown"
        string_val: "unknown"
        string_val: "unknown"
        string_val: "unknown"
        string_val: "unknown"
        string_val: "unknown"
        string_val: "B"
        string_val: "unknown"
        string_val: "unknown"
        string_val: "E"
        string_val: "unknown"
        string_val: "unknown"
        string_val: "unknown"
        string_val: "unknown"
        string_val: "unknown"
        string_val: "unknown"
        string_val: "D"
        string_val: "C"
        string_val: "unknown"
        string_val: "B"
        string_val: "unknown"
        string_val: "unknown"
        string_val: "unknown"
        string_val: "unknown"
        string_val: "unknown"
        string_val: "unknown"
        string_val: "unknown"
        string_val: "unknown"
        string_val: "unknown"
        string_val: "unknown"
        string_val: "unknown"
        string_val: "unknown"
        string_val: "unknown"
        string_val: "unknown"
        string_val: "unknown"
        string_val: "unknown"
        string_val: "unknown"
        string_val: "E"
        string_val: "unknown"
        string_val: "unknown"
        string_val: "unknown"
        string_val: "unknown"
        string_val: "C"
        string_val: "unknown"
        string_val: "unknown"
        string_val: "unknown"
        string_val: "unknown"
        string_val: "unknown"
        string_val: "unknown"
        string_val: "unknown"
        string_val: "unknown"
        string_val: "unknown"
        string_val: "unknown"
        string_val: "unknown"
        string_val: "F"
        string_val: "B"
        string_val: "B"
        string_val: "unknown"
        string_val: "unknown"
        string_val: "unknown"
        string_val: "unknown"
        string_val: "unknown"
        string_val: "unknown"
        string_val: "G"
        string_val: "unknown"
        string_val: "unknown"
        string_val: "unknown"
        string_val: "A"
        string_val: "unknown"
        string_val: "unknown"
        string_val: "unknown"
        string_val: "D"
        string_val: "unknown"
        string_val: "unknown"
        string_val: "unknown"
        string_val: "unknown"
        string_val: "unknown"
        string_val: "unknown"
        string_val: "unknown"
        string_val: "unknown"
        string_val: "unknown"
        string_val: "unknown"
        string_val: "C"
        string_val: "unknown"
        string_val: "unknown"
        string_val: "unknown"
        string_val: "unknown"
        string_val: "unknown"
        string_val: "unknown"
        string_val: "unknown"
        string_val: "unknown"
        string_val: "unknown"
        string_val: "unknown"
        string_val: "C"
        string_val: "unknown"
        string_val: "unknown"
        string_val: "G"
        string_val: "unknown"
        string_val: "unknown"
        string_val: "unknown"
        string_val: "unknown"
        string_val: "unknown"
        string_val: "unknown"
        string_val: "unknown"
        string_val: "B"
        string_val: "unknown"
        string_val: "unknown"
        string_val: "unknown"
        string_val: "unknown"
        string_val: "C"
        string_val: "C"
        string_val: "unknown"
        string_val: "unknown"
        string_val: "unknown"
        string_val: "C"
        string_val: "unknown"
        string_val: "D"
        string_val: "unknown"
        string_val: "unknown"
        string_val: "unknown"
        string_val: "unknown"
        string_val: "unknown"
        string_val: "unknown"
        string_val: "A"
        string_val: "unknown"
        string_val: "D"
        string_val: "unknown"
        string_val: "C"
        string_val: "B"
        string_val: "unknown"
        string_val: "unknown"
        string_val: "E"
        string_val: "unknown"
        string_val: "unknown"
        string_val: "C"
        string_val: "unknown"
        string_val: "E"
        string_val: "C"
        string_val: "B"
        string_val: "unknown"
        string_val: "unknown"
        string_val: "unknown"
        string_val: "unknown"
        string_val: "C"
        string_val: "E"
        string_val: "unknown"
        string_val: "unknown"
        string_val: "unknown"
        string_val: "unknown"
        string_val: "C"
        string_val: "unknown"
        string_val: "unknown"
        string_val: "unknown"
        string_val: "C"
        string_val: "unknown"
        string_val: "unknown"
        string_val: "C"
        string_val: "unknown"
        string_val: "unknown"
        string_val: "unknown"
        string_val: "unknown"
        string_val: "unknown"
        string_val: "F"
        string_val: "unknown"
        string_val: "unknown"
        string_val: "unknown"
        string_val: "unknown"
        string_val: "unknown"
        string_val: "unknown"
        string_val: "E"
        string_val: "unknown"
        string_val: "unknown"
        string_val: "unknown"
        string_val: "unknown"
        string_val: "unknown"
        string_val: "unknown"
        string_val: "unknown"
        string_val: "unknown"
        string_val: "D"
        string_val: "unknown"
        string_val: "unknown"
        string_val: "B"
        string_val: "unknown"
        string_val: "unknown"
        string_val: "unknown"
        string_val: "C"
        string_val: "unknown"
        string_val: "unknown"
        string_val: "unknown"
        string_val: "unknown"
        string_val: "unknown"
        string_val: "unknown"
        string_val: "unknown"
        string_val: "unknown"
        string_val: "B"
        string_val: "unknown"
        string_val: "D"
        string_val: "G"
        string_val: "unknown"
        string_val: "unknown"
        string_val: "unknown"
        string_val: "unknown"
        string_val: "unknown"
        string_val: "unknown"
        string_val: "unknown"
        string_val: "unknown"
        string_val: "unknown"
        string_val: "unknown"
        string_val: "unknown"
        string_val: "unknown"
        string_val: "unknown"
        string_val: "unknown"
        string_val: "unknown"
        string_val: "unknown"
        string_val: "unknown"
        string_val: "unknown"
        string_val: "unknown"
        string_val: "unknown"
        string_val: "unknown"
        string_val: "unknown"
        string_val: "unknown"
        string_val: "unknown"
        string_val: "E"
        string_val: "C"
        string_val: "unknown"
        string_val: "unknown"
        string_val: "unknown"
        string_val: "E"
        string_val: "B"
        string_val: "unknown"
        string_val: "C"
        string_val: "unknown"
        string_val: "unknown"
        string_val: "unknown"
        string_val: "unknown"
        string_val: "unknown"
        string_val: "unknown"
        string_val: "unknown"
        string_val: "C"
        string_val: "unknown"
        string_val: "C"
        string_val: "C"
        string_val: "unknown"
        string_val: "E"
        string_val: "D"
        string_val: "E"
        string_val: "unknown"
        string_val: "E"
        string_val: "unknown"
        string_val: "unknown"
        string_val: "unknown"
        string_val: "unknown"
        string_val: "unknown"
        string_val: "unknown"
        string_val: "unknown"
        string_val: "D"
        string_val: "A"
        string_val: "unknown"
        string_val: "unknown"
        string_val: "unknown"
        string_val: "unknown"
        string_val: "unknown"
        string_val: "unknown"
        string_val: "B"
        string_val: "unknown"
        string_val: "C"
        string_val: "B"
        string_val: "unknown"
        string_val: "unknown"
        string_val: "unknown"
        string_val: "unknown"
        string_val: "C"
        string_val: "unknown"
        string_val: "unknown"
        string_val: "unknown"
        string_val: "C"
        string_val: "unknown"
        string_val: "unknown"
        string_val: "unknown"
        string_val: "unknown"
        string_val: "unknown"
        string_val: "D"
        string_val: "F"
        string_val: "unknown"
        string_val: "unknown"
        string_val: "B"
        string_val: "unknown"
        string_val: "B"
        string_val: "unknown"
        string_val: "unknown"
        string_val: "unknown"
        string_val: "C"
        string_val: "unknown"
        string_val: "unknown"
        string_val: "unknown"
        string_val: "unknown"
        string_val: "unknown"
        string_val: "unknown"
        string_val: "B"
        string_val: "unknown"
        string_val: "B"
        string_val: "B"
        string_val: "unknown"
        string_val: "unknown"
        string_val: "C"
        string_val: "unknown"
        string_val: "unknown"
        string_val: "unknown"
        string_val: "C"
        string_val: "unknown"
        string_val: "unknown"
        string_val: "unknown"
        string_val: "A"
        string_val: "unknown"
        string_val: "E"
        string_val: "unknown"
        string_val: "unknown"
        string_val: "unknown"
        string_val: "unknown"
        string_val: "unknown"
        string_val: "unknown"
        string_val: "unknown"
        string_val: "unknown"
        string_val: "unknown"
        string_val: "C"
        string_val: "E"
        string_val: "unknown"
        string_val: "unknown"
        string_val: "unknown"
        string_val: "A"
        string_val: "unknown"
        string_val: "B"
        string_val: "unknown"
        string_val: "unknown"
        string_val: "D"
        string_val: "unknown"
        string_val: "unknown"
        string_val: "unknown"
        string_val: "unknown"
        string_val: "unknown"
        string_val: "unknown"
        string_val: "unknown"
        string_val: "A"
        string_val: "unknown"
        string_val: "unknown"
        string_val: "unknown"
        string_val: "unknown"
        string_val: "unknown"
        string_val: "C"
        string_val: "unknown"
        string_val: "unknown"
        string_val: "unknown"
        string_val: "unknown"
        string_val: "unknown"
        string_val: "unknown"
        string_val: "unknown"
        string_val: "unknown"
        string_val: "D"
        string_val: "unknown"
        string_val: "D"
        string_val: "unknown"
        string_val: "unknown"
        string_val: "A"
        string_val: "unknown"
        string_val: "B"
        string_val: "unknown"
        string_val: "unknown"
        string_val: "unknown"
        string_val: "unknown"
        string_val: "unknown"
        string_val: "unknown"
        string_val: "unknown"
        string_val: "unknown"
        string_val: "D"
        string_val: "unknown"
        string_val: "unknown"
        string_val: "unknown"
        string_val: "unknown"
        string_val: "unknown"
        string_val: "unknown"
        string_val: "unknown"
        string_val: "unknown"
        string_val: "unknown"
        string_val: "E"
        string_val: "unknown"
        string_val: "unknown"
        string_val: "unknown"
        string_val: "unknown"
        string_val: "unknown"
        string_val: "unknown"
        string_val: "B"
        string_val: "unknown"
        string_val: "unknown"
        string_val: "unknown"
        string_val: "unknown"
        string_val: "B"
        string_val: "D"
        string_val: "unknown"
        string_val: "unknown"
        string_val: "unknown"
        string_val: "unknown"
        string_val: "unknown"
        string_val: "B"
        string_val: "B"
        string_val: "unknown"
        string_val: "unknown"
        string_val: "unknown"
        string_val: "unknown"
        string_val: "C"
        string_val: "E"
        string_val: "unknown"
        string_val: "unknown"
        string_val: "unknown"
        string_val: "unknown"
        string_val: "C"
        string_val: "C"
        string_val: "C"
        string_val: "unknown"
        string_val: "F"
        string_val: "C"
        string_val: "E"
        string_val: "unknown"
        string_val: "unknown"
        string_val: "unknown"
        string_val: "unknown"
        string_val: "E"
        string_val: "unknown"
        string_val: "unknown"
        string_val: "unknown"
        string_val: "B"
        string_val: "unknown"
        string_val: "unknown"
        string_val: "unknown"
        string_val: "unknown"
        string_val: "B"
        string_val: "unknown"
        string_val: "unknown"
        string_val: "C"
        string_val: "B"
        string_val: "unknown"
        string_val: "B"
        string_val: "unknown"
        string_val: "E"
        string_val: "unknown"
        string_val: "unknown"
        string_val: "unknown"
        string_val: "unknown"
        string_val: "unknown"
        string_val: "unknown"
        string_val: "unknown"
        string_val: "unknown"
        string_val: "D"
        string_val: "unknown"
        string_val: "unknown"
        string_val: "unknown"
        string_val: "unknown"
        string_val: "E"
        string_val: "unknown"
        string_val: "F"
        string_val: "unknown"
        string_val: "B"
        string_val: "D"
        string_val: "unknown"
        string_val: "unknown"
        string_val: "unknown"
        string_val: "B"
        string_val: "unknown"
        string_val: "unknown"
        string_val: "unknown"
        string_val: "unknown"
        string_val: "unknown"
        string_val: "unknown"
        string_val: "D"
        string_val: "unknown"
        string_val: "unknown"
        string_val: "unknown"
        string_val: "unknown"
        string_val: "unknown"
        string_val: "B"
        string_val: "unknown"
        string_val: "A"
        string_val: "unknown"
        string_val: "E"
        string_val: "unknown"
        string_val: "unknown"
        string_val: "unknown"
        string_val: "unknown"
        string_val: "B"
        string_val: "unknown"
        string_val: "unknown"
        string_val: "unknown"
        string_val: "B"
        string_val: "unknown"
        string_val: "unknown"
        string_val: "unknown"
        string_val: "unknown"
        string_val: "unknown"
        string_val: "unknown"
        string_val: "unknown"
        string_val: "unknown"
        string_val: "unknown"
        string_val: "E"
        string_val: "unknown"
        string_val: "unknown"
        string_val: "C"
        string_val: "unknown"
        string_val: "unknown"
        string_val: "unknown"
        string_val: "unknown"
        string_val: "unknown"
        string_val: "unknown"
        string_val: "unknown"
        string_val: "C"
        string_val: "unknown"
        string_val: "D"
        string_val: "unknown"
        string_val: "unknown"
        string_val: "E"
        string_val: "unknown"
        string_val: "unknown"
        string_val: "unknown"
        string_val: "unknown"
        string_val: "unknown"
        string_val: "A"
        string_val: "unknown"
        string_val: "unknown"
        string_val: "D"
        string_val: "B"
        string_val: "unknown"
        string_val: "unknown"
        string_val: "unknown"
        string_val: "unknown"
        string_val: "unknown"
        string_val: "unknown"
        string_val: "unknown"
        string_val: "unknown"
        string_val: "unknown"
        string_val: "B"
        string_val: "unknown"
        string_val: "unknown"
      }
    }
  }
}
node {
  name: "tensors/component_4"
  op: "Const"
  device: "/device:CPU:0"
  attr {
    key: "_output_shapes"
    value {
      list {
        shape {
          dim {
            size: 627
          }
        }
      }
    }
  }
  attr {
    key: "dtype"
    value {
      type: DT_STRING
    }
  }
  attr {
    key: "value"
    value {
      tensor {
        dtype: DT_STRING
        tensor_shape {
          dim {
            size: 627
          }
        }
        string_val: "Southampton"
        string_val: "Cherbourg"
        string_val: "Southampton"
        string_val: "Southampton"
        string_val: "Queenstown"
        string_val: "Southampton"
        string_val: "Southampton"
        string_val: "Cherbourg"
        string_val: "Southampton"
        string_val: "Southampton"
        string_val: "Southampton"
        string_val: "Southampton"
        string_val: "Queenstown"
        string_val: "Southampton"
        string_val: "Southampton"
        string_val: "Cherbourg"
        string_val: "Southampton"
        string_val: "Southampton"
        string_val: "Southampton"
        string_val: "Cherbourg"
        string_val: "Southampton"
        string_val: "Queenstown"
        string_val: "Southampton"
        string_val: "Cherbourg"
        string_val: "Cherbourg"
        string_val: "Queenstown"
        string_val: "Southampton"
        string_val: "Cherbourg"
        string_val: "Southampton"
        string_val: "Cherbourg"
        string_val: "Cherbourg"
        string_val: "Southampton"
        string_val: "Southampton"
        string_val: "Cherbourg"
        string_val: "Cherbourg"
        string_val: "Southampton"
        string_val: "Queenstown"
        string_val: "Cherbourg"
        string_val: "Southampton"
        string_val: "Southampton"
        string_val: "Cherbourg"
        string_val: "Southampton"
        string_val: "Cherbourg"
        string_val: "Southampton"
        string_val: "Southampton"
        string_val: "Cherbourg"
        string_val: "Southampton"
        string_val: "Cherbourg"
        string_val: "unknown"
        string_val: "Southampton"
        string_val: "Southampton"
        string_val: "Cherbourg"
        string_val: "Southampton"
        string_val: "Southampton"
        string_val: "Southampton"
        string_val: "Southampton"
        string_val: "Southampton"
        string_val: "Southampton"
        string_val: "Southampton"
        string_val: "Southampton"
        string_val: "Southampton"
        string_val: "Southampton"
        string_val: "Southampton"
        string_val: "Southampton"
        string_val: "Southampton"
        string_val: "Queenstown"
        string_val: "Southampton"
        string_val: "Southampton"
        string_val: "Southampton"
        string_val: "Southampton"
        string_val: "Southampton"
        string_val: "Southampton"
        string_val: "Southampton"
        string_val: "Southampton"
        string_val: "Cherbourg"
        string_val: "Cherbourg"
        string_val: "Southampton"
        string_val: "Southampton"
        string_val: "Southampton"
        string_val: "Southampton"
        string_val: "Southampton"
        string_val: "Southampton"
        string_val: "Southampton"
        string_val: "Southampton"
        string_val: "Southampton"
        string_val: "Queenstown"
        string_val: "Southampton"
        string_val: "Cherbourg"
        string_val: "Southampton"
        string_val: "Cherbourg"
        string_val: "Southampton"
        string_val: "Queenstown"
        string_val: "Southampton"
        string_val: "Cherbourg"
        string_val: "Southampton"
        string_val: "Cherbourg"
        string_val: "Southampton"
        string_val: "Queenstown"
        string_val: "Southampton"
        string_val: "Southampton"
        string_val: "Southampton"
        string_val: "Southampton"
        string_val: "Cherbourg"
        string_val: "Southampton"
        string_val: "Southampton"
        string_val: "Southampton"
        string_val: "Cherbourg"
        string_val: "Cherbourg"
        string_val: "Southampton"
        string_val: "Queenstown"
        string_val: "Southampton"
        string_val: "Southampton"
        string_val: "Southampton"
        string_val: "Southampton"
        string_val: "Southampton"
        string_val: "Southampton"
        string_val: "Cherbourg"
        string_val: "Queenstown"
        string_val: "Southampton"
        string_val: "Southampton"
        string_val: "Southampton"
        string_val: "Southampton"
        string_val: "Southampton"
        string_val: "Southampton"
        string_val: "Southampton"
        string_val: "Southampton"
        string_val: "Queenstown"
        string_val: "Southampton"
        string_val: "Southampton"
        string_val: "Cherbourg"
        string_val: "Southampton"
        string_val: "Southampton"
        string_val: "Southampton"
        string_val: "Cherbourg"
        string_val: "Southampton"
        string_val: "Southampton"
        string_val: "Queenstown"
        string_val: "Southampton"
        string_val: "Southampton"
        string_val: "Southampton"
        string_val: "Southampton"
        string_val: "Southampton"
        string_val: "Cherbourg"
        string_val: "Cherbourg"
        string_val: "Queenstown"
        string_val: "Queenstown"
        string_val: "Southampton"
        string_val: "Southampton"
        string_val: "Southampton"
        string_val: "Southampton"
        string_val: "Southampton"
        string_val: "Southampton"
        string_val: "Cherbourg"
        string_val: "Queenstown"
        string_val: "Cherbourg"
        string_val: "Southampton"
        string_val: "Southampton"
        string_val: "Queenstown"
        string_val: "Cherbourg"
        string_val: "Southampton"
        string_val: "Southampton"
        string_val: "Southampton"
        string_val: "Southampton"
        string_val: "Southampton"
        string_val: "Southampton"
        string_val: "Southampton"
        string_val: "Southampton"
        string_val: "Southampton"
        string_val: "Southampton"
        string_val: "Southampton"
        string_val: "Southampton"
        string_val: "Southampton"
        string_val: "Southampton"
        string_val: "Southampton"
        string_val: "Southampton"
        string_val: "Southampton"
        string_val: "Cherbourg"
        string_val: "Queenstown"
        string_val: "Southampton"
        string_val: "Cherbourg"
        string_val: "Queenstown"
        string_val: "Southampton"
        string_val: "Southampton"
        string_val: "Southampton"
        string_val: "Southampton"
        string_val: "Southampton"
        string_val: "Cherbourg"
        string_val: "Cherbourg"
        string_val: "Southampton"
        string_val: "Queenstown"
        string_val: "Southampton"
        string_val: "Southampton"
        string_val: "Queenstown"
        string_val: "Southampton"
        string_val: "Southampton"
        string_val: "Southampton"
        string_val: "Southampton"
        string_val: "Southampton"
        string_val: "Southampton"
        string_val: "Southampton"
        string_val: "Southampton"
        string_val: "Cherbourg"
        string_val: "Queenstown"
        string_val: "Southampton"
        string_val: "Southampton"
        string_val: "Southampton"
        string_val: "Queenstown"
        string_val: "Southampton"
        string_val: "Southampton"
        string_val: "Southampton"
        string_val: "Southampton"
        string_val: "Southampton"
        string_val: "Cherbourg"
        string_val: "Southampton"
        string_val: "Southampton"
        string_val: "Cherbourg"
        string_val: "Queenstown"
        string_val: "Southampton"
        string_val: "Queenstown"
        string_val: "Southampton"
        string_val: "Cherbourg"
        string_val: "Cherbourg"
        string_val: "Cherbourg"
        string_val: "Cherbourg"
        string_val: "Cherbourg"
        string_val: "Cherbourg"
        string_val: "Southampton"
        string_val: "Southampton"
        string_val: "Southampton"
        string_val: "Southampton"
        string_val: "Southampton"
        string_val: "Cherbourg"
        string_val: "Southampton"
        string_val: "Southampton"
        string_val: "Southampton"
        string_val: "Southampton"
        string_val: "Cherbourg"
        string_val: "Southampton"
        string_val: "Southampton"
        string_val: "Queenstown"
        string_val: "Southampton"
        string_val: "Southampton"
        string_val: "Southampton"
        string_val: "Southampton"
        string_val: "Southampton"
        string_val: "Southampton"
        string_val: "Southampton"
        string_val: "Southampton"
        string_val: "Southampton"
        string_val: "Southampton"
        string_val: "Southampton"
        string_val: "Southampton"
        string_val: "Cherbourg"
        string_val: "Southampton"
        string_val: "Cherbourg"
        string_val: "Southampton"
        string_val: "Southampton"
        string_val: "Southampton"
        string_val: "Queenstown"
        string_val: "Queenstown"
        string_val: "Southampton"
        string_val: "Cherbourg"
        string_val: "Cherbourg"
        string_val: "Southampton"
        string_val: "Queenstown"
        string_val: "Cherbourg"
        string_val: "Cherbourg"
        string_val: "Queenstown"
        string_val: "Cherbourg"
        string_val: "Southampton"
        string_val: "Southampton"
        string_val: "Cherbourg"
        string_val: "Cherbourg"
        string_val: "Southampton"
        string_val: "Cherbourg"
        string_val: "Southampton"
        string_val: "Southampton"
        string_val: "Southampton"
        string_val: "Southampton"
        string_val: "Queenstown"
        string_val: "Cherbourg"
        string_val: "Southampton"
        string_val: "Southampton"
        string_val: "Cherbourg"
        string_val: "Southampton"
        string_val: "Southampton"
        string_val: "Southampton"
        string_val: "Southampton"
        string_val: "Southampton"
        string_val: "Southampton"
        string_val: "Southampton"
        string_val: "Southampton"
        string_val: "Southampton"
        string_val: "Southampton"
        string_val: "Southampton"
        string_val: "Southampton"
        string_val: "Southampton"
        string_val: "Queenstown"
        string_val: "Southampton"
        string_val: "Southampton"
        string_val: "Southampton"
        string_val: "Southampton"
        string_val: "Southampton"
        string_val: "Southampton"
        string_val: "Cherbourg"
        string_val: "Queenstown"
        string_val: "Southampton"
        string_val: "Southampton"
        string_val: "Queenstown"
        string_val: "Southampton"
        string_val: "Southampton"
        string_val: "Southampton"
        string_val: "Southampton"
        string_val: "Southampton"
        string_val: "Southampton"
        string_val: "Southampton"
        string_val: "Southampton"
        string_val: "Southampton"
        string_val: "Southampton"
        string_val: "Southampton"
        string_val: "Southampton"
        string_val: "Southampton"
        string_val: "Southampton"
        string_val: "Southampton"
        string_val: "Cherbourg"
        string_val: "Southampton"
        string_val: "Southampton"
        string_val: "Cherbourg"
        string_val: "Cherbourg"
        string_val: "Cherbourg"
        string_val: "Southampton"
        string_val: "Southampton"
        string_val: "Southampton"
        string_val: "Southampton"
        string_val: "Southampton"
        string_val: "Southampton"
        string_val: "Southampton"
        string_val: "Southampton"
        string_val: "Queenstown"
        string_val: "Cherbourg"
        string_val: "Southampton"
        string_val: "Southampton"
        string_val: "Cherbourg"
        string_val: "Southampton"
        string_val: "Southampton"
        string_val: "Southampton"
        string_val: "Southampton"
        string_val: "Southampton"
        string_val: "Southampton"
        string_val: "Southampton"
        string_val: "Cherbourg"
        string_val: "Southampton"
        string_val: "Southampton"
        string_val: "Cherbourg"
        string_val: "Southampton"
        string_val: "Southampton"
        string_val: "Cherbourg"
        string_val: "Southampton"
        string_val: "Southampton"
        string_val: "Southampton"
        string_val: "Queenstown"
        string_val: "Southampton"
        string_val: "Cherbourg"
        string_val: "Southampton"
        string_val: "Southampton"
        string_val: "Southampton"
        string_val: "Cherbourg"
        string_val: "Southampton"
        string_val: "Southampton"
        string_val: "Southampton"
        string_val: "Southampton"
        string_val: "Southampton"
        string_val: "Southampton"
        string_val: "Southampton"
        string_val: "Cherbourg"
        string_val: "Cherbourg"
        string_val: "Queenstown"
        string_val: "Southampton"
        string_val: "Southampton"
        string_val: "Southampton"
        string_val: "Southampton"
        string_val: "Cherbourg"
        string_val: "Cherbourg"
        string_val: "Southampton"
        string_val: "Southampton"
        string_val: "Southampton"
        string_val: "Cherbourg"
        string_val: "Cherbourg"
        string_val: "Southampton"
        string_val: "Southampton"
        string_val: "Southampton"
        string_val: "Cherbourg"
        string_val: "Southampton"
        string_val: "Cherbourg"
        string_val: "Southampton"
        string_val: "Cherbourg"
        string_val: "Southampton"
        string_val: "Queenstown"
        string_val: "Southampton"
        string_val: "Cherbourg"
        string_val: "Cherbourg"
        string_val: "Southampton"
        string_val: "Southampton"
        string_val: "Queenstown"
        string_val: "Southampton"
        string_val: "Southampton"
        string_val: "Southampton"
        string_val: "Southampton"
        string_val: "Southampton"
        string_val: "Southampton"
        string_val: "Southampton"
        string_val: "Southampton"
        string_val: "Southampton"
        string_val: "Southampton"
        string_val: "Southampton"
        string_val: "Southampton"
        string_val: "Cherbourg"
        string_val: "Southampton"
        string_val: "Cherbourg"
        string_val: "Southampton"
        string_val: "Southampton"
        string_val: "Cherbourg"
        string_val: "Southampton"
        string_val: "Queenstown"
        string_val: "Southampton"
        string_val: "Southampton"
        string_val: "Southampton"
        string_val: "Southampton"
        string_val: "Cherbourg"
        string_val: "Cherbourg"
        string_val: "Cherbourg"
        string_val: "Southampton"
        string_val: "Southampton"
        string_val: "Southampton"
        string_val: "Cherbourg"
        string_val: "Southampton"
        string_val: "Southampton"
        string_val: "Southampton"
        string_val: "Queenstown"
        string_val: "Southampton"
        string_val: "Southampton"
        string_val: "Southampton"
        string_val: "Southampton"
        string_val: "Cherbourg"
        string_val: "Southampton"
        string_val: "Queenstown"
        string_val: "Southampton"
        string_val: "Southampton"
        string_val: "Queenstown"
        string_val: "Southampton"
        string_val: "Southampton"
        string_val: "Cherbourg"
        string_val: "Southampton"
        string_val: "Southampton"
        string_val: "Southampton"
        string_val: "Southampton"
        string_val: "Southampton"
        string_val: "Southampton"
        string_val: "Southampton"
        string_val: "Cherbourg"
        string_val: "Cherbourg"
        string_val: "Southampton"
        string_val: "Southampton"
        string_val: "Southampton"
        string_val: "Southampton"
        string_val: "Southampton"
        string_val: "Southampton"
        string_val: "Southampton"
        string_val: "Queenstown"
        string_val: "Southampton"
        string_val: "Southampton"
        string_val: "Southampton"
        string_val: "Southampton"
        string_val: "Southampton"
        string_val: "Southampton"
        string_val: "Southampton"
        string_val: "Southampton"
        string_val: "Southampton"
        string_val: "Southampton"
        string_val: "Southampton"
        string_val: "Southampton"
        string_val: "Southampton"
        string_val: "Cherbourg"
        string_val: "Cherbourg"
        string_val: "Southampton"
        string_val: "Southampton"
        string_val: "Southampton"
        string_val: "Southampton"
        string_val: "Southampton"
        string_val: "Southampton"
        string_val: "Southampton"
        string_val: "Cherbourg"
        string_val: "Southampton"
        string_val: "Southampton"
        string_val: "Queenstown"
        string_val: "Cherbourg"
        string_val: "Southampton"
        string_val: "Queenstown"
        string_val: "Southampton"
        string_val: "Southampton"
        string_val: "Cherbourg"
        string_val: "Cherbourg"
        string_val: "Southampton"
        string_val: "Southampton"
        string_val: "Southampton"
        string_val: "Southampton"
        string_val: "Cherbourg"
        string_val: "Southampton"
        string_val: "Queenstown"
        string_val: "Southampton"
        string_val: "Southampton"
        string_val: "Southampton"
        string_val: "Southampton"
        string_val: "Southampton"
        string_val: "Southampton"
        string_val: "Southampton"
        string_val: "Southampton"
        string_val: "Cherbourg"
        string_val: "Southampton"
        string_val: "Southampton"
        string_val: "Southampton"
        string_val: "Cherbourg"
        string_val: "Southampton"
        string_val: "Southampton"
        string_val: "Southampton"
        string_val: "Cherbourg"
        string_val: "Southampton"
        string_val: "Southampton"
        string_val: "Southampton"
        string_val: "Southampton"
        string_val: "Southampton"
        string_val: "Southampton"
        string_val: "Southampton"
        string_val: "Southampton"
        string_val: "Southampton"
        string_val: "Southampton"
        string_val: "Southampton"
        string_val: "Cherbourg"
        string_val: "Southampton"
        string_val: "Cherbourg"
        string_val: "Queenstown"
        string_val: "Southampton"
        string_val: "Southampton"
        string_val: "Southampton"
        string_val: "Southampton"
        string_val: "Queenstown"
        string_val: "Southampton"
        string_val: "Southampton"
        string_val: "Southampton"
        string_val: "Southampton"
        string_val: "Southampton"
        string_val: "Southampton"
        string_val: "Cherbourg"
        string_val: "Queenstown"
        string_val: "Southampton"
        string_val: "Southampton"
        string_val: "Cherbourg"
        string_val: "Southampton"
        string_val: "Southampton"
        string_val: "Southampton"
        string_val: "Southampton"
        string_val: "Cherbourg"
        string_val: "Southampton"
        string_val: "Southampton"
        string_val: "Southampton"
        string_val: "Southampton"
        string_val: "Southampton"
        string_val: "Southampton"
        string_val: "Southampton"
        string_val: "Southampton"
        string_val: "Southampton"
        string_val: "Southampton"
        string_val: "Southampton"
        string_val: "Southampton"
        string_val: "Southampton"
        string_val: "Southampton"
        string_val: "Cherbourg"
        string_val: "Southampton"
        string_val: "Southampton"
        string_val: "Southampton"
        string_val: "Southampton"
        string_val: "Queenstown"
        string_val: "Southampton"
        string_val: "Queenstown"
        string_val: "Cherbourg"
        string_val: "Cherbourg"
        string_val: "Southampton"
        string_val: "Southampton"
        string_val: "Cherbourg"
        string_val: "Southampton"
        string_val: "Southampton"
        string_val: "Cherbourg"
        string_val: "Southampton"
        string_val: "Cherbourg"
        string_val: "Cherbourg"
        string_val: "Southampton"
        string_val: "Southampton"
        string_val: "Cherbourg"
        string_val: "Southampton"
        string_val: "Cherbourg"
        string_val: "Southampton"
        string_val: "Southampton"
        string_val: "Southampton"
        string_val: "Southampton"
        string_val: "Southampton"
        string_val: "Cherbourg"
        string_val: "Southampton"
        string_val: "Southampton"
        string_val: "Southampton"
        string_val: "Cherbourg"
        string_val: "Southampton"
        string_val: "Southampton"
        string_val: "Southampton"
        string_val: "Southampton"
        string_val: "Southampton"
        string_val: "Southampton"
        string_val: "Cherbourg"
        string_val: "Cherbourg"
        string_val: "Southampton"
        string_val: "Southampton"
        string_val: "Southampton"
        string_val: "Southampton"
        string_val: "Southampton"
        string_val: "Southampton"
        string_val: "Southampton"
        string_val: "Southampton"
        string_val: "Queenstown"
      }
    }
  }
}
node {
  name: "tensors/component_5"
  op: "Const"
  device: "/device:CPU:0"
  attr {
    key: "_output_shapes"
    value {
      list {
        shape {
          dim {
            size: 627
          }
        }
      }
    }
  }
  attr {
    key: "dtype"
    value {
      type: DT_DOUBLE
    }
  }
  attr {
    key: "value"
    value {
      tensor {
        dtype: DT_DOUBLE
        tensor_shape {
          dim {
            size: 627
          }
        }
        tensor_content: "…"
      }
    }
  }
}
node {
  name: "tensors/component_6"
  op: "Const"
  device: "/device:CPU:0"
  attr {
    key: "_output_shapes"
    value {
      list {
        shape {
          dim {
            size: 627
          }
        }
      }
    }
  }
  attr {
    key: "dtype"
    value {
      type: DT_INT64
    }
  }
  attr {
    key: "value"
    value {
      tensor {
        dtype: DT_INT64
        tensor_shape {
          dim {
            size: 627
          }
        }
        tensor_content: "…"
      }
    }
  }
}
node {
  name: "tensors/component_7"
  op: "Const"
  device: "/device:CPU:0"
  attr {
    key: "_output_shapes"
    value {
      list {
        shape {
          dim {
            size: 627
          }
        }
      }
    }
  }
  attr {
    key: "dtype"
    value {
      type: DT_INT64
    }
  }
  attr {
    key: "value"
    value {
      tensor {
        dtype: DT_INT64
        tensor_shape {
          dim {
            size: 627
          }
        }
        tensor_content: "…"
      }
    }
  }
}
node {
  name: "tensors/component_8"
  op: "Const"
  device: "/device:CPU:0"
  attr {
    key: "_output_shapes"
    value {
      list {
        shape {
          dim {
            size: 627
          }
        }
      }
    }
  }
  attr {
    key: "dtype"
    value {
      type: DT_STRING
    }
  }
  attr {
    key: "value"
    value {
      tensor {
        dtype: DT_STRING
        tensor_shape {
          dim {
            size: 627
          }
        }
        string_val: "male"
        string_val: "female"
        string_val: "female"
        string_val: "female"
        string_val: "male"
        string_val: "male"
        string_val: "female"
        string_val: "female"
        string_val: "female"
        string_val: "male"
        string_val: "male"
        string_val: "female"
        string_val: "male"
        string_val: "male"
        string_val: "female"
        string_val: "female"
        string_val: "male"
        string_val: "male"
        string_val: "female"
        string_val: "male"
        string_val: "male"
        string_val: "female"
        string_val: "male"
        string_val: "male"
        string_val: "female"
        string_val: "female"
        string_val: "male"
        string_val: "male"
        string_val: "male"
        string_val: "male"
        string_val: "female"
        string_val: "female"
        string_val: "female"
        string_val: "male"
        string_val: "female"
        string_val: "male"
        string_val: "male"
        string_val: "male"
        string_val: "female"
        string_val: "male"
        string_val: "female"
        string_val: "female"
        string_val: "male"
        string_val: "male"
        string_val: "female"
        string_val: "male"
        string_val: "male"
        string_val: "male"
        string_val: "female"
        string_val: "male"
        string_val: "male"
        string_val: "male"
        string_val: "male"
        string_val: "female"
        string_val: "male"
        string_val: "male"
        string_val: "male"
        string_val: "male"
        string_val: "male"
        string_val: "male"
        string_val: "male"
        string_val: "male"
        string_val: "female"
        string_val: "male"
        string_val: "male"
        string_val: "female"
        string_val: "male"
        string_val: "male"
        string_val: "male"
        string_val: "female"
        string_val: "male"
        string_val: "male"
        string_val: "male"
        string_val: "male"
        string_val: "male"
        string_val: "male"
        string_val: "female"
        string_val: "male"
        string_val: "female"
        string_val: "male"
        string_val: "male"
        string_val: "male"
        string_val: "male"
        string_val: "male"
        string_val: "male"
        string_val: "female"
        string_val: "male"
        string_val: "female"
        string_val: "male"
        string_val: "female"
        string_val: "male"
        string_val: "male"
        string_val: "male"
        string_val: "male"
        string_val: "male"
        string_val: "male"
        string_val: "female"
        string_val: "male"
        string_val: "male"
        string_val: "male"
        string_val: "male"
        string_val: "female"
        string_val: "male"
        string_val: "female"
        string_val: "male"
        string_val: "male"
        string_val: "male"
        string_val: "female"
        string_val: "female"
        string_val: "male"
        string_val: "male"
        string_val: "female"
        string_val: "male"
        string_val: "male"
        string_val: "male"
        string_val: "male"
        string_val: "male"
        string_val: "female"
        string_val: "male"
        string_val: "male"
        string_val: "male"
        string_val: "male"
        string_val: "male"
        string_val: "male"
        string_val: "female"
        string_val: "male"
        string_val: "male"
        string_val: "male"
        string_val: "male"
        string_val: "female"
        string_val: "male"
        string_val: "male"
        string_val: "female"
        string_val: "male"
        string_val: "male"
        string_val: "female"
        string_val: "female"
        string_val: "male"
        string_val: "male"
        string_val: "female"
        string_val: "female"
        string_val: "male"
        string_val: "female"
        string_val: "female"
        string_val: "male"
        string_val: "female"
        string_val: "female"
        string_val: "male"
        string_val: "male"
        string_val: "male"
        string_val: "female"
        string_val: "male"
        string_val: "male"
        string_val: "female"
        string_val: "male"
        string_val: "female"
        string_val: "male"
        string_val: "male"
        string_val: "female"
        string_val: "female"
        string_val: "male"
        string_val: "male"
        string_val: "male"
        string_val: "male"
        string_val: "male"
        string_val: "male"
        string_val: "male"
        string_val: "male"
        string_val: "female"
        string_val: "female"
        string_val: "male"
        string_val: "male"
        string_val: "female"
        string_val: "male"
        string_val: "male"
        string_val: "male"
        string_val: "female"
        string_val: "female"
        string_val: "male"
        string_val: "male"
        string_val: "male"
        string_val: "female"
        string_val: "male"
        string_val: "female"
        string_val: "male"
        string_val: "female"
        string_val: "female"
        string_val: "female"
        string_val: "female"
        string_val: "male"
        string_val: "male"
        string_val: "male"
        string_val: "female"
        string_val: "male"
        string_val: "male"
        string_val: "male"
        string_val: "female"
        string_val: "female"
        string_val: "male"
        string_val: "male"
        string_val: "female"
        string_val: "male"
        string_val: "female"
        string_val: "female"
        string_val: "female"
        string_val: "male"
        string_val: "male"
        string_val: "female"
        string_val: "male"
        string_val: "male"
        string_val: "male"
        string_val: "female"
        string_val: "male"
        string_val: "male"
        string_val: "male"
        string_val: "female"
        string_val: "female"
        string_val: "male"
        string_val: "female"
        string_val: "male"
        string_val: "female"
        string_val: "female"
        string_val: "male"
        string_val: "female"
        string_val: "female"
        string_val: "female"
        string_val: "female"
        string_val: "male"
        string_val: "male"
        string_val: "female"
        string_val: "female"
        string_val: "female"
        string_val: "male"
        string_val: "male"
        string_val: "female"
        string_val: "male"
        string_val: "female"
        string_val: "male"
        string_val: "female"
        string_val: "female"
        string_val: "male"
        string_val: "female"
        string_val: "male"
        string_val: "male"
        string_val: "male"
        string_val: "male"
        string_val: "male"
        string_val: "male"
        string_val: "male"
        string_val: "female"
        string_val: "female"
        string_val: "female"
        string_val: "male"
        string_val: "male"
        string_val: "male"
        string_val: "male"
        string_val: "female"
        string_val: "female"
        string_val: "female"
        string_val: "female"
        string_val: "male"
        string_val: "male"
        string_val: "female"
        string_val: "male"
        string_val: "male"
        string_val: "female"
        string_val: "female"
        string_val: "female"
        string_val: "female"
        string_val: "male"
        string_val: "male"
        string_val: "female"
        string_val: "male"
        string_val: "male"
        string_val: "female"
        string_val: "male"
        string_val: "male"
        string_val: "male"
        string_val: "male"
        string_val: "male"
        string_val: "female"
        string_val: "male"
        string_val: "male"
        string_val: "female"
        string_val: "female"
        string_val: "male"
        string_val: "female"
        string_val: "male"
        string_val: "male"
        string_val: "male"
        string_val: "male"
        string_val: "male"
        string_val: "male"
        string_val: "male"
        string_val: "male"
        string_val: "female"
        string_val: "male"
        string_val: "male"
        string_val: "male"
        string_val: "male"
        string_val: "female"
        string_val: "female"
        string_val: "female"
        string_val: "male"
        string_val: "male"
        string_val: "male"
        string_val: "male"
        string_val: "female"
        string_val: "male"
        string_val: "male"
        string_val: "male"
        string_val: "female"
        string_val: "female"
        string_val: "male"
        string_val: "male"
        string_val: "female"
        string_val: "female"
        string_val: "male"
        string_val: "male"
        string_val: "female"
        string_val: "male"
        string_val: "female"
        string_val: "male"
        string_val: "male"
        string_val: "female"
        string_val: "male"
        string_val: "male"
        string_val: "male"
        string_val: "male"
        string_val: "male"
        string_val: "male"
        string_val: "female"
        string_val: "male"
        string_val: "male"
        string_val: "male"
        string_val: "male"
        string_val: "male"
        string_val: "male"
        string_val: "male"
        string_val: "female"
        string_val: "male"
        string_val: "female"
        string_val: "female"
        string_val: "male"
        string_val: "male"
        string_val: "male"
        string_val: "female"
        string_val: "male"
        string_val: "male"
        string_val: "female"
        string_val: "male"
        string_val: "female"
        string_val: "female"
        string_val: "male"
        string_val: "male"
        string_val: "male"
        string_val: "male"
        string_val: "male"
        string_val: "female"
        string_val: "male"
        string_val: "female"
        string_val: "female"
        string_val: "male"
        string_val: "female"
        string_val: "male"
        string_val: "male"
        string_val: "female"
        string_val: "male"
        string_val: "male"
        string_val: "female"
        string_val: "female"
        string_val: "male"
        string_val: "female"
        string_val: "male"
        string_val: "female"
        string_val: "male"
        string_val: "male"
        string_val: "female"
        string_val: "male"
        string_val: "male"
        string_val: "female"
        string_val: "male"
        string_val: "female"
        string_val: "female"
        string_val: "female"
        string_val: "male"
        string_val: "female"
        string_val: "female"
        string_val: "female"
        string_val: "female"
        string_val: "female"
        string_val: "male"
        string_val: "female"
        string_val: "male"
        string_val: "male"
        string_val: "male"
        string_val: "male"
        string_val: "male"
        string_val: "female"
        string_val: "female"
        string_val: "male"
        string_val: "female"
        string_val: "female"
        string_val: "male"
        string_val: "male"
        string_val: "male"
        string_val: "male"
        string_val: "male"
        string_val: "female"
        string_val: "male"
        string_val: "male"
        string_val: "female"
        string_val: "male"
        string_val: "male"
        string_val: "female"
        string_val: "female"
        string_val: "male"
        string_val: "male"
        string_val: "male"
        string_val: "male"
        string_val: "male"
        string_val: "female"
        string_val: "male"
        string_val: "female"
        string_val: "male"
        string_val: "male"
        string_val: "female"
        string_val: "male"
        string_val: "male"
        string_val: "male"
        string_val: "male"
        string_val: "male"
        string_val: "male"
        string_val: "male"
        string_val: "female"
        string_val: "female"
        string_val: "female"
        string_val: "male"
        string_val: "female"
        string_val: "male"
        string_val: "female"
        string_val: "male"
        string_val: "male"
        string_val: "male"
        string_val: "male"
        string_val: "male"
        string_val: "female"
        string_val: "male"
        string_val: "male"
        string_val: "male"
        string_val: "male"
        string_val: "male"
        string_val: "female"
        string_val: "female"
        string_val: "male"
        string_val: "female"
        string_val: "male"
        string_val: "male"
        string_val: "male"
        string_val: "female"
        string_val: "male"
        string_val: "male"
        string_val: "female"
        string_val: "male"
        string_val: "female"
        string_val: "male"
        string_val: "male"
        string_val: "male"
        string_val: "female"
        string_val: "male"
        string_val: "male"
        string_val: "male"
        string_val: "male"
        string_val: "male"
        string_val: "male"
        string_val: "male"
        string_val: "female"
        string_val: "male"
        string_val: "male"
        string_val: "male"
        string_val: "male"
        string_val: "female"
        string_val: "male"
        string_val: "male"
        string_val: "male"
        string_val: "male"
        string_val: "male"
        string_val: "male"
        string_val: "male"
        string_val: "female"
        string_val: "male"
        string_val: "female"
        string_val: "male"
        string_val: "male"
        string_val: "female"
        string_val: "male"
        string_val: "male"
        string_val: "male"
        string_val: "male"
        string_val: "female"
        string_val: "male"
        string_val: "female"
        string_val: "male"
        string_val: "male"
        string_val: "male"
        string_val: "male"
        string_val: "female"
        string_val: "female"
        string_val: "male"
        string_val: "male"
        string_val: "female"
        string_val: "male"
        string_val: "male"
        string_val: "female"
        string_val: "male"
        string_val: "female"
        string_val: "female"
        string_val: "male"
        string_val: "male"
        string_val: "male"
        string_val: "male"
        string_val: "male"
        string_val: "male"
        string_val: "male"
        string_val: "male"
        string_val: "female"
        string_val: "male"
        string_val: "male"
        string_val: "female"
        string_val: "male"
        string_val: "male"
        string_val: "male"
        string_val: "female"
        string_val: "male"
        string_val: "male"
        string_val: "male"
        string_val: "male"
        string_val: "male"
        string_val: "female"
        string_val: "male"
        string_val: "male"
        string_val: "male"
        string_val: "male"
        string_val: "female"
        string_val: "male"
        string_val: "male"
        string_val: "female"
        string_val: "female"
        string_val: "male"
        string_val: "male"
        string_val: "male"
        string_val: "male"
        string_val: "male"
        string_val: "male"
        string_val: "male"
        string_val: "female"
        string_val: "male"
        string_val: "male"
        string_val: "male"
        string_val: "female"
        string_val: "female"
        string_val: "male"
        string_val: "female"
        string_val: "male"
        string_val: "female"
        string_val: "male"
        string_val: "male"
        string_val: "male"
        string_val: "male"
        string_val: "female"
        string_val: "male"
        string_val: "male"
        string_val: "male"
        string_val: "male"
        string_val: "male"
        string_val: "female"
        string_val: "male"
        string_val: "male"
        string_val: "female"
        string_val: "male"
        string_val: "male"
        string_val: "male"
        string_val: "male"
        string_val: "male"
        string_val: "female"
        string_val: "male"
        string_val: "male"
        string_val: "male"
        string_val: "female"
        string_val: "male"
        string_val: "male"
        string_val: "male"
        string_val: "male"
        string_val: "female"
        string_val: "male"
        string_val: "male"
        string_val: "male"
        string_val: "male"
        string_val: "male"
        string_val: "female"
        string_val: "male"
        string_val: "female"
        string_val: "female"
        string_val: "female"
        string_val: "male"
        string_val: "female"
        string_val: "male"
        string_val: "male"
        string_val: "female"
        string_val: "female"
        string_val: "male"
        string_val: "male"
        string_val: "male"
        string_val: "female"
        string_val: "male"
        string_val: "male"
        string_val: "female"
        string_val: "female"
        string_val: "male"
        string_val: "male"
        string_val: "male"
        string_val: "female"
        string_val: "male"
        string_val: "male"
        string_val: "female"
        string_val: "female"
        string_val: "male"
      }
    }
  }
}
node {
  name: "tensors/component_9"
  op: "Const"
  device: "/device:CPU:0"
  attr {
    key: "_output_shapes"
    value {
      list {
        shape {
          dim {
            size: 627
          }
        }
      }
    }
  }
  attr {
    key: "dtype"
    value {
      type: DT_INT64
    }
  }
  attr {
    key: "value"
    value {
      tensor {
        dtype: DT_INT64
        tensor_shape {
          dim {
            size: 627
          }
        }
        tensor_content: "…"
      }
    }
  }
}
node {
  name: "TensorSliceDataset"
  op: "TensorSliceDataset"
  input: "tensors/component_0"
  input: "tensors/component_1"
  input: "tensors/component_2"
  input: "tensors/component_3"
  input: "tensors/component_4"
  input: "tensors/component_5"
  input: "tensors/component_6"
  input: "tensors/component_7"
  input: "tensors/component_8"
  input: "tensors/component_9"
  device: "/device:CPU:0"
  attr {
    key: "Toutput_types"
    value {
      list {
        type: DT_DOUBLE
        type: DT_STRING
        type: DT_STRING
        type: DT_STRING
        type: DT_STRING
        type: DT_DOUBLE
        type: DT_INT64
        type: DT_INT64
        type: DT_STRING
        type: DT_INT64
      }
    }
  }
  attr {
    key: "_output_shapes"
    value {
      list {
        shape {
        }
      }
    }
  }
  attr {
    key: "output_shapes"
    value {
      list {
        shape {
        }
        shape {
        }
        shape {
        }
        shape {
        }
        shape {
        }
        shape {
        }
        shape {
        }
        shape {
        }
        shape {
        }
        shape {
        }
      }
    }
  }
}
node {
  name: "buffer_size"
  op: "Const"
  device: "/device:CPU:0"
  attr {
    key: "_output_shapes"
    value {
      list {
        shape {
        }
      }
    }
  }
  attr {
    key: "dtype"
    value {
      type: DT_INT64
    }
  }
  attr {
    key: "value"
    value {
      tensor {
        dtype: DT_INT64
        tensor_shape {
        }
        int64_val: 10000
      }
    }
  }
}
node {
  name: "seed"
  op: "Const"
  device: "/device:CPU:0"
  attr {
    key: "_output_shapes"
    value {
      list {
        shape {
        }
      }
    }
  }
  attr {
    key: "dtype"
    value {
      type: DT_INT64
    }
  }
  attr {
    key: "value"
    value {
      tensor {
        dtype: DT_INT64
        tensor_shape {
        }
        int64_val: 0
      }
    }
  }
}
node {
  name: "seed2"
  op: "Const"
  device: "/device:CPU:0"
  attr {
    key: "_output_shapes"
    value {
      list {
        shape {
        }
      }
    }
  }
  attr {
    key: "dtype"
    value {
      type: DT_INT64
    }
  }
  attr {
    key: "value"
    value {
      tensor {
        dtype: DT_INT64
        tensor_shape {
        }
        int64_val: 0
      }
    }
  }
}
node {
  name: "ShuffleDataset"
  op: "ShuffleDataset"
  input: "TensorSliceDataset"
  input: "buffer_size"
  input: "seed"
  input: "seed2"
  device: "/device:CPU:0"
  attr {
    key: "_output_shapes"
    value {
      list {
        shape {
        }
      }
    }
  }
  attr {
    key: "output_shapes"
    value {
      list {
        shape {
        }
        shape {
        }
        shape {
        }
        shape {
        }
        shape {
        }
        shape {
        }
        shape {
        }
        shape {
        }
        shape {
        }
        shape {
        }
      }
    }
  }
  attr {
    key: "output_types"
    value {
      list {
        type: DT_DOUBLE
        type: DT_STRING
        type: DT_STRING
        type: DT_STRING
        type: DT_STRING
        type: DT_DOUBLE
        type: DT_INT64
        type: DT_INT64
        type: DT_STRING
        type: DT_INT64
      }
    }
  }
  attr {
    key: "reshuffle_each_iteration"
    value {
      b: true
    }
  }
}
node {
  name: "count"
  op: "Const"
  device: "/device:CPU:0"
  attr {
    key: "_output_shapes"
    value {
      list {
        shape {
        }
      }
    }
  }
  attr {
    key: "dtype"
    value {
      type: DT_INT64
    }
  }
  attr {
    key: "value"
    value {
      tensor {
        dtype: DT_INT64
        tensor_shape {
        }
        int64_val: 100
      }
    }
  }
}
node {
  name: "RepeatDataset"
  op: "RepeatDataset"
  input: "ShuffleDataset"
  input: "count"
  device: "/device:CPU:0"
  attr {
    key: "_output_shapes"
    value {
      list {
        shape {
        }
      }
    }
  }
  attr {
    key: "output_shapes"
    value {
      list {
        shape {
        }
        shape {
        }
        shape {
        }
        shape {
        }
        shape {
        }
        shape {
        }
        shape {
        }
        shape {
        }
        shape {
        }
        shape {
        }
      }
    }
  }
  attr {
    key: "output_types"
    value {
      list {
        type: DT_DOUBLE
        type: DT_STRING
        type: DT_STRING
        type: DT_STRING
        type: DT_STRING
        type: DT_DOUBLE
        type: DT_INT64
        type: DT_INT64
        type: DT_STRING
        type: DT_INT64
      }
    }
  }
}
node {
  name: "batch_size"
  op: "Const"
  device: "/device:CPU:0"
  attr {
    key: "_output_shapes"
    value {
      list {
        shape {
        }
      }
    }
  }
  attr {
    key: "dtype"
    value {
      type: DT_INT64
    }
  }
  attr {
    key: "value"
    value {
      tensor {
        dtype: DT_INT64
        tensor_shape {
        }
        int64_val: 32
      }
    }
  }
}
node {
  name: "drop_remainder"
  op: "Const"
  device: "/device:CPU:0"
  attr {
    key: "_output_shapes"
    value {
      list {
        shape {
        }
      }
    }
  }
  attr {
    key: "dtype"
    value {
      type: DT_BOOL
    }
  }
  attr {
    key: "value"
    value {
      tensor {
        dtype: DT_BOOL
        tensor_shape {
        }
        bool_val: false
      }
    }
  }
}
node {
  name: "BatchDatasetV2"
  op: "BatchDatasetV2"
  input: "RepeatDataset"
  input: "batch_size"
  input: "drop_remainder"
  device: "/device:CPU:0"
  attr {
    key: "_output_shapes"
    value {
      list {
        shape {
        }
      }
    }
  }
  attr {
    key: "output_shapes"
    value {
      list {
        shape {
          dim {
            size: -1
          }
        }
        shape {
          dim {
            size: -1
          }
        }
        shape {
          dim {
            size: -1
          }
        }
        shape {
          dim {
            size: -1
          }
        }
        shape {
          dim {
            size: -1
          }
        }
        shape {
          dim {
            size: -1
          }
        }
        shape {
          dim {
            size: -1
          }
        }
        shape {
          dim {
            size: -1
          }
        }
        shape {
          dim {
            size: -1
          }
        }
        shape {
          dim {
            size: -1
          }
        }
      }
    }
  }
  attr {
    key: "output_types"
    value {
      list {
        type: DT_DOUBLE
        type: DT_STRING
        type: DT_STRING
        type: DT_STRING
        type: DT_STRING
        type: DT_DOUBLE
        type: DT_INT64
        type: DT_INT64
        type: DT_STRING
        type: DT_INT64
      }
    }
  }
}
node {
  name: "optimizations"
  op: "Const"
  attr {
    key: "_output_shapes"
    value {
      list {
        shape {
          dim {
            size: 3
          }
        }
      }
    }
  }
  attr {
    key: "dtype"
    value {
      type: DT_STRING
    }
  }
  attr {
    key: "value"
    value {
      tensor {
        dtype: DT_STRING
        tensor_shape {
          dim {
            size: 3
          }
        }
        string_val: "map_and_batch_fusion"
        string_val: "noop_elimination"
        string_val: "shuffle_and_repeat_fusion"
      }
    }
  }
}
node {
  name: "OptimizeDataset"
  op: "OptimizeDataset"
  input: "BatchDatasetV2"
  input: "optimizations"
  attr {
    key: "_output_shapes"
    value {
      list {
        shape {
        }
      }
    }
  }
  attr {
    key: "output_shapes"
    value {
      list {
        shape {
          dim {
            size: -1
          }
        }
        shape {
          dim {
            size: -1
          }
        }
        shape {
          dim {
            size: -1
          }
        }
        shape {
          dim {
            size: -1
          }
        }
        shape {
          dim {
            size: -1
          }
        }
        shape {
          dim {
            size: -1
          }
        }
        shape {
          dim {
            size: -1
          }
        }
        shape {
          dim {
            size: -1
          }
        }
        shape {
          dim {
            size: -1
          }
        }
        shape {
          dim {
            size: -1
          }
        }
      }
    }
  }
  attr {
    key: "output_types"
    value {
      list {
        type: DT_DOUBLE
        type: DT_STRING
        type: DT_STRING
        type: DT_STRING
        type: DT_STRING
        type: DT_DOUBLE
        type: DT_INT64
        type: DT_INT64
        type: DT_STRING
        type: DT_INT64
      }
    }
  }
}
node {
  name: "ModelDataset"
  op: "ModelDataset"
  input: "OptimizeDataset"
  attr {
    key: "_output_shapes"
    value {
      list {
        shape {
        }
      }
    }
  }
  attr {
    key: "output_shapes"
    value {
      list {
        shape {
          dim {
            size: -1
          }
        }
        shape {
          dim {
            size: -1
          }
        }
        shape {
          dim {
            size: -1
          }
        }
        shape {
          dim {
            size: -1
          }
        }
        shape {
          dim {
            size: -1
          }
        }
        shape {
          dim {
            size: -1
          }
        }
        shape {
          dim {
            size: -1
          }
        }
        shape {
          dim {
            size: -1
          }
        }
        shape {
          dim {
            size: -1
          }
        }
        shape {
          dim {
            size: -1
          }
        }
      }
    }
  }
  attr {
    key: "output_types"
    value {
      list {
        type: DT_DOUBLE
        type: DT_STRING
        type: DT_STRING
        type: DT_STRING
        type: DT_STRING
        type: DT_DOUBLE
        type: DT_INT64
        type: DT_INT64
        type: DT_STRING
        type: DT_INT64
      }
    }
  }
}
node {
  name: "IteratorV2"
  op: "IteratorV2"
  attr {
    key: "_output_shapes"
    value {
      list {
        shape {
        }
      }
    }
  }
  attr {
    key: "container"
    value {
      s: ""
    }
  }
  attr {
    key: "output_shapes"
    value {
      list {
        shape {
          dim {
            size: -1
          }
        }
        shape {
          dim {
            size: -1
          }
        }
        shape {
          dim {
            size: -1
          }
        }
        shape {
          dim {
            size: -1
          }
        }
        shape {
          dim {
            size: -1
          }
        }
        shape {
          dim {
            size: -1
          }
        }
        shape {
          dim {
            size: -1
          }
        }
        shape {
          dim {
            size: -1
          }
        }
        shape {
          dim {
            size: -1
          }
        }
        shape {
          dim {
            size: -1
          }
        }
      }
    }
  }
  attr {
    key: "output_types"
    value {
      list {
        type: DT_DOUBLE
        type: DT_STRING
        type: DT_STRING
        type: DT_STRING
        type: DT_STRING
        type: DT_DOUBLE
        type: DT_INT64
        type: DT_INT64
        type: DT_STRING
        type: DT_INT64
      }
    }
  }
  attr {
    key: "shared_name"
    value {
      s: ""
    }
  }
}
node {
  name: "MakeIterator"
  op: "MakeIterator"
  input: "ModelDataset"
  input: "IteratorV2"
  attr {
    key: "_class"
    value {
      list {
        s: "loc:@IteratorV2"
      }
    }
  }
}
node {
  name: "IteratorToStringHandle"
  op: "IteratorToStringHandle"
  input: "IteratorV2"
  attr {
    key: "_output_shapes"
    value {
      list {
        shape {
        }
      }
    }
  }
}
node {
  name: "IteratorGetNext"
  op: "IteratorGetNext"
  input: "IteratorV2"
  attr {
    key: "_output_shapes"
    value {
      list {
        shape {
          dim {
            size: -1
          }
        }
        shape {
          dim {
            size: -1
          }
        }
        shape {
          dim {
            size: -1
          }
        }
        shape {
          dim {
            size: -1
          }
        }
        shape {
          dim {
            size: -1
          }
        }
        shape {
          dim {
            size: -1
          }
        }
        shape {
          dim {
            size: -1
          }
        }
        shape {
          dim {
            size: -1
          }
        }
        shape {
          dim {
            size: -1
          }
        }
        shape {
          dim {
            size: -1
          }
        }
      }
    }
  }
  attr {
    key: "output_shapes"
    value {
      list {
        shape {
          dim {
            size: -1
          }
        }
        shape {
          dim {
            size: -1
          }
        }
        shape {
          dim {
            size: -1
          }
        }
        shape {
          dim {
            size: -1
          }
        }
        shape {
          dim {
            size: -1
          }
        }
        shape {
          dim {
            size: -1
          }
        }
        shape {
          dim {
            size: -1
          }
        }
        shape {
          dim {
            size: -1
          }
        }
        shape {
          dim {
            size: -1
          }
        }
        shape {
          dim {
            size: -1
          }
        }
      }
    }
  }
  attr {
    key: "output_types"
    value {
      list {
        type: DT_DOUBLE
        type: DT_STRING
        type: DT_STRING
        type: DT_STRING
        type: DT_STRING
        type: DT_DOUBLE
        type: DT_INT64
        type: DT_INT64
        type: DT_STRING
        type: DT_INT64
      }
    }
  }
}
node {
  name: "dnn/input_from_feature_columns/input_layer/age/ExpandDims/dim"
  op: "Const"
  attr {
    key: "_output_shapes"
    value {
      list {
        shape {
        }
      }
    }
  }
  attr {
    key: "dtype"
    value {
      type: DT_INT32
    }
  }
  attr {
    key: "value"
    value {
      tensor {
        dtype: DT_INT32
        tensor_shape {
        }
        int_val: -1
      }
    }
  }
}
node {
  name: "dnn/input_from_feature_columns/input_layer/age/ExpandDims"
  op: "ExpandDims"
  input: "IteratorGetNext"
  input: "dnn/input_from_feature_columns/input_layer/age/ExpandDims/dim"
  attr {
    key: "T"
    value {
      type: DT_DOUBLE
    }
  }
  attr {
    key: "Tdim"
    value {
      type: DT_INT32
    }
  }
  attr {
    key: "_output_shapes"
    value {
      list {
        shape {
          dim {
            size: -1
          }
          dim {
            size: 1
          }
        }
      }
    }
  }
}
node {
  name: "dnn/input_from_feature_columns/input_layer/age/ToFloat"
  op: "Cast"
  input: "dnn/input_from_feature_columns/input_layer/age/ExpandDims"
  attr {
    key: "DstT"
    value {
      type: DT_FLOAT
    }
  }
  attr {
    key: "SrcT"
    value {
      type: DT_DOUBLE
    }
  }
  attr {
    key: "Truncate"
    value {
      b: false
    }
  }
  attr {
    key: "_output_shapes"
    value {
      list {
        shape {
          dim {
            size: -1
          }
          dim {
            size: 1
          }
        }
      }
    }
  }
}
node {
  name: "dnn/input_from_feature_columns/input_layer/age/Shape"
  op: "Shape"
  input: "dnn/input_from_feature_columns/input_layer/age/ToFloat"
  attr {
    key: "T"
    value {
      type: DT_FLOAT
    }
  }
  attr {
    key: "_output_shapes"
    value {
      list {
        shape {
          dim {
            size: 2
          }
        }
      }
    }
  }
  attr {
    key: "out_type"
    value {
      type: DT_INT32
    }
  }
}
node {
  name: "dnn/input_from_feature_columns/input_layer/age/strided_slice/stack"
  op: "Const"
  attr {
    key: "_output_shapes"
    value {
      list {
        shape {
          dim {
            size: 1
          }
        }
      }
    }
  }
  attr {
    key: "dtype"
    value {
      type: DT_INT32
    }
  }
  attr {
    key: "value"
    value {
      tensor {
        dtype: DT_INT32
        tensor_shape {
          dim {
            size: 1
          }
        }
        int_val: 0
      }
    }
  }
}
node {
  name: "dnn/input_from_feature_columns/input_layer/age/strided_slice/stack_1"
  op: "Const"
  attr {
    key: "_output_shapes"
    value {
      list {
        shape {
          dim {
            size: 1
          }
        }
      }
    }
  }
  attr {
    key: "dtype"
    value {
      type: DT_INT32
    }
  }
  attr {
    key: "value"
    value {
      tensor {
        dtype: DT_INT32
        tensor_shape {
          dim {
            size: 1
          }
        }
        int_val: 1
      }
    }
  }
}
node {
  name: "dnn/input_from_feature_columns/input_layer/age/strided_slice/stack_2"
  op: "Const"
  attr {
    key: "_output_shapes"
    value {
      list {
        shape {
          dim {
            size: 1
          }
        }
      }
    }
  }
  attr {
    key: "dtype"
    value {
      type: DT_INT32
    }
  }
  attr {
    key: "value"
    value {
      tensor {
        dtype: DT_INT32
        tensor_shape {
          dim {
            size: 1
          }
        }
        int_val: 1
      }
    }
  }
}
node {
  name: "dnn/input_from_feature_columns/input_layer/age/strided_slice"
  op: "StridedSlice"
  input: "dnn/input_from_feature_columns/input_layer/age/Shape"
  input: "dnn/input_from_feature_columns/input_layer/age/strided_slice/stack"
  input: "dnn/input_from_feature_columns/input_layer/age/strided_slice/stack_1"
  input: "dnn/input_from_feature_columns/input_layer/age/strided_slice/stack_2"
  attr {
    key: "Index"
    value {
      type: DT_INT32
    }
  }
  attr {
    key: "T"
    value {
      type: DT_INT32
    }
  }
  attr {
    key: "_output_shapes"
    value {
      list {
        shape {
        }
      }
    }
  }
  attr {
    key: "begin_mask"
    value {
      i: 0
    }
  }
  attr {
    key: "ellipsis_mask"
    value {
      i: 0
    }
  }
  attr {
    key: "end_mask"
    value {
      i: 0
    }
  }
  attr {
    key: "new_axis_mask"
    value {
      i: 0
    }
  }
  attr {
    key: "shrink_axis_mask"
    value {
      i: 1
    }
  }
}
node {
  name: "dnn/input_from_feature_columns/input_layer/age/Reshape/shape/1"
  op: "Const"
  attr {
    key: "_output_shapes"
    value {
      list {
        shape {
        }
      }
    }
  }
  attr {
    key: "dtype"
    value {
      type: DT_INT32
    }
  }
  attr {
    key: "value"
    value {
      tensor {
        dtype: DT_INT32
        tensor_shape {
        }
        int_val: 1
      }
    }
  }
}
node {
  name: "dnn/input_from_feature_columns/input_layer/age/Reshape/shape"
  op: "Pack"
  input: "dnn/input_from_feature_columns/input_layer/age/strided_slice"
  input: "dnn/input_from_feature_columns/input_layer/age/Reshape/shape/1"
  attr {
    key: "N"
    value {
      i: 2
    }
  }
  attr {
    key: "T"
    value {
      type: DT_INT32
    }
  }
  attr {
    key: "_output_shapes"
    value {
      list {
        shape {
          dim {
            size: 2
          }
        }
      }
    }
  }
  attr {
    key: "axis"
    value {
      i: 0
    }
  }
}
node {
  name: "dnn/input_from_feature_columns/input_layer/age/Reshape"
  op: "Reshape"
  input: "dnn/input_from_feature_columns/input_layer/age/ToFloat"
  input: "dnn/input_from_feature_columns/input_layer/age/Reshape/shape"
  attr {
    key: "T"
    value {
      type: DT_FLOAT
    }
  }
  attr {
    key: "Tshape"
    value {
      type: DT_INT32
    }
  }
  attr {
    key: "_output_shapes"
    value {
      list {
        shape {
          dim {
            size: -1
          }
          dim {
            size: 1
          }
        }
      }
    }
  }
}
node {
  name: "dnn/input_from_feature_columns/input_layer/alone_indicator/ExpandDims/dim"
  op: "Const"
  attr {
    key: "_output_shapes"
    value {
      list {
        shape {
        }
      }
    }
  }
  attr {
    key: "dtype"
    value {
      type: DT_INT32
    }
  }
  attr {
    key: "value"
    value {
      tensor {
        dtype: DT_INT32
        tensor_shape {
        }
        int_val: -1
      }
    }
  }
}
node {
  name: "dnn/input_from_feature_columns/input_layer/alone_indicator/ExpandDims"
  op: "ExpandDims"
  input: "IteratorGetNext:1"
  input: "dnn/input_from_feature_columns/input_layer/alone_indicator/ExpandDims/dim"
  attr {
    key: "T"
    value {
      type: DT_STRING
    }
  }
  attr {
    key: "Tdim"
    value {
      type: DT_INT32
    }
  }
  attr {
    key: "_output_shapes"
    value {
      list {
        shape {
          dim {
            size: -1
          }
          dim {
            size: 1
          }
        }
      }
    }
  }
}
node {
  name: "dnn/input_from_feature_columns/input_layer/alone_indicator/to_sparse_input/ignore_value/x"
  op: "Const"
  attr {
    key: "_output_shapes"
    value {
      list {
        shape {
        }
      }
    }
  }
  attr {
    key: "dtype"
    value {
      type: DT_STRING
    }
  }
  attr {
    key: "value"
    value {
      tensor {
        dtype: DT_STRING
        tensor_shape {
        }
        string_val: ""
      }
    }
  }
}
node {
  name: "dnn/input_from_feature_columns/input_layer/alone_indicator/to_sparse_input/NotEqual"
  op: "NotEqual"
  input: "dnn/input_from_feature_columns/input_layer/alone_indicator/ExpandDims"
  input: "dnn/input_from_feature_columns/input_layer/alone_indicator/to_sparse_input/ignore_value/x"
  attr {
    key: "T"
    value {
      type: DT_STRING
    }
  }
  attr {
    key: "_output_shapes"
    value {
      list {
        shape {
          dim {
            size: -1
          }
          dim {
            size: 1
          }
        }
      }
    }
  }
}
node {
  name: "dnn/input_from_feature_columns/input_layer/alone_indicator/to_sparse_input/indices"
  op: "Where"
  input: "dnn/input_from_feature_columns/input_layer/alone_indicator/to_sparse_input/NotEqual"
  attr {
    key: "T"
    value {
      type: DT_BOOL
    }
  }
  attr {
    key: "_output_shapes"
    value {
      list {
        shape {
          dim {
            size: -1
          }
          dim {
            size: 2
          }
        }
      }
    }
  }
}
node {
  name: "dnn/input_from_feature_columns/input_layer/alone_indicator/to_sparse_input/values"
  op: "GatherNd"
  input: "dnn/input_from_feature_columns/input_layer/alone_indicator/ExpandDims"
  input: "dnn/input_from_feature_columns/input_layer/alone_indicator/to_sparse_input/indices"
  attr {
    key: "Tindices"
    value {
      type: DT_INT64
    }
  }
  attr {
    key: "Tparams"
    value {
      type: DT_STRING
    }
  }
  attr {
    key: "_output_shapes"
    value {
      list {
        shape {
          dim {
            size: -1
          }
        }
      }
    }
  }
}
node {
  name: "dnn/input_from_feature_columns/input_layer/alone_indicator/to_sparse_input/dense_shape"
  op: "Shape"
  input: "dnn/input_from_feature_columns/input_layer/alone_indicator/ExpandDims"
  attr {
    key: "T"
    value {
      type: DT_STRING
    }
  }
  attr {
    key: "_output_shapes"
    value {
      list {
        shape {
          dim {
            size: 2
          }
        }
      }
    }
  }
  attr {
    key: "out_type"
    value {
      type: DT_INT64
    }
  }
}
node {
  name: "dnn/input_from_feature_columns/input_layer/alone_indicator/alone_lookup/Const"
  op: "Const"
  attr {
    key: "_output_shapes"
    value {
      list {
        shape {
          dim {
            size: 2
          }
        }
      }
    }
  }
  attr {
    key: "dtype"
    value {
      type: DT_STRING
    }
  }
  attr {
    key: "value"
    value {
      tensor {
        dtype: DT_STRING
        tensor_shape {
          dim {
            size: 2
          }
        }
        string_val: "n"
        string_val: "y"
      }
    }
  }
}
node {
  name: "dnn/input_from_feature_columns/input_layer/alone_indicator/alone_lookup/Size"
  op: "Const"
  attr {
    key: "_output_shapes"
    value {
      list {
        shape {
        }
      }
    }
  }
  attr {
    key: "dtype"
    value {
      type: DT_INT32
    }
  }
  attr {
    key: "value"
    value {
      tensor {
        dtype: DT_INT32
        tensor_shape {
        }
        int_val: 2
      }
    }
  }
}
node {
  name: "dnn/input_from_feature_columns/input_layer/alone_indicator/alone_lookup/range/start"
  op: "Const"
  attr {
    key: "_output_shapes"
    value {
      list {
        shape {
        }
      }
    }
  }
  attr {
    key: "dtype"
    value {
      type: DT_INT32
    }
  }
  attr {
    key: "value"
    value {
      tensor {
        dtype: DT_INT32
        tensor_shape {
        }
        int_val: 0
      }
    }
  }
}
node {
  name: "dnn/input_from_feature_columns/input_layer/alone_indicator/alone_lookup/range/delta"
  op: "Const"
  attr {
    key: "_output_shapes"
    value {
      list {
        shape {
        }
      }
    }
  }
  attr {
    key: "dtype"
    value {
      type: DT_INT32
    }
  }
  attr {
    key: "value"
    value {
      tensor {
        dtype: DT_INT32
        tensor_shape {
        }
        int_val: 1
      }
    }
  }
}
node {
  name: "dnn/input_from_feature_columns/input_layer/alone_indicator/alone_lookup/range"
  op: "Range"
  input: "dnn/input_from_feature_columns/input_layer/alone_indicator/alone_lookup/range/start"
  input: "dnn/input_from_feature_columns/input_layer/alone_indicator/alone_lookup/Size"
  input: "dnn/input_from_feature_columns/input_layer/alone_indicator/alone_lookup/range/delta"
  attr {
    key: "Tidx"
    value {
      type: DT_INT32
    }
  }
  attr {
    key: "_output_shapes"
    value {
      list {
        shape {
          dim {
            size: 2
          }
        }
      }
    }
  }
}
node {
  name: "dnn/input_from_feature_columns/input_layer/alone_indicator/alone_lookup/ToInt64"
  op: "Cast"
  input: "dnn/input_from_feature_columns/input_layer/alone_indicator/alone_lookup/range"
  attr {
    key: "DstT"
    value {
      type: DT_INT64
    }
  }
  attr {
    key: "SrcT"
    value {
      type: DT_INT32
    }
  }
  attr {
    key: "Truncate"
    value {
      b: false
    }
  }
  attr {
    key: "_output_shapes"
    value {
      list {
        shape {
          dim {
            size: 2
          }
        }
      }
    }
  }
}
node {
  name: "dnn/input_from_feature_columns/input_layer/alone_indicator/alone_lookup/hash_table/Const"
  op: "Const"
  attr {
    key: "_output_shapes"
    value {
      list {
        shape {
        }
      }
    }
  }
  attr {
    key: "dtype"
    value {
      type: DT_INT64
    }
  }
  attr {
    key: "value"
    value {
      tensor {
        dtype: DT_INT64
        tensor_shape {
        }
        int64_val: -1
      }
    }
  }
}
node {
  name: "dnn/input_from_feature_columns/input_layer/alone_indicator/alone_lookup/hash_table/hash_table"
  op: "HashTableV2"
  attr {
    key: "_output_shapes"
    value {
      list {
        shape {
        }
      }
    }
  }
  attr {
    key: "container"
    value {
      s: ""
    }
  }
  attr {
    key: "key_dtype"
    value {
      type: DT_STRING
    }
  }
  attr {
    key: "shared_name"
    value {
      s: ""
    }
  }
  attr {
    key: "use_node_name_sharing"
    value {
      b: false
    }
  }
  attr {
    key: "value_dtype"
    value {
      type: DT_INT64
    }
  }
}
node {
  name: "dnn/input_from_feature_columns/input_layer/alone_indicator/alone_lookup/hash_table/table_init/LookupTableImportV2"
  op: "LookupTableImportV2"
  input: "dnn/input_from_feature_columns/input_layer/alone_indicator/alone_lookup/hash_table/hash_table"
  input: "dnn/input_from_feature_columns/input_layer/alone_indicator/alone_lookup/Const"
  input: "dnn/input_from_feature_columns/input_layer/alone_indicator/alone_lookup/ToInt64"
  attr {
    key: "Tin"
    value {
      type: DT_STRING
    }
  }
  attr {
    key: "Tout"
    value {
      type: DT_INT64
    }
  }
}
node {
  name: "dnn/input_from_feature_columns/input_layer/alone_indicator/hash_table_Lookup/LookupTableFindV2"
  op: "LookupTableFindV2"
  input: "dnn/input_from_feature_columns/input_layer/alone_indicator/alone_lookup/hash_table/hash_table"
  input: "dnn/input_from_feature_columns/input_layer/alone_indicator/to_sparse_input/values"
  input: "dnn/input_from_feature_columns/input_layer/alone_indicator/alone_lookup/hash_table/Const"
  attr {
    key: "Tin"
    value {
      type: DT_STRING
    }
  }
  attr {
    key: "Tout"
    value {
      type: DT_INT64
    }
  }
  attr {
    key: "_output_shapes"
    value {
      list {
        shape {
          dim {
            size: -1
          }
        }
      }
    }
  }
}
node {
  name: "dnn/input_from_feature_columns/input_layer/alone_indicator/SparseToDense/default_value"
  op: "Const"
  attr {
    key: "_output_shapes"
    value {
      list {
        shape {
        }
      }
    }
  }
  attr {
    key: "dtype"
    value {
      type: DT_INT64
    }
  }
  attr {
    key: "value"
    value {
      tensor {
        dtype: DT_INT64
        tensor_shape {
        }
        int64_val: -1
      }
    }
  }
}
node {
  name: "dnn/input_from_feature_columns/input_layer/alone_indicator/SparseToDense"
  op: "SparseToDense"
  input: "dnn/input_from_feature_columns/input_layer/alone_indicator/to_sparse_input/indices"
  input: "dnn/input_from_feature_columns/input_layer/alone_indicator/to_sparse_input/dense_shape"
  input: "dnn/input_from_feature_columns/input_layer/alone_indicator/hash_table_Lookup/LookupTableFindV2"
  input: "dnn/input_from_feature_columns/input_layer/alone_indicator/SparseToDense/default_value"
  attr {
    key: "T"
    value {
      type: DT_INT64
    }
  }
  attr {
    key: "Tindices"
    value {
      type: DT_INT64
    }
  }
  attr {
    key: "_output_shapes"
    value {
      list {
        shape {
          dim {
            size: -1
          }
          dim {
            size: 1
          }
        }
      }
    }
  }
  attr {
    key: "validate_indices"
    value {
      b: true
    }
  }
}
node {
  name: "dnn/input_from_feature_columns/input_layer/alone_indicator/one_hot/Const"
  op: "Const"
  attr {
    key: "_output_shapes"
    value {
      list {
        shape {
        }
      }
    }
  }
  attr {
    key: "dtype"
    value {
      type: DT_FLOAT
    }
  }
  attr {
    key: "value"
    value {
      tensor {
        dtype: DT_FLOAT
        tensor_shape {
        }
        float_val: 1.0
      }
    }
  }
}
node {
  name: "dnn/input_from_feature_columns/input_layer/alone_indicator/one_hot/Const_1"
  op: "Const"
  attr {
    key: "_output_shapes"
    value {
      list {
        shape {
        }
      }
    }
  }
  attr {
    key: "dtype"
    value {
      type: DT_FLOAT
    }
  }
  attr {
    key: "value"
    value {
      tensor {
        dtype: DT_FLOAT
        tensor_shape {
        }
        float_val: 0.0
      }
    }
  }
}
node {
  name: "dnn/input_from_feature_columns/input_layer/alone_indicator/one_hot/depth"
  op: "Const"
  attr {
    key: "_output_shapes"
    value {
      list {
        shape {
        }
      }
    }
  }
  attr {
    key: "dtype"
    value {
      type: DT_INT32
    }
  }
  attr {
    key: "value"
    value {
      tensor {
        dtype: DT_INT32
        tensor_shape {
        }
        int_val: 2
      }
    }
  }
}
node {
  name: "dnn/input_from_feature_columns/input_layer/alone_indicator/one_hot/on_value"
  op: "Const"
  attr {
    key: "_output_shapes"
    value {
      list {
        shape {
        }
      }
    }
  }
  attr {
    key: "dtype"
    value {
      type: DT_FLOAT
    }
  }
  attr {
    key: "value"
    value {
      tensor {
        dtype: DT_FLOAT
        tensor_shape {
        }
        float_val: 1.0
      }
    }
  }
}
node {
  name: "dnn/input_from_feature_columns/input_layer/alone_indicator/one_hot/off_value"
  op: "Const"
  attr {
    key: "_output_shapes"
    value {
      list {
        shape {
        }
      }
    }
  }
  attr {
    key: "dtype"
    value {
      type: DT_FLOAT
    }
  }
  attr {
    key: "value"
    value {
      tensor {
        dtype: DT_FLOAT
        tensor_shape {
        }
        float_val: 0.0
      }
    }
  }
}
node {
  name: "dnn/input_from_feature_columns/input_layer/alone_indicator/one_hot"
  op: "OneHot"
  input: "dnn/input_from_feature_columns/input_layer/alone_indicator/SparseToDense"
  input: "dnn/input_from_feature_columns/input_layer/alone_indicator/one_hot/depth"
  input: "dnn/input_from_feature_columns/input_layer/alone_indicator/one_hot/on_value"
  input: "dnn/input_from_feature_columns/input_layer/alone_indicator/one_hot/off_value"
  attr {
    key: "T"
    value {
      type: DT_FLOAT
    }
  }
  attr {
    key: "TI"
    value {
      type: DT_INT64
    }
  }
  attr {
    key: "_output_shapes"
    value {
      list {
        shape {
          dim {
            size: -1
          }
          dim {
            size: 1
          }
          dim {
            size: 2
          }
        }
      }
    }
  }
  attr {
    key: "axis"
    value {
      i: -1
    }
  }
}
node {
  name: "dnn/input_from_feature_columns/input_layer/alone_indicator/Sum/reduction_indices"
  op: "Const"
  attr {
    key: "_output_shapes"
    value {
      list {
        shape {
          dim {
            size: 1
          }
        }
      }
    }
  }
  attr {
    key: "dtype"
    value {
      type: DT_INT32
    }
  }
  attr {
    key: "value"
    value {
      tensor {
        dtype: DT_INT32
        tensor_shape {
          dim {
            size: 1
          }
        }
        int_val: -2
      }
    }
  }
}
node {
  name: "dnn/input_from_feature_columns/input_layer/alone_indicator/Sum"
  op: "Sum"
  input: "dnn/input_from_feature_columns/input_layer/alone_indicator/one_hot"
  input: "dnn/input_from_feature_columns/input_layer/alone_indicator/Sum/reduction_indices"
  attr {
    key: "T"
    value {
      type: DT_FLOAT
    }
  }
  attr {
    key: "Tidx"
    value {
      type: DT_INT32
    }
  }
  attr {
    key: "_output_shapes"
    value {
      list {
        shape {
          dim {
            size: -1
          }
          dim {
            size: 2
          }
        }
      }
    }
  }
  attr {
    key: "keep_dims"
    value {
      b: false
    }
  }
}
node {
  name: "dnn/input_from_feature_columns/input_layer/alone_indicator/Shape"
  op: "Shape"
  input: "dnn/input_from_feature_columns/input_layer/alone_indicator/Sum"
  attr {
    key: "T"
    value {
      type: DT_FLOAT
    }
  }
  attr {
    key: "_output_shapes"
    value {
      list {
        shape {
          dim {
            size: 2
          }
        }
      }
    }
  }
  attr {
    key: "out_type"
    value {
      type: DT_INT32
    }
  }
}
node {
  name: "dnn/input_from_feature_columns/input_layer/alone_indicator/strided_slice/stack"
  op: "Const"
  attr {
    key: "_output_shapes"
    value {
      list {
        shape {
          dim {
            size: 1
          }
        }
      }
    }
  }
  attr {
    key: "dtype"
    value {
      type: DT_INT32
    }
  }
  attr {
    key: "value"
    value {
      tensor {
        dtype: DT_INT32
        tensor_shape {
          dim {
            size: 1
          }
        }
        int_val: 0
      }
    }
  }
}
node {
  name: "dnn/input_from_feature_columns/input_layer/alone_indicator/strided_slice/stack_1"
  op: "Const"
  attr {
    key: "_output_shapes"
    value {
      list {
        shape {
          dim {
            size: 1
          }
        }
      }
    }
  }
  attr {
    key: "dtype"
    value {
      type: DT_INT32
    }
  }
  attr {
    key: "value"
    value {
      tensor {
        dtype: DT_INT32
        tensor_shape {
          dim {
            size: 1
          }
        }
        int_val: 1
      }
    }
  }
}
node {
  name: "dnn/input_from_feature_columns/input_layer/alone_indicator/strided_slice/stack_2"
  op: "Const"
  attr {
    key: "_output_shapes"
    value {
      list {
        shape {
          dim {
            size: 1
          }
        }
      }
    }
  }
  attr {
    key: "dtype"
    value {
      type: DT_INT32
    }
  }
  attr {
    key: "value"
    value {
      tensor {
        dtype: DT_INT32
        tensor_shape {
          dim {
            size: 1
          }
        }
        int_val: 1
      }
    }
  }
}
node {
  name: "dnn/input_from_feature_columns/input_layer/alone_indicator/strided_slice"
  op: "StridedSlice"
  input: "dnn/input_from_feature_columns/input_layer/alone_indicator/Shape"
  input: "dnn/input_from_feature_columns/input_layer/alone_indicator/strided_slice/stack"
  input: "dnn/input_from_feature_columns/input_layer/alone_indicator/strided_slice/stack_1"
  input: "dnn/input_from_feature_columns/input_layer/alone_indicator/strided_slice/stack_2"
  attr {
    key: "Index"
    value {
      type: DT_INT32
    }
  }
  attr {
    key: "T"
    value {
      type: DT_INT32
    }
  }
  attr {
    key: "_output_shapes"
    value {
      list {
        shape {
        }
      }
    }
  }
  attr {
    key: "begin_mask"
    value {
      i: 0
    }
  }
  attr {
    key: "ellipsis_mask"
    value {
      i: 0
    }
  }
  attr {
    key: "end_mask"
    value {
      i: 0
    }
  }
  attr {
    key: "new_axis_mask"
    value {
      i: 0
    }
  }
  attr {
    key: "shrink_axis_mask"
    value {
      i: 1
    }
  }
}
node {
  name: "dnn/input_from_feature_columns/input_layer/alone_indicator/Reshape/shape/1"
  op: "Const"
  attr {
    key: "_output_shapes"
    value {
      list {
        shape {
        }
      }
    }
  }
  attr {
    key: "dtype"
    value {
      type: DT_INT32
    }
  }
  attr {
    key: "value"
    value {
      tensor {
        dtype: DT_INT32
        tensor_shape {
        }
        int_val: 2
      }
    }
  }
}
node {
  name: "dnn/input_from_feature_columns/input_layer/alone_indicator/Reshape/shape"
  op: "Pack"
  input: "dnn/input_from_feature_columns/input_layer/alone_indicator/strided_slice"
  input: "dnn/input_from_feature_columns/input_layer/alone_indicator/Reshape/shape/1"
  attr {
    key: "N"
    value {
      i: 2
    }
  }
  attr {
    key: "T"
    value {
      type: DT_INT32
    }
  }
  attr {
    key: "_output_shapes"
    value {
      list {
        shape {
          dim {
            size: 2
          }
        }
      }
    }
  }
  attr {
    key: "axis"
    value {
      i: 0
    }
  }
}
node {
  name: "dnn/input_from_feature_columns/input_layer/alone_indicator/Reshape"
  op: "Reshape"
  input: "dnn/input_from_feature_columns/input_layer/alone_indicator/Sum"
  input: "dnn/input_from_feature_columns/input_layer/alone_indicator/Reshape/shape"
  attr {
    key: "T"
    value {
      type: DT_FLOAT
    }
  }
  attr {
    key: "Tshape"
    value {
      type: DT_INT32
    }
  }
  attr {
    key: "_output_shapes"
    value {
      list {
        shape {
          dim {
            size: -1
          }
          dim {
            size: 2
          }
        }
      }
    }
  }
}
node {
  name: "dnn/input_from_feature_columns/input_layer/class_indicator/ExpandDims/dim"
  op: "Const"
  attr {
    key: "_output_shapes"
    value {
      list {
        shape {
        }
      }
    }
  }
  attr {
    key: "dtype"
    value {
      type: DT_INT32
    }
  }
  attr {
    key: "value"
    value {
      tensor {
        dtype: DT_INT32
        tensor_shape {
        }
        int_val: -1
      }
    }
  }
}
node {
  name: "dnn/input_from_feature_columns/input_layer/class_indicator/ExpandDims"
  op: "ExpandDims"
  input: "IteratorGetNext:2"
  input: "dnn/input_from_feature_columns/input_layer/class_indicator/ExpandDims/dim"
  attr {
    key: "T"
    value {
      type: DT_STRING
    }
  }
  attr {
    key: "Tdim"
    value {
      type: DT_INT32
    }
  }
  attr {
    key: "_output_shapes"
    value {
      list {
        shape {
          dim {
            size: -1
          }
          dim {
            size: 1
          }
        }
      }
    }
  }
}
node {
  name: "dnn/input_from_feature_columns/input_layer/class_indicator/to_sparse_input/ignore_value/x"
  op: "Const"
  attr {
    key: "_output_shapes"
    value {
      list {
        shape {
        }
      }
    }
  }
  attr {
    key: "dtype"
    value {
      type: DT_STRING
    }
  }
  attr {
    key: "value"
    value {
      tensor {
        dtype: DT_STRING
        tensor_shape {
        }
        string_val: ""
      }
    }
  }
}
node {
  name: "dnn/input_from_feature_columns/input_layer/class_indicator/to_sparse_input/NotEqual"
  op: "NotEqual"
  input: "dnn/input_from_feature_columns/input_layer/class_indicator/ExpandDims"
  input: "dnn/input_from_feature_columns/input_layer/class_indicator/to_sparse_input/ignore_value/x"
  attr {
    key: "T"
    value {
      type: DT_STRING
    }
  }
  attr {
    key: "_output_shapes"
    value {
      list {
        shape {
          dim {
            size: -1
          }
          dim {
            size: 1
          }
        }
      }
    }
  }
}
node {
  name: "dnn/input_from_feature_columns/input_layer/class_indicator/to_sparse_input/indices"
  op: "Where"
  input: "dnn/input_from_feature_columns/input_layer/class_indicator/to_sparse_input/NotEqual"
  attr {
    key: "T"
    value {
      type: DT_BOOL
    }
  }
  attr {
    key: "_output_shapes"
    value {
      list {
        shape {
          dim {
            size: -1
          }
          dim {
            size: 2
          }
        }
      }
    }
  }
}
node {
  name: "dnn/input_from_feature_columns/input_layer/class_indicator/to_sparse_input/values"
  op: "GatherNd"
  input: "dnn/input_from_feature_columns/input_layer/class_indicator/ExpandDims"
  input: "dnn/input_from_feature_columns/input_layer/class_indicator/to_sparse_input/indices"
  attr {
    key: "Tindices"
    value {
      type: DT_INT64
    }
  }
  attr {
    key: "Tparams"
    value {
      type: DT_STRING
    }
  }
  attr {
    key: "_output_shapes"
    value {
      list {
        shape {
          dim {
            size: -1
          }
        }
      }
    }
  }
}
node {
  name: "dnn/input_from_feature_columns/input_layer/class_indicator/to_sparse_input/dense_shape"
  op: "Shape"
  input: "dnn/input_from_feature_columns/input_layer/class_indicator/ExpandDims"
  attr {
    key: "T"
    value {
      type: DT_STRING
    }
  }
  attr {
    key: "_output_shapes"
    value {
      list {
        shape {
          dim {
            size: 2
          }
        }
      }
    }
  }
  attr {
    key: "out_type"
    value {
      type: DT_INT64
    }
  }
}
node {
  name: "dnn/input_from_feature_columns/input_layer/class_indicator/class_lookup/Const"
  op: "Const"
  attr {
    key: "_output_shapes"
    value {
      list {
        shape {
          dim {
            size: 3
          }
        }
      }
    }
  }
  attr {
    key: "dtype"
    value {
      type: DT_STRING
    }
  }
  attr {
    key: "value"
    value {
      tensor {
        dtype: DT_STRING
        tensor_shape {
          dim {
            size: 3
          }
        }
        string_val: "Third"
        string_val: "First"
        string_val: "Second"
      }
    }
  }
}
node {
  name: "dnn/input_from_feature_columns/input_layer/class_indicator/class_lookup/Size"
  op: "Const"
  attr {
    key: "_output_shapes"
    value {
      list {
        shape {
        }
      }
    }
  }
  attr {
    key: "dtype"
    value {
      type: DT_INT32
    }
  }
  attr {
    key: "value"
    value {
      tensor {
        dtype: DT_INT32
        tensor_shape {
        }
        int_val: 3
      }
    }
  }
}
node {
  name: "dnn/input_from_feature_columns/input_layer/class_indicator/class_lookup/range/start"
  op: "Const"
  attr {
    key: "_output_shapes"
    value {
      list {
        shape {
        }
      }
    }
  }
  attr {
    key: "dtype"
    value {
      type: DT_INT32
    }
  }
  attr {
    key: "value"
    value {
      tensor {
        dtype: DT_INT32
        tensor_shape {
        }
        int_val: 0
      }
    }
  }
}
node {
  name: "dnn/input_from_feature_columns/input_layer/class_indicator/class_lookup/range/delta"
  op: "Const"
  attr {
    key: "_output_shapes"
    value {
      list {
        shape {
        }
      }
    }
  }
  attr {
    key: "dtype"
    value {
      type: DT_INT32
    }
  }
  attr {
    key: "value"
    value {
      tensor {
        dtype: DT_INT32
        tensor_shape {
        }
        int_val: 1
      }
    }
  }
}
node {
  name: "dnn/input_from_feature_columns/input_layer/class_indicator/class_lookup/range"
  op: "Range"
  input: "dnn/input_from_feature_columns/input_layer/class_indicator/class_lookup/range/start"
  input: "dnn/input_from_feature_columns/input_layer/class_indicator/class_lookup/Size"
  input: "dnn/input_from_feature_columns/input_layer/class_indicator/class_lookup/range/delta"
  attr {
    key: "Tidx"
    value {
      type: DT_INT32
    }
  }
  attr {
    key: "_output_shapes"
    value {
      list {
        shape {
          dim {
            size: 3
          }
        }
      }
    }
  }
}
node {
  name: "dnn/input_from_feature_columns/input_layer/class_indicator/class_lookup/ToInt64"
  op: "Cast"
  input: "dnn/input_from_feature_columns/input_layer/class_indicator/class_lookup/range"
  attr {
    key: "DstT"
    value {
      type: DT_INT64
    }
  }
  attr {
    key: "SrcT"
    value {
      type: DT_INT32
    }
  }
  attr {
    key: "Truncate"
    value {
      b: false
    }
  }
  attr {
    key: "_output_shapes"
    value {
      list {
        shape {
          dim {
            size: 3
          }
        }
      }
    }
  }
}
node {
  name: "dnn/input_from_feature_columns/input_layer/class_indicator/class_lookup/hash_table/Const"
  op: "Const"
  attr {
    key: "_output_shapes"
    value {
      list {
        shape {
        }
      }
    }
  }
  attr {
    key: "dtype"
    value {
      type: DT_INT64
    }
  }
  attr {
    key: "value"
    value {
      tensor {
        dtype: DT_INT64
        tensor_shape {
        }
        int64_val: -1
      }
    }
  }
}
node {
  name: "dnn/input_from_feature_columns/input_layer/class_indicator/class_lookup/hash_table/hash_table"
  op: "HashTableV2"
  attr {
    key: "_output_shapes"
    value {
      list {
        shape {
        }
      }
    }
  }
  attr {
    key: "container"
    value {
      s: ""
    }
  }
  attr {
    key: "key_dtype"
    value {
      type: DT_STRING
    }
  }
  attr {
    key: "shared_name"
    value {
      s: ""
    }
  }
  attr {
    key: "use_node_name_sharing"
    value {
      b: false
    }
  }
  attr {
    key: "value_dtype"
    value {
      type: DT_INT64
    }
  }
}
node {
  name: "dnn/input_from_feature_columns/input_layer/class_indicator/class_lookup/hash_table/table_init/LookupTableImportV2"
  op: "LookupTableImportV2"
  input: "dnn/input_from_feature_columns/input_layer/class_indicator/class_lookup/hash_table/hash_table"
  input: "dnn/input_from_feature_columns/input_layer/class_indicator/class_lookup/Const"
  input: "dnn/input_from_feature_columns/input_layer/class_indicator/class_lookup/ToInt64"
  attr {
    key: "Tin"
    value {
      type: DT_STRING
    }
  }
  attr {
    key: "Tout"
    value {
      type: DT_INT64
    }
  }
}
node {
  name: "dnn/input_from_feature_columns/input_layer/class_indicator/hash_table_Lookup/LookupTableFindV2"
  op: "LookupTableFindV2"
  input: "dnn/input_from_feature_columns/input_layer/class_indicator/class_lookup/hash_table/hash_table"
  input: "dnn/input_from_feature_columns/input_layer/class_indicator/to_sparse_input/values"
  input: "dnn/input_from_feature_columns/input_layer/class_indicator/class_lookup/hash_table/Const"
  attr {
    key: "Tin"
    value {
      type: DT_STRING
    }
  }
  attr {
    key: "Tout"
    value {
      type: DT_INT64
    }
  }
  attr {
    key: "_output_shapes"
    value {
      list {
        shape {
          dim {
            size: -1
          }
        }
      }
    }
  }
}
node {
  name: "dnn/input_from_feature_columns/input_layer/class_indicator/SparseToDense/default_value"
  op: "Const"
  attr {
    key: "_output_shapes"
    value {
      list {
        shape {
        }
      }
    }
  }
  attr {
    key: "dtype"
    value {
      type: DT_INT64
    }
  }
  attr {
    key: "value"
    value {
      tensor {
        dtype: DT_INT64
        tensor_shape {
        }
        int64_val: -1
      }
    }
  }
}
node {
  name: "dnn/input_from_feature_columns/input_layer/class_indicator/SparseToDense"
  op: "SparseToDense"
  input: "dnn/input_from_feature_columns/input_layer/class_indicator/to_sparse_input/indices"
  input: "dnn/input_from_feature_columns/input_layer/class_indicator/to_sparse_input/dense_shape"
  input: "dnn/input_from_feature_columns/input_layer/class_indicator/hash_table_Lookup/LookupTableFindV2"
  input: "dnn/input_from_feature_columns/input_layer/class_indicator/SparseToDense/default_value"
  attr {
    key: "T"
    value {
      type: DT_INT64
    }
  }
  attr {
    key: "Tindices"
    value {
      type: DT_INT64
    }
  }
  attr {
    key: "_output_shapes"
    value {
      list {
        shape {
          dim {
            size: -1
          }
          dim {
            size: 1
          }
        }
      }
    }
  }
  attr {
    key: "validate_indices"
    value {
      b: true
    }
  }
}
node {
  name: "dnn/input_from_feature_columns/input_layer/class_indicator/one_hot/Const"
  op: "Const"
  attr {
    key: "_output_shapes"
    value {
      list {
        shape {
        }
      }
    }
  }
  attr {
    key: "dtype"
    value {
      type: DT_FLOAT
    }
  }
  attr {
    key: "value"
    value {
      tensor {
        dtype: DT_FLOAT
        tensor_shape {
        }
        float_val: 1.0
      }
    }
  }
}
node {
  name: "dnn/input_from_feature_columns/input_layer/class_indicator/one_hot/Const_1"
  op: "Const"
  attr {
    key: "_output_shapes"
    value {
      list {
        shape {
        }
      }
    }
  }
  attr {
    key: "dtype"
    value {
      type: DT_FLOAT
    }
  }
  attr {
    key: "value"
    value {
…
    value {
      list {
        shape {
          dim {
            size: 128
          }
          dim {
            size: 1
          }
        }
      }
    }
  }
}
node {
  name: "save/StringJoin/inputs_1"
  op: "Const"
  attr {
    key: "_output_shapes"
    value {
      list {
        shape {
        }
      }
    }
  }
  attr {
    key: "dtype"
    value {
      type: DT_STRING
    }
  }
  attr {
    key: "value"
    value {
      tensor {
        dtype: DT_STRING
        tensor_shape {
        }
        string_val: "_temp_c43f2dd752f64d09b31d4e418de03de8/part"
      }
    }
  }
}
node {
  name: "save/StringJoin"
  op: "StringJoin"
  input: "save/Const"
  input: "save/StringJoin/inputs_1"
  attr {
    key: "N"
    value {
      i: 2
    }
  }
  attr {
    key: "_output_shapes"
    value {
      list {
        shape {
        }
      }
    }
  }
  attr {
    key: "separator"
    value {
      s: ""
    }
  }
}
node {
  name: "save/num_shards"
  op: "Const"
  attr {
    key: "_output_shapes"
    value {
      list {
        shape {
        }
      }
    }
  }
  attr {
    key: "dtype"
    value {
      type: DT_INT32
    }
  }
  attr {
    key: "value"
    value {
      tensor {
        dtype: DT_INT32
        tensor_shape {
        }
        int_val: 2
      }
    }
  }
}
node {
  name: "save/ShardedFilename/shard"
  op: "Const"
  device: "/device:CPU:0"
  attr {
    key: "_output_shapes"
    value {
      list {
        shape {
        }
      }
    }
  }
  attr {
    key: "dtype"
    value {
      type: DT_INT32
    }
  }
  attr {
    key: "value"
    value {
      tensor {
        dtype: DT_INT32
        tensor_shape {
        }
        int_val: 0
      }
    }
  }
}
node {
  name: "save/ShardedFilename"
  op: "ShardedFilename"
  input: "save/StringJoin"
  input: "save/ShardedFilename/shard"
  input: "save/num_shards"
  device: "/device:CPU:0"
  attr {
    key: "_output_shapes"
    value {
      list {
        shape {
        }
      }
    }
  }
}
node {
  name: "save/SaveV2/tensor_names"
  op: "Const"
  device: "/device:CPU:0"
  attr {
    key: "_output_shapes"
    value {
      list {
        shape {
          dim {
            size: 3
          }
        }
      }
    }
  }
  attr {
    key: "dtype"
    value {
      type: DT_STRING
    }
  }
  attr {
    key: "value"
    value {
      tensor {
        dtype: DT_STRING
        tensor_shape {
          dim {
            size: 3
          }
        }
        string_val: "dnn/head/head/beta1_power"
        string_val: "dnn/head/head/beta2_power"
        string_val: "global_step"
      }
    }
  }
}
node {
  name: "save/SaveV2/shape_and_slices"
  op: "Const"
  device: "/device:CPU:0"
  attr {
    key: "_output_shapes"
    value {
      list {
        shape {
          dim {
            size: 3
          }
        }
      }
    }
  }
  attr {
    key: "dtype"
    value {
      type: DT_STRING
    }
  }
  attr {
    key: "value"
    value {
      tensor {
        dtype: DT_STRING
        tensor_shape {
          dim {
            size: 3
          }
        }
        string_val: ""
        string_val: ""
        string_val: ""
      }
    }
  }
}
node {
  name: "save/SaveV2"
  op: "SaveV2"
  input: "save/ShardedFilename"
  input: "save/SaveV2/tensor_names"
  input: "save/SaveV2/shape_and_slices"
  input: "dnn/head/head/beta1_power/Read/ReadVariableOp"
  input: "dnn/head/head/beta2_power/Read/ReadVariableOp"
  input: "global_step/Read/ReadVariableOp"
  device: "/device:CPU:0"
  attr {
    key: "dtypes"
    value {
      list {
        type: DT_FLOAT
        type: DT_FLOAT
        type: DT_INT64
      }
    }
  }
}
node {
  name: "save/control_dependency"
  op: "Identity"
  input: "save/ShardedFilename"
  input: "^save/SaveV2"
  device: "/device:CPU:0"
  attr {
    key: "T"
    value {
      type: DT_STRING
    }
  }
  attr {
    key: "_class"
    value {
      list {
        s: "loc:@save/ShardedFilename"
      }
    }
  }
  attr {
    key: "_output_shapes"
    value {
      list {
        shape {
        }
      }
    }
  }
}
node {
  name: "save/ShardedFilename_1/shard"
  op: "Const"
  device: "/device:CPU:0"
  attr {
    key: "_output_shapes"
    value {
      list {
        shape {
        }
      }
    }
  }
  attr {
    key: "dtype"
    value {
      type: DT_INT32
    }
  }
  attr {
    key: "value"
    value {
      tensor {
        dtype: DT_INT32
        tensor_shape {
        }
        int_val: 1
      }
    }
  }
}
node {
  name: "save/ShardedFilename_1"
  op: "ShardedFilename"
  input: "save/StringJoin"
  input: "save/ShardedFilename_1/shard"
  input: "save/num_shards"
  device: "/device:CPU:0"
  attr {
    key: "_output_shapes"
    value {
      list {
        shape {
        }
      }
    }
  }
}
node {
  name: "save/Read_18/ReadVariableOp"
  op: "ReadVariableOp"
  input: "dnn/hiddenlayer_0/bias/part_0"
  device: "/device:CPU:0"
  attr {
    key: "_output_shapes"
    value {
      list {
        shape {
          dim {
            size: 128
          }
        }
      }
    }
  }
  attr {
    key: "dtype"
    value {
      type: DT_FLOAT
    }
  }
}
node {
  name: "save/Identity_36"
  op: "Identity"
  input: "save/Read_18/ReadVariableOp"
  device: "/device:CPU:0"
  attr {
    key: "T"
    value {
      type: DT_FLOAT
    }
  }
  attr {
    key: "_output_shapes"
    value {
      list {
        shape {
          dim {
            size: 128
          }
        }
      }
    }
  }
}
node {
  name: "save/Identity_37"
  op: "Identity"
  input: "save/Identity_36"
  device: "/device:CPU:0"
  attr {
    key: "T"
    value {
      type: DT_FLOAT
    }
  }
  attr {
    key: "_output_shapes"
    value {
      list {
        shape {
          dim {
            size: 128
          }
        }
      }
    }
  }
}
node {
  name: "save/Read_19/ReadVariableOp"
  op: "ReadVariableOp"
  input: "dnn/dnn/hiddenlayer_0/bias/part_0/Adam"
  device: "/device:CPU:0"
  attr {
    key: "_output_shapes"
    value {
      list {
        shape {
          dim {
            size: 128
          }
        }
      }
    }
  }
  attr {
    key: "dtype"
    value {
      type: DT_FLOAT
    }
  }
}
node {
  name: "save/Identity_38"
  op: "Identity"
  input: "save/Read_19/ReadVariableOp"
  device: "/device:CPU:0"
  attr {
    key: "T"
    value {
      type: DT_FLOAT
    }
  }
  attr {
    key: "_output_shapes"
    value {
      list {
        shape {
          dim {
            size: 128
          }
        }
      }
    }
  }
}
node {
  name: "save/Identity_39"
  op: "Identity"
  input: "save/Identity_38"
  device: "/device:CPU:0"
  attr {
    key: "T"
    value {
      type: DT_FLOAT
    }
  }
  attr {
    key: "_output_shapes"
    value {
      list {
        shape {
          dim {
            size: 128
          }
        }
      }
    }
  }
}
node {
  name: "save/Read_20/ReadVariableOp"
  op: "ReadVariableOp"
  input: "dnn/dnn/hiddenlayer_0/bias/part_0/Adam_1"
  device: "/device:CPU:0"
  attr {
    key: "_output_shapes"
    value {
      list {
        shape {
          dim {
            size: 128
          }
        }
      }
    }
  }
  attr {
    key: "dtype"
    value {
      type: DT_FLOAT
    }
  }
}
node {
  name: "save/Identity_40"
  op: "Identity"
  input: "save/Read_20/ReadVariableOp"
  device: "/device:CPU:0"
  attr {
    key: "T"
    value {
      type: DT_FLOAT
    }
  }
  attr {
    key: "_output_shapes"
    value {
      list {
        shape {
          dim {
            size: 128
          }
        }
      }
    }
  }
}
node {
  name: "save/Identity_41"
  op: "Identity"
  input: "save/Identity_40"
  device: "/device:CPU:0"
  attr {
    key: "T"
    value {
      type: DT_FLOAT
    }
  }
  attr {
    key: "_output_shapes"
    value {
      list {
        shape {
          dim {
            size: 128
          }
        }
      }
    }
  }
}
node {
  name: "save/Read_21/ReadVariableOp"
  op: "ReadVariableOp"
  input: "dnn/hiddenlayer_0/kernel/part_0"
  device: "/device:CPU:0"
  attr {
    key: "_output_shapes"
    value {
      list {
        shape {
          dim {
            size: 34
          }
          dim {
            size: 128
          }
        }
      }
    }
  }
  attr {
    key: "dtype"
    value {
      type: DT_FLOAT
    }
  }
}
node {
  name: "save/Identity_42"
  op: "Identity"
  input: "save/Read_21/ReadVariableOp"
  device: "/device:CPU:0"
  attr {
    key: "T"
    value {
      type: DT_FLOAT
    }
  }
  attr {
    key: "_output_shapes"
    value {
      list {
        shape {
          dim {
            size: 34
          }
          dim {
            size: 128
          }
        }
      }
    }
  }
}
node {
  name: "save/Identity_43"
  op: "Identity"
  input: "save/Identity_42"
  device: "/device:CPU:0"
  attr {
    key: "T"
    value {
      type: DT_FLOAT
    }
  }
  attr {
    key: "_output_shapes"
    value {
      list {
        shape {
          dim {
            size: 34
          }
          dim {
            size: 128
          }
        }
      }
    }
  }
}
node {
  name: "save/Read_22/ReadVariableOp"
  op: "ReadVariableOp"
  input: "dnn/dnn/hiddenlayer_0/kernel/part_0/Adam"
  device: "/device:CPU:0"
  attr {
    key: "_output_shapes"
    value {
      list {
        shape {
          dim {
            size: 34
          }
          dim {
            size: 128
          }
        }
      }
    }
  }
  attr {
    key: "dtype"
    value {
      type: DT_FLOAT
    }
  }
}
node {
  name: "save/Identity_44"
  op: "Identity"
  input: "save/Read_22/ReadVariableOp"
  device: "/device:CPU:0"
  attr {
    key: "T"
    value {
      type: DT_FLOAT
    }
  }
  attr {
    key: "_output_shapes"
    value {
      list {
        shape {
          dim {
            size: 34
          }
          dim {
            size: 128
          }
        }
      }
    }
  }
}
node {
  name: "save/Identity_45"
  op: "Identity"
  input: "save/Identity_44"
  device: "/device:CPU:0"
  attr {
    key: "T"
    value {
      type: DT_FLOAT
    }
  }
  attr {
    key: "_output_shapes"
    value {
      list {
        shape {
          dim {
            size: 34
          }
          dim {
            size: 128
          }
        }
      }
    }
  }
}
node {
  name: "save/Read_23/ReadVariableOp"
  op: "ReadVariableOp"
  input: "dnn/dnn/hiddenlayer_0/kernel/part_0/Adam_1"
  device: "/device:CPU:0"
  attr {
    key: "_output_shapes"
    value {
      list {
        shape {
          dim {
            size: 34
          }
          dim {
            size: 128
          }
        }
      }
    }
  }
  attr {
    key: "dtype"
    value {
      type: DT_FLOAT
    }
  }
}
node {
  name: "save/Identity_46"
  op: "Identity"
  input: "save/Read_23/ReadVariableOp"
  device: "/device:CPU:0"
  attr {
    key: "T"
    value {
      type: DT_FLOAT
    }
  }
  attr {
    key: "_output_shapes"
    value {
      list {
        shape {
          dim {
            size: 34
          }
          dim {
            size: 128
          }
        }
      }
    }
  }
}
node {
  name: "save/Identity_47"
  op: "Identity"
  input: "save/Identity_46"
  device: "/device:CPU:0"
  attr {
    key: "T"
    value {
      type: DT_FLOAT
    }
  }
  attr {
    key: "_output_shapes"
    value {
      list {
        shape {
          dim {
            size: 34
          }
          dim {
            size: 128
          }
        }
      }
    }
  }
}
node {
  name: "save/Read_24/ReadVariableOp"
  op: "ReadVariableOp"
  input: "dnn/hiddenlayer_1/bias/part_0"
  device: "/device:CPU:0"
  attr {
    key: "_output_shapes"
    value {
      list {
        shape {
          dim {
            size: 128
          }
        }
      }
    }
  }
  attr {
    key: "dtype"
    value {
      type: DT_FLOAT
    }
  }
}
node {
  name: "save/Identity_48"
  op: "Identity"
  input: "save/Read_24/ReadVariableOp"
  device: "/device:CPU:0"
  attr {
    key: "T"
    value {
      type: DT_FLOAT
    }
  }
  attr {
    key: "_output_shapes"
    value {
      list {
        shape {
          dim {
            size: 128
          }
        }
      }
    }
  }
}
node {
  name: "save/Identity_49"
  op: "Identity"
  input: "save/Identity_48"
  device: "/device:CPU:0"
  attr {
    key: "T"
    value {
      type: DT_FLOAT
    }
  }
  attr {
    key: "_output_shapes"
    value {
      list {
        shape {
          dim {
            size: 128
          }
        }
      }
    }
  }
}
node {
  name: "save/Read_25/ReadVariableOp"
  op: "ReadVariableOp"
  input: "dnn/dnn/hiddenlayer_1/bias/part_0/Adam"
  device: "/device:CPU:0"
  attr {
    key: "_output_shapes"
    value {
      list {
        shape {
          dim {
            size: 128
          }
        }
      }
    }
  }
  attr {
    key: "dtype"
    value {
      type: DT_FLOAT
    }
  }
}
node {
  name: "save/Identity_50"
  op: "Identity"
  input: "save/Read_25/ReadVariableOp"
  device: "/device:CPU:0"
  attr {
    key: "T"
    value {
      type: DT_FLOAT
    }
  }
  attr {
    key: "_output_shapes"
    value {
      list {
        shape {
          dim {
            size: 128
          }
        }
      }
    }
  }
}
node {
  name: "save/Identity_51"
  op: "Identity"
  input: "save/Identity_50"
  device: "/device:CPU:0"
  attr {
    key: "T"
    value {
      type: DT_FLOAT
    }
  }
  attr {
    key: "_output_shapes"
    value {
      list {
        shape {
          dim {
            size: 128
          }
        }
      }
    }
  }
}
node {
  name: "save/Read_26/ReadVariableOp"
  op: "ReadVariableOp"
  input: "dnn/dnn/hiddenlayer_1/bias/part_0/Adam_1"
  device: "/device:CPU:0"
  attr {
    key: "_output_shapes"
    value {
      list {
        shape {
          dim {
            size: 128
          }
        }
      }
    }
  }
  attr {
    key: "dtype"
    value {
      type: DT_FLOAT
    }
  }
}
node {
  name: "save/Identity_52"
  op: "Identity"
  input: "save/Read_26/ReadVariableOp"
  device: "/device:CPU:0"
  attr {
    key: "T"
    value {
      type: DT_FLOAT
    }
  }
  attr {
    key: "_output_shapes"
    value {
      list {
        shape {
          dim {
            size: 128
          }
        }
      }
    }
  }
}
node {
  name: "save/Identity_53"
  op: "Identity"
  input: "save/Identity_52"
  device: "/device:CPU:0"
  attr {
    key: "T"
    value {
      type: DT_FLOAT
    }
  }
  attr {
    key: "_output_shapes"
    value {
      list {
        shape {
          dim {
            size: 128
          }
        }
      }
    }
  }
}
node {
  name: "save/Read_27/ReadVariableOp"
  op: "ReadVariableOp"
  input: "dnn/hiddenlayer_1/kernel/part_0"
  device: "/device:CPU:0"
  attr {
    key: "_output_shapes"
    value {
      list {
        shape {
          dim {
            size: 128
          }
          dim {
            size: 128
          }
        }
      }
    }
  }
  attr {
    key: "dtype"
    value {
      type: DT_FLOAT
    }
  }
}
node {
  name: "save/Identity_54"
  op: "Identity"
  input: "save/Read_27/ReadVariableOp"
  device: "/device:CPU:0"
  attr {
    key: "T"
    value {
      type: DT_FLOAT
    }
  }
  attr {
    key: "_output_shapes"
    value {
      list {
        shape {
          dim {
            size: 128
          }
          dim {
            size: 128
          }
        }
      }
    }
  }
}
node {
  name: "save/Identity_55"
  op: "Identity"
  input: "save/Identity_54"
  device: "/device:CPU:0"
  attr {
    key: "T"
    value {
      type: DT_FLOAT
    }
  }
  attr {
    key: "_output_shapes"
    value {
      list {
        shape {
          dim {
            size: 128
          }
          dim {
            size: 128
          }
        }
      }
    }
  }
}
node {
  name: "save/Read_28/ReadVariableOp"
  op: "ReadVariableOp"
  input: "dnn/dnn/hiddenlayer_1/kernel/part_0/Adam"
  device: "/device:CPU:0"
  attr {
    key: "_output_shapes"
    value {
      list {
        shape {
          dim {
            size: 128
          }
          dim {
            size: 128
          }
        }
      }
    }
  }
  attr {
    key: "dtype"
    value {
      type: DT_FLOAT
    }
  }
}
node {
  name: "save/Identity_56"
  op: "Identity"
  input: "save/Read_28/ReadVariableOp"
  device: "/device:CPU:0"
  attr {
    key: "T"
    value {
      type: DT_FLOAT
    }
  }
  attr {
    key: "_output_shapes"
    value {
      list {
        shape {
          dim {
            size: 128
          }
          dim {
            size: 128
          }
        }
      }
    }
  }
}
node {
  name: "save/Identity_57"
  op: "Identity"
  input: "save/Identity_56"
  device: "/device:CPU:0"
  attr {
    key: "T"
    value {
      type: DT_FLOAT
    }
  }
  attr {
    key: "_output_shapes"
    value {
      list {
        shape {
          dim {
            size: 128
          }
          dim {
            size: 128
          }
        }
      }
    }
  }
}
node {
  name: "save/Read_29/ReadVariableOp"
  op: "ReadVariableOp"
  input: "dnn/dnn/hiddenlayer_1/kernel/part_0/Adam_1"
  device: "/device:CPU:0"
  attr {
    key: "_output_shapes"
    value {
      list {
        shape {
          dim {
            size: 128
          }
          dim {
            size: 128
          }
        }
      }
    }
  }
  attr {
    key: "dtype"
    value {
      type: DT_FLOAT
    }
  }
}
node {
  name: "save/Identity_58"
  op: "Identity"
  input: "save/Read_29/ReadVariableOp"
  device: "/device:CPU:0"
  attr {
    key: "T"
    value {
      type: DT_FLOAT
    }
  }
  attr {
    key: "_output_shapes"
    value {
      list {
        shape {
          dim {
            size: 128
          }
          dim {
            size: 128
          }
        }
      }
    }
  }
}
node {
  name: "save/Identity_59"
  op: "Identity"
  input: "save/Identity_58"
  device: "/device:CPU:0"
  attr {
    key: "T"
    value {
      type: DT_FLOAT
    }
  }
  attr {
    key: "_output_shapes"
    value {
      list {
        shape {
          dim {
            size: 128
          }
          dim {
            size: 128
          }
        }
      }
    }
  }
}
node {
  name: "save/Read_30/ReadVariableOp"
  op: "ReadVariableOp"
  input: "dnn/logits/bias/part_0"
  device: "/device:CPU:0"
  attr {
    key: "_output_shapes"
    value {
      list {
        shape {
          dim {
            size: 1
          }
        }
      }
    }
  }
  attr {
    key: "dtype"
    value {
      type: DT_FLOAT
    }
  }
}
node {
  name: "save/Identity_60"
  op: "Identity"
  input: "save/Read_30/ReadVariableOp"
  device: "/device:CPU:0"
  attr {
    key: "T"
    value {
      type: DT_FLOAT
    }
  }
  attr {
    key: "_output_shapes"
    value {
      list {
        shape {
          dim {
            size: 1
          }
        }
      }
    }
  }
}
node {
  name: "save/Identity_61"
  op: "Identity"
  input: "save/Identity_60"
  device: "/device:CPU:0"
  attr {
    key: "T"
    value {
      type: DT_FLOAT
    }
  }
  attr {
    key: "_output_shapes"
    value {
      list {
        shape {
          dim {
            size: 1
          }
        }
      }
    }
  }
}
node {
  name: "save/Read_31/ReadVariableOp"
  op: "ReadVariableOp"
  input: "dnn/dnn/logits/bias/part_0/Adam"
  device: "/device:CPU:0"
  attr {
    key: "_output_shapes"
    value {
      list {
        shape {
          dim {
            size: 1
          }
        }
      }
    }
  }
  attr {
    key: "dtype"
    value {
      type: DT_FLOAT
    }
  }
}
node {
  name: "save/Identity_62"
  op: "Identity"
  input: "save/Read_31/ReadVariableOp"
  device: "/device:CPU:0"
  attr {
    key: "T"
    value {
      type: DT_FLOAT
    }
  }
  attr {
    key: "_output_shapes"
    value {
      list {
        shape {
          dim {
            size: 1
          }
        }
      }
    }
  }
}
node {
  name: "save/Identity_63"
  op: "Identity"
  input: "save/Identity_62"
  device: "/device:CPU:0"
  attr {
    key: "T"
    value {
      type: DT_FLOAT
    }
  }
  attr {
    key: "_output_shapes"
    value {
      list {
        shape {
          dim {
            size: 1
          }
        }
      }
    }
  }
}
node {
  name: "save/Read_32/ReadVariableOp"
  op: "ReadVariableOp"
  input: "dnn/dnn/logits/bias/part_0/Adam_1"
  device: "/device:CPU:0"
  attr {
    key: "_output_shapes"
    value {
      list {
        shape {
          dim {
            size: 1
          }
        }
      }
    }
  }
  attr {
    key: "dtype"
    value {
      type: DT_FLOAT
    }
  }
}
node {
  name: "save/Identity_64"
  op: "Identity"
  input: "save/Read_32/ReadVariableOp"
  device: "/device:CPU:0"
  attr {
    key: "T"
    value {
      type: DT_FLOAT
    }
  }
  attr {
    key: "_output_shapes"
    value {
      list {
        shape {
          dim {
            size: 1
          }
        }
      }
    }
  }
}
node {
  name: "save/Identity_65"
  op: "Identity"
  input: "save/Identity_64"
  device: "/device:CPU:0"
  attr {
    key: "T"
    value {
      type: DT_FLOAT
    }
  }
  attr {
    key: "_output_shapes"
    value {
      list {
        shape {
          dim {
            size: 1
          }
        }
      }
    }
  }
}
node {
  name: "save/Read_33/ReadVariableOp"
  op: "ReadVariableOp"
  input: "dnn/logits/kernel/part_0"
  device: "/device:CPU:0"
  attr {
    key: "_output_shapes"
    value {
      list {
        shape {
          dim {
            size: 128
          }
          dim {
            size: 1
          }
        }
      }
    }
  }
  attr {
    key: "dtype"
    value {
      type: DT_FLOAT
    }
  }
}
node {
  name: "save/Identity_66"
  op: "Identity"
  input: "save/Read_33/ReadVariableOp"
  device: "/device:CPU:0"
  attr {
    key: "T"
    value {
      type: DT_FLOAT
    }
  }
  attr {
    key: "_output_shapes"
    value {
      list {
        shape {
          dim {
            size: 128
          }
          dim {
            size: 1
          }
        }
      }
    }
  }
}
node {
  name: "save/Identity_67"
  op: "Identity"
  input: "save/Identity_66"
  device: "/device:CPU:0"
  attr {
    key: "T"
    value {
      type: DT_FLOAT
    }
  }
  attr {
    key: "_output_shapes"
    value {
      list {
        shape {
          dim {
            size: 128
          }
          dim {
            size: 1
          }
        }
      }
    }
  }
}
node {
  name: "save/Read_34/ReadVariableOp"
  op: "ReadVariableOp"
  input: "dnn/dnn/logits/kernel/part_0/Adam"
  device: "/device:CPU:0"
  attr {
    key: "_output_shapes"
    value {
      list {
        shape {
          dim {
            size: 128
          }
          dim {
            size: 1
          }
        }
      }
    }
  }
  attr {
    key: "dtype"
    value {
      type: DT_FLOAT
    }
  }
}
node {
  name: "save/Identity_68"
  op: "Identity"
  input: "save/Read_34/ReadVariableOp"
  device: "/device:CPU:0"
  attr {
    key: "T"
    value {
      type: DT_FLOAT
    }
  }
  attr {
    key: "_output_shapes"
    value {
      list {
        shape {
          dim {
            size: 128
          }
          dim {
            size: 1
          }
        }
      }
    }
  }
}
node {
  name: "save/Identity_69"
  op: "Identity"
  input: "save/Identity_68"
  device: "/device:CPU:0"
  attr {
    key: "T"
    value {
      type: DT_FLOAT
    }
  }
  attr {
    key: "_output_shapes"
    value {
      list {
        shape {
          dim {
            size: 128
          }
          dim {
            size: 1
          }
        }
      }
    }
  }
}
node {
  name: "save/Read_35/ReadVariableOp"
  op: "ReadVariableOp"
  input: "dnn/dnn/logits/kernel/part_0/Adam_1"
  device: "/device:CPU:0"
  attr {
    key: "_output_shapes"
    value {
      list {
        shape {
          dim {
            size: 128
          }
          dim {
            size: 1
          }
        }
      }
    }
  }
  attr {
    key: "dtype"
    value {
      type: DT_FLOAT
    }
  }
}
node {
  name: "save/Identity_70"
  op: "Identity"
  input: "save/Read_35/ReadVariableOp"
  device: "/device:CPU:0"
  attr {
    key: "T"
    value {
      type: DT_FLOAT
    }
  }
  attr {
    key: "_output_shapes"
    value {
      list {
        shape {
          dim {
            size: 128
          }
          dim {
            size: 1
          }
        }
      }
    }
  }
}
node {
  name: "save/Identity_71"
  op: "Identity"
  input: "save/Identity_70"
  device: "/device:CPU:0"
  attr {
    key: "T"
    value {
      type: DT_FLOAT
    }
  }
  attr {
    key: "_output_shapes"
    value {
      list {
        shape {
          dim {
            size: 128
          }
          dim {
            size: 1
          }
        }
      }
    }
  }
}
node {
  name: "save/SaveV2_1/tensor_names"
  op: "Const"
  device: "/device:CPU:0"
  attr {
    key: "_output_shapes"
    value {
      list {
        shape {
          dim {
            size: 18
          }
        }
      }
    }
  }
  attr {
    key: "dtype"
    value {
      type: DT_STRING
    }
  }
  attr {
    key: "value"
    value {
      tensor {
        dtype: DT_STRING
        tensor_shape {
          dim {
            size: 18
          }
        }
        string_val: "dnn/hiddenlayer_0/bias"
        string_val: "dnn/hiddenlayer_0/bias/t_0/Adam"
        string_val: "dnn/hiddenlayer_0/bias/t_0/Adam_1"
        string_val: "dnn/hiddenlayer_0/kernel"
        string_val: "dnn/hiddenlayer_0/kernel/t_0/Adam"
        string_val: "dnn/hiddenlayer_0/kernel/t_0/Adam_1"
        string_val: "dnn/hiddenlayer_1/bias"
        string_val: "dnn/hiddenlayer_1/bias/t_0/Adam"
        string_val: "dnn/hiddenlayer_1/bias/t_0/Adam_1"
        string_val: "dnn/hiddenlayer_1/kernel"
        string_val: "dnn/hiddenlayer_1/kernel/t_0/Adam"
        string_val: "dnn/hiddenlayer_1/kernel/t_0/Adam_1"
        string_val: "dnn/logits/bias"
        string_val: "dnn/logits/bias/t_0/Adam"
        string_val: "dnn/logits/bias/t_0/Adam_1"
        string_val: "dnn/logits/kernel"
        string_val: "dnn/logits/kernel/t_0/Adam"
        string_val: "dnn/logits/kernel/t_0/Adam_1"
      }
    }
  }
}
node {
  name: "save/SaveV2_1/shape_and_slices"
  op: "Const"
  device: "/device:CPU:0"
  attr {
    key: "_output_shapes"
    value {
      list {
        shape {
          dim {
            size: 18
          }
        }
      }
    }
  }
  attr {
    key: "dtype"
    value {
      type: DT_STRING
    }
  }
  attr {
    key: "value"
    value {
      tensor {
        dtype: DT_STRING
        tensor_shape {
          dim {
            size: 18
          }
        }
        string_val: "128 0,128"
        string_val: "128 0,128"
        string_val: "128 0,128"
        string_val: "34 128 0,34:0,128"
        string_val: "34 128 0,34:0,128"
        string_val: "34 128 0,34:0,128"
        string_val: "128 0,128"
        string_val: "128 0,128"
        string_val: "128 0,128"
        string_val: "128 128 0,128:0,128"
        string_val: "128 128 0,128:0,128"
        string_val: "128 128 0,128:0,128"
        string_val: "1 0,1"
        string_val: "1 0,1"
        string_val: "1 0,1"
        string_val: "128 1 0,128:0,1"
        string_val: "128 1 0,128:0,1"
        string_val: "128 1 0,128:0,1"
      }
    }
  }
}
node {
  name: "save/SaveV2_1"
  op: "SaveV2"
  input: "save/ShardedFilename_1"
  input: "save/SaveV2_1/tensor_names"
  input: "save/SaveV2_1/shape_and_slices"
  input: "save/Identity_37"
  input: "save/Identity_39"
  input: "save/Identity_41"
  input: "save/Identity_43"
  input: "save/Identity_45"
  input: "save/Identity_47"
  input: "save/Identity_49"
  input: "save/Identity_51"
  input: "save/Identity_53"
  input: "save/Identity_55"
  input: "save/Identity_57"
  input: "save/Identity_59"
  input: "save/Identity_61"
  input: "save/Identity_63"
  input: "save/Identity_65"
  input: "save/Identity_67"
  input: "save/Identity_69"
  input: "save/Identity_71"
  device: "/device:CPU:0"
  attr {
    key: "dtypes"
    value {
      list {
        type: DT_FLOAT
        type: DT_FLOAT
        type: DT_FLOAT
        type: DT_FLOAT
        type: DT_FLOAT
        type: DT_FLOAT
        type: DT_FLOAT
        type: DT_FLOAT
        type: DT_FLOAT
        type: DT_FLOAT
        type: DT_FLOAT
        type: DT_FLOAT
        type: DT_FLOAT
        type: DT_FLOAT
        type: DT_FLOAT
        type: DT_FLOAT
        type: DT_FLOAT
        type: DT_FLOAT
      }
    }
  }
}
node {
  name: "save/control_dependency_1"
  op: "Identity"
  input: "save/ShardedFilename_1"
  input: "^save/SaveV2_1"
  device: "/device:CPU:0"
  attr {
    key: "T"
    value {
      type: DT_STRING
    }
  }
  attr {
    key: "_class"
    value {
      list {
        s: "loc:@save/ShardedFilename_1"
      }
    }
  }
  attr {
    key: "_output_shapes"
    value {
      list {
        shape {
        }
      }
    }
  }
}
node {
  name: "save/MergeV2Checkpoints/checkpoint_prefixes"
  op: "Pack"
  input: "save/ShardedFilename"
  input: "save/ShardedFilename_1"
  input: "^save/control_dependency"
  input: "^save/control_dependency_1"
  device: "/device:CPU:0"
  attr {
    key: "N"
    value {
      i: 2
    }
  }
  attr {
    key: "T"
    value {
      type: DT_STRING
    }
  }
  attr {
    key: "_output_shapes"
    value {
      list {
        shape {
          dim {
            size: 2
          }
        }
      }
    }
  }
  attr {
    key: "axis"
    value {
      i: 0
    }
  }
}
node {
  name: "save/MergeV2Checkpoints"
  op: "MergeV2Checkpoints"
  input: "save/MergeV2Checkpoints/checkpoint_prefixes"
  input: "save/Const"
  device: "/device:CPU:0"
  attr {
    key: "delete_old_dirs"
    value {
      b: true
    }
  }
}
node {
  name: "save/Identity_72"
  op: "Identity"
  input: "save/Const"
  input: "^save/MergeV2Checkpoints"
  input: "^save/control_dependency"
  input: "^save/control_dependency_1"
  device: "/device:CPU:0"
  attr {
    key: "T"
    value {
      type: DT_STRING
    }
  }
  attr {
    key: "_output_shapes"
    value {
      list {
        shape {
        }
      }
    }
  }
}
node {
  name: "save/RestoreV2/tensor_names"
  op: "Const"
  device: "/device:CPU:0"
  attr {
    key: "_output_shapes"
    value {
      list {
        shape {
          dim {
            size: 3
          }
        }
      }
    }
  }
  attr {
    key: "dtype"
    value {
      type: DT_STRING
    }
  }
  attr {
    key: "value"
    value {
      tensor {
        dtype: DT_STRING
        tensor_shape {
          dim {
            size: 3
          }
        }
        string_val: "dnn/head/head/beta1_power"
        string_val: "dnn/head/head/beta2_power"
        string_val: "global_step"
      }
    }
  }
}
node {
  name: "save/RestoreV2/shape_and_slices"
  op: "Const"
  device: "/device:CPU:0"
  attr {
    key: "_output_shapes"
    value {
      list {
        shape {
          dim {
            size: 3
          }
        }
      }
    }
  }
  attr {
    key: "dtype"
    value {
      type: DT_STRING
    }
  }
  attr {
    key: "value"
    value {
      tensor {
        dtype: DT_STRING
        tensor_shape {
          dim {
            size: 3
          }
        }
        string_val: ""
        string_val: ""
        string_val: ""
      }
    }
  }
}
node {
  name: "save/RestoreV2"
  op: "RestoreV2"
  input: "save/Const"
  input: "save/RestoreV2/tensor_names"
  input: "save/RestoreV2/shape_and_slices"
  device: "/device:CPU:0"
  attr {
    key: "_output_shapes"
    value {
      list {
        shape {
          unknown_rank: true
        }
        shape {
          unknown_rank: true
        }
        shape {
          unknown_rank: true
        }
      }
    }
  }
  attr {
    key: "dtypes"
    value {
      list {
        type: DT_FLOAT
        type: DT_FLOAT
        type: DT_INT64
      }
    }
  }
}
node {
  name: "save/Identity_73"
  op: "Identity"
  input: "save/RestoreV2"
  attr {
    key: "T"
    value {
      type: DT_FLOAT
    }
  }
  attr {
    key: "_output_shapes"
    value {
      list {
        shape {
          unknown_rank: true
        }
      }
    }
  }
}
node {
  name: "save/AssignVariableOp"
  op: "AssignVariableOp"
  input: "dnn/head/head/beta1_power"
  input: "save/Identity_73"
  attr {
    key: "dtype"
    value {
      type: DT_FLOAT
    }
  }
}
node {
  name: "save/Identity_74"
  op: "Identity"
  input: "save/RestoreV2:1"
  attr {
    key: "T"
    value {
      type: DT_FLOAT
    }
  }
  attr {
    key: "_output_shapes"
    value {
      list {
        shape {
          unknown_rank: true
        }
      }
    }
  }
}
node {
  name: "save/AssignVariableOp_1"
  op: "AssignVariableOp"
  input: "dnn/head/head/beta2_power"
  input: "save/Identity_74"
  attr {
    key: "dtype"
    value {
      type: DT_FLOAT
    }
  }
}
node {
  name: "save/Identity_75"
  op: "Identity"
  input: "save/RestoreV2:2"
  attr {
    key: "T"
    value {
      type: DT_INT64
    }
  }
  attr {
    key: "_output_shapes"
    value {
      list {
        shape {
          unknown_rank: true
        }
      }
    }
  }
}
node {
  name: "save/AssignVariableOp_2"
  op: "AssignVariableOp"
  input: "global_step"
  input: "save/Identity_75"
  attr {
    key: "dtype"
    value {
      type: DT_INT64
    }
  }
}
node {
  name: "save/restore_shard"
  op: "NoOp"
  input: "^save/AssignVariableOp"
  input: "^save/AssignVariableOp_1"
  input: "^save/AssignVariableOp_2"
}
node {
  name: "save/RestoreV2_1/tensor_names"
  op: "Const"
  device: "/device:CPU:0"
  attr {
    key: "_output_shapes"
    value {
      list {
        shape {
          dim {
            size: 18
          }
        }
      }
    }
  }
  attr {
    key: "dtype"
    value {
      type: DT_STRING
    }
  }
  attr {
    key: "value"
    value {
      tensor {
        dtype: DT_STRING
        tensor_shape {
          dim {
            size: 18
          }
        }
        string_val: "dnn/hiddenlayer_0/bias"
        string_val: "dnn/hiddenlayer_0/bias/t_0/Adam"
        string_val: "dnn/hiddenlayer_0/bias/t_0/Adam_1"
        string_val: "dnn/hiddenlayer_0/kernel"
        string_val: "dnn/hiddenlayer_0/kernel/t_0/Adam"
        string_val: "dnn/hiddenlayer_0/kernel/t_0/Adam_1"
        string_val: "dnn/hiddenlayer_1/bias"
        string_val: "dnn/hiddenlayer_1/bias/t_0/Adam"
        string_val: "dnn/hiddenlayer_1/bias/t_0/Adam_1"
        string_val: "dnn/hiddenlayer_1/kernel"
        string_val: "dnn/hiddenlayer_1/kernel/t_0/Adam"
        string_val: "dnn/hiddenlayer_1/kernel/t_0/Adam_1"
        string_val: "dnn/logits/bias"
        string_val: "dnn/logits/bias/t_0/Adam"
        string_val: "dnn/logits/bias/t_0/Adam_1"
        string_val: "dnn/logits/kernel"
        string_val: "dnn/logits/kernel/t_0/Adam"
        string_val: "dnn/logits/kernel/t_0/Adam_1"
      }
    }
  }
}
node {
  name: "save/RestoreV2_1/shape_and_slices"
  op: "Const"
  device: "/device:CPU:0"
  attr {
    key: "_output_shapes"
    value {
      list {
        shape {
          dim {
            size: 18
          }
        }
      }
    }
  }
  attr {
    key: "dtype"
    value {
      type: DT_STRING
    }
  }
  attr {
    key: "value"
    value {
      tensor {
        dtype: DT_STRING
        tensor_shape {
          dim {
            size: 18
          }
        }
        string_val: "128 0,128"
        string_val: "128 0,128"
        string_val: "128 0,128"
        string_val: "34 128 0,34:0,128"
        string_val: "34 128 0,34:0,128"
        string_val: "34 128 0,34:0,128"
        string_val: "128 0,128"
        string_val: "128 0,128"
        string_val: "128 0,128"
        string_val: "128 128 0,128:0,128"
        string_val: "128 128 0,128:0,128"
        string_val: "128 128 0,128:0,128"
        string_val: "1 0,1"
        string_val: "1 0,1"
        string_val: "1 0,1"
        string_val: "128 1 0,128:0,1"
        string_val: "128 1 0,128:0,1"
        string_val: "128 1 0,128:0,1"
      }
    }
  }
}
node {
  name: "save/RestoreV2_1"
  op: "RestoreV2"
  input: "save/Const"
  input: "save/RestoreV2_1/tensor_names"
  input: "save/RestoreV2_1/shape_and_slices"
  device: "/device:CPU:0"
  attr {
    key: "_output_shapes"
    value {
      list {
        shape {
          dim {
            size: 128
          }
        }
        shape {
          dim {
            size: 128
          }
        }
        shape {
          dim {
            size: 128
          }
        }
        shape {
          dim {
            size: 34
          }
          dim {
            size: 128
          }
        }
        shape {
          dim {
            size: 34
          }
          dim {
            size: 128
          }
        }
        shape {
          dim {
            size: 34
          }
          dim {
            size: 128
          }
        }
        shape {
          dim {
            size: 128
          }
        }
        shape {
          dim {
            size: 128
          }
        }
        shape {
          dim {
            size: 128
          }
        }
        shape {
          dim {
            size: 128
          }
          dim {
            size: 128
          }
        }
        shape {
          dim {
            size: 128
          }
          dim {
            size: 128
          }
        }
        shape {
          dim {
            size: 128
          }
          dim {
            size: 128
          }
        }
        shape {
          dim {
            size: 1
          }
        }
        shape {
          dim {
            size: 1
          }
        }
        shape {
          dim {
            size: 1
          }
        }
        shape {
          dim {
            size: 128
          }
          dim {
            size: 1
          }
        }
        shape {
          dim {
            size: 128
          }
          dim {
            size: 1
          }
        }
        shape {
          dim {
            size: 128
          }
          dim {
            size: 1
          }
        }
      }
    }
  }
  attr {
    key: "dtypes"
    value {
      list {
        type: DT_FLOAT
        type: DT_FLOAT
        type: DT_FLOAT
        type: DT_FLOAT
        type: DT_FLOAT
        type: DT_FLOAT
        type: DT_FLOAT
        type: DT_FLOAT
        type: DT_FLOAT
        type: DT_FLOAT
        type: DT_FLOAT
        type: DT_FLOAT
        type: DT_FLOAT
        type: DT_FLOAT
        type: DT_FLOAT
        type: DT_FLOAT
        type: DT_FLOAT
        type: DT_FLOAT
      }
    }
  }
}
node {
  name: "save/Identity_76"
  op: "Identity"
  input: "save/RestoreV2_1"
  device: "/device:CPU:0"
  attr {
    key: "T"
    value {
      type: DT_FLOAT
    }
  }
  attr {
    key: "_output_shapes"
    value {
      list {
        shape {
          dim {
            size: 128
          }
        }
      }
    }
  }
}
node {
  name: "save/AssignVariableOp_3"
  op: "AssignVariableOp"
  input: "dnn/hiddenlayer_0/bias/part_0"
  input: "save/Identity_76"
  device: "/device:CPU:0"
  attr {
    key: "dtype"
    value {
      type: DT_FLOAT
    }
  }
}
node {
  name: "save/Identity_77"
  op: "Identity"
  input: "save/RestoreV2_1:1"
  device: "/device:CPU:0"
  attr {
    key: "T"
    value {
      type: DT_FLOAT
    }
  }
  attr {
    key: "_output_shapes"
    value {
      list {
        shape {
          dim {
            size: 128
          }
        }
      }
    }
  }
}
node {
  name: "save/AssignVariableOp_4"
  op: "AssignVariableOp"
  input: "dnn/dnn/hiddenlayer_0/bias/part_0/Adam"
  input: "save/Identity_77"
  device: "/device:CPU:0"
  attr {
    key: "dtype"
    value {
      type: DT_FLOAT
    }
  }
}
node {
  name: "save/Identity_78"
  op: "Identity"
  input: "save/RestoreV2_1:2"
  device: "/device:CPU:0"
  attr {
    key: "T"
    value {
      type: DT_FLOAT
    }
  }
  attr {
    key: "_output_shapes"
    value {
      list {
        shape {
          dim {
            size: 128
          }
        }
      }
    }
  }
}
node {
  name: "save/AssignVariableOp_5"
  op: "AssignVariableOp"
  input: "dnn/dnn/hiddenlayer_0/bias/part_0/Adam_1"
  input: "save/Identity_78"
  device: "/device:CPU:0"
  attr {
    key: "dtype"
    value {
      type: DT_FLOAT
    }
  }
}
node {
  name: "save/Identity_79"
  op: "Identity"
  input: "save/RestoreV2_1:3"
  device: "/device:CPU:0"
  attr {
    key: "T"
    value {
      type: DT_FLOAT
    }
  }
  attr {
    key: "_output_shapes"
    value {
      list {
        shape {
          dim {
            size: 34
          }
          dim {
            size: 128
          }
        }
      }
    }
  }
}
node {
  name: "save/AssignVariableOp_6"
  op: "AssignVariableOp"
  input: "dnn/hiddenlayer_0/kernel/part_0"
  input: "save/Identity_79"
  device: "/device:CPU:0"
  attr {
    key: "dtype"
    value {
      type: DT_FLOAT
    }
  }
}
node {
  name: "save/Identity_80"
  op: "Identity"
  input: "save/RestoreV2_1:4"
  device: "/device:CPU:0"
  attr {
    key: "T"
    value {
      type: DT_FLOAT
    }
  }
  attr {
    key: "_output_shapes"
    value {
      list {
        shape {
          dim {
            size: 34
          }
          dim {
            size: 128
          }
        }
      }
    }
  }
}
node {
  name: "save/AssignVariableOp_7"
  op: "AssignVariableOp"
  input: "dnn/dnn/hiddenlayer_0/kernel/part_0/Adam"
  input: "save/Identity_80"
  device: "/device:CPU:0"
  attr {
    key: "dtype"
    value {
      type: DT_FLOAT
    }
  }
}
node {
  name: "save/Identity_81"
  op: "Identity"
  input: "save/RestoreV2_1:5"
  device: "/device:CPU:0"
  attr {
    key: "T"
    value {
      type: DT_FLOAT
    }
  }
  attr {
    key: "_output_shapes"
    value {
      list {
        shape {
          dim {
            size: 34
          }
          dim {
            size: 128
          }
        }
      }
    }
  }
}
node {
  name: "save/AssignVariableOp_8"
  op: "AssignVariableOp"
  input: "dnn/dnn/hiddenlayer_0/kernel/part_0/Adam_1"
  input: "save/Identity_81"
  device: "/device:CPU:0"
  attr {
    key: "dtype"
    value {
      type: DT_FLOAT
    }
  }
}
node {
  name: "save/Identity_82"
  op: "Identity"
  input: "save/RestoreV2_1:6"
  device: "/device:CPU:0"
  attr {
    key: "T"
    value {
      type: DT_FLOAT
    }
  }
  attr {
    key: "_output_shapes"
    value {
      list {
        shape {
          dim {
            size: 128
          }
        }
      }
    }
  }
}
node {
  name: "save/AssignVariableOp_9"
  op: "AssignVariableOp"
  input: "dnn/hiddenlayer_1/bias/part_0"
  input: "save/Identity_82"
  device: "/device:CPU:0"
  attr {
    key: "dtype"
    value {
      type: DT_FLOAT
    }
  }
}
node {
  name: "save/Identity_83"
  op: "Identity"
  input: "save/RestoreV2_1:7"
  device: "/device:CPU:0"
  attr {
    key: "T"
    value {
      type: DT_FLOAT
    }
  }
  attr {
    key: "_output_shapes"
    value {
      list {
        shape {
          dim {
            size: 128
          }
        }
      }
    }
  }
}
node {
  name: "save/AssignVariableOp_10"
  op: "AssignVariableOp"
  input: "dnn/dnn/hiddenlayer_1/bias/part_0/Adam"
  input: "save/Identity_83"
  device: "/device:CPU:0"
  attr {
    key: "dtype"
    value {
      type: DT_FLOAT
    }
  }
}
node {
  name: "save/Identity_84"
  op: "Identity"
  input: "save/RestoreV2_1:8"
  device: "/device:CPU:0"
  attr {
    key: "T"
    value {
      type: DT_FLOAT
    }
  }
  attr {
    key: "_output_shapes"
    value {
      list {
        shape {
          dim {
            size: 128
          }
        }
      }
    }
  }
}
node {
  name: "save/AssignVariableOp_11"
  op: "AssignVariableOp"
  input: "dnn/dnn/hiddenlayer_1/bias/part_0/Adam_1"
  input: "save/Identity_84"
  device: "/device:CPU:0"
  attr {
    key: "dtype"
    value {
      type: DT_FLOAT
    }
  }
}
node {
  name: "save/Identity_85"
  op: "Identity"
  input: "save/RestoreV2_1:9"
  device: "/device:CPU:0"
  attr {
    key: "T"
    value {
      type: DT_FLOAT
    }
  }
  attr {
    key: "_output_shapes"
    value {
      list {
        shape {
          dim {
            size: 128
          }
          dim {
            size: 128
          }
        }
      }
    }
  }
}
node {
  name: "save/AssignVariableOp_12"
  op: "AssignVariableOp"
  input: "dnn/hiddenlayer_1/kernel/part_0"
  input: "save/Identity_85"
  device: "/device:CPU:0"
  attr {
    key: "dtype"
    value {
      type: DT_FLOAT
    }
  }
}
node {
  name: "save/Identity_86"
  op: "Identity"
  input: "save/RestoreV2_1:10"
  device: "/device:CPU:0"
  attr {
    key: "T"
    value {
      type: DT_FLOAT
    }
  }
  attr {
    key: "_output_shapes"
    value {
      list {
        shape {
          dim {
            size: 128
          }
          dim {
            size: 128
          }
        }
      }
    }
  }
}
node {
  name: "save/AssignVariableOp_13"
  op: "AssignVariableOp"
  input: "dnn/dnn/hiddenlayer_1/kernel/part_0/Adam"
  input: "save/Identity_86"
  device: "/device:CPU:0"
  attr {
    key: "dtype"
    value {
      type: DT_FLOAT
    }
  }
}
node {
  name: "save/Identity_87"
  op: "Identity"
  input: "save/RestoreV2_1:11"
  device: "/device:CPU:0"
  attr {
    key: "T"
    value {
      type: DT_FLOAT
    }
  }
  attr {
    key: "_output_shapes"
    value {
      list {
        shape {
          dim {
            size: 128
          }
          dim {
            size: 128
          }
        }
      }
    }
  }
}
node {
  name: "save/AssignVariableOp_14"
  op: "AssignVariableOp"
  input: "dnn/dnn/hiddenlayer_1/kernel/part_0/Adam_1"
  input: "save/Identity_87"
  device: "/device:CPU:0"
  attr {
    key: "dtype"
    value {
      type: DT_FLOAT
    }
  }
}
node {
  name: "save/Identity_88"
  op: "Identity"
  input: "save/RestoreV2_1:12"
  device: "/device:CPU:0"
  attr {
    key: "T"
    value {
      type: DT_FLOAT
    }
  }
  attr {
    key: "_output_shapes"
    value {
      list {
        shape {
          dim {
            size: 1
          }
        }
      }
    }
  }
}
node {
  name: "save/AssignVariableOp_15"
  op: "AssignVariableOp"
  input: "dnn/logits/bias/part_0"
  input: "save/Identity_88"
  device: "/device:CPU:0"
  attr {
    key: "dtype"
    value {
      type: DT_FLOAT
    }
  }
}
node {
  name: "save/Identity_89"
  op: "Identity"
  input: "save/RestoreV2_1:13"
  device: "/device:CPU:0"
  attr {
    key: "T"
    value {
      type: DT_FLOAT
    }
  }
  attr {
    key: "_output_shapes"
    value {
      list {
        shape {
          dim {
            size: 1
          }
        }
      }
    }
  }
}
node {
  name: "save/AssignVariableOp_16"
  op: "AssignVariableOp"
  input: "dnn/dnn/logits/bias/part_0/Adam"
  input: "save/Identity_89"
  device: "/device:CPU:0"
  attr {
    key: "dtype"
    value {
      type: DT_FLOAT
    }
  }
}
node {
  name: "save/Identity_90"
  op: "Identity"
  input: "save/RestoreV2_1:14"
  device: "/device:CPU:0"
  attr {
    key: "T"
    value {
      type: DT_FLOAT
    }
  }
  attr {
    key: "_output_shapes"
    value {
      list {
        shape {
          dim {
            size: 1
          }
        }
      }
    }
  }
}
node {
  name: "save/AssignVariableOp_17"
  op: "AssignVariableOp"
  input: "dnn/dnn/logits/bias/part_0/Adam_1"
  input: "save/Identity_90"
  device: "/device:CPU:0"
  attr {
    key: "dtype"
    value {
      type: DT_FLOAT
    }
  }
}
node {
  name: "save/Identity_91"
  op: "Identity"
  input: "save/RestoreV2_1:15"
  device: "/device:CPU:0"
  attr {
    key: "T"
    value {
      type: DT_FLOAT
    }
  }
  attr {
    key: "_output_shapes"
    value {
      list {
        shape {
          dim {
            size: 128
          }
          dim {
            size: 1
          }
        }
      }
    }
  }
}
node {
  name: "save/AssignVariableOp_18"
  op: "AssignVariableOp"
  input: "dnn/logits/kernel/part_0"
  input: "save/Identity_91"
  device: "/device:CPU:0"
  attr {
    key: "dtype"
    value {
      type: DT_FLOAT
    }
  }
}
node {
  name: "save/Identity_92"
  op: "Identity"
  input: "save/RestoreV2_1:16"
  device: "/device:CPU:0"
  attr {
    key: "T"
    value {
      type: DT_FLOAT
    }
  }
  attr {
    key: "_output_shapes"
    value {
      list {
        shape {
          dim {
            size: 128
          }
          dim {
            size: 1
          }
        }
      }
    }
  }
}
node {
  name: "save/AssignVariableOp_19"
  op: "AssignVariableOp"
  input: "dnn/dnn/logits/kernel/part_0/Adam"
  input: "save/Identity_92"
  device: "/device:CPU:0"
  attr {
    key: "dtype"
    value {
      type: DT_FLOAT
    }
  }
}
node {
  name: "save/Identity_93"
  op: "Identity"
  input: "save/RestoreV2_1:17"
  device: "/device:CPU:0"
  attr {
    key: "T"
    value {
      type: DT_FLOAT
    }
  }
  attr {
    key: "_output_shapes"
    value {
      list {
        shape {
          dim {
            size: 128
          }
          dim {
            size: 1
          }
        }
      }
    }
  }
}
node {
  name: "save/AssignVariableOp_20"
  op: "AssignVariableOp"
  input: "dnn/dnn/logits/kernel/part_0/Adam_1"
  input: "save/Identity_93"
  device: "/device:CPU:0"
  attr {
    key: "dtype"
    value {
      type: DT_FLOAT
    }
  }
}
node {
  name: "save/restore_shard_1"
  op: "NoOp"
  input: "^save/AssignVariableOp_10"
  input: "^save/AssignVariableOp_11"
  input: "^save/AssignVariableOp_12"
  input: "^save/AssignVariableOp_13"
  input: "^save/AssignVariableOp_14"
  input: "^save/AssignVariableOp_15"
  input: "^save/AssignVariableOp_16"
  input: "^save/AssignVariableOp_17"
  input: "^save/AssignVariableOp_18"
  input: "^save/AssignVariableOp_19"
  input: "^save/AssignVariableOp_20"
  input: "^save/AssignVariableOp_3"
  input: "^save/AssignVariableOp_4"
  input: "^save/AssignVariableOp_5"
  input: "^save/AssignVariableOp_6"
  input: "^save/AssignVariableOp_7"
  input: "^save/AssignVariableOp_8"
  input: "^save/AssignVariableOp_9"
  device: "/device:CPU:0"
}
node {
  name: "save/restore_all/NoOp"
  op: "NoOp"
  input: "^save/restore_shard"
}
node {
  name: "save/restore_all/NoOp_1"
  op: "NoOp"
  input: "^save/restore_shard_1"
  device: "/device:CPU:0"
}
node {
  name: "save/restore_all"
  op: "NoOp"
  input: "^save/restore_all/NoOp"
  input: "^save/restore_all/NoOp_1"
}
versions {
  producer: 27
}
